nohup: 忽略输入
/home/fangzheng/miniconda3/envs/zl_nnunetv1/lib/python3.9/site-packages/torch/utils/cpp_extension.py:25: UserWarning: pkg_resources is deprecated as an API. See https://setuptools.pypa.io/en/latest/pkg_resources.html. The pkg_resources package is slated for removal as early as 2025-11-30. Refrain from using this package or pin to Setuptools<81.
  from pkg_resources import packaging  # type: ignore[attr-defined]
Using /home/fangzheng/.cache/torch_extensions/py39_cu113 as PyTorch extensions root...
Detected CUDA files, patching ldflags
Emitting ninja build file /home/fangzheng/.cache/torch_extensions/py39_cu113/wkv/build.ninja...
Building extension module wkv...
Allowing ninja to set a default number of workers... (overridable by setting the environment variable MAX_JOBS=N)
ninja: no work to do.
Loading extension module wkv...
###############################################
I am running the following nnUNet: 3d_fullres
My trainer class is:  <class 'nnunet_mednext.training.network_training.MedNeXt.nnUNetTrainerV2_MedNeXt.nnUNetTrainerV2_MedNeXt_S_kernel3'>
For that I will be using the following configuration:
num_classes:  1
modalities:  {0: 'CT'}
use_mask_for_norm OrderedDict([(0, False)])
keep_only_largest_region None
min_region_size_per_class None
min_size_per_class None
normalization_schemes OrderedDict([(0, 'CT')])
stages...

stage:  0
{'batch_size': 2, 'num_pool_per_axis': [5, 4, 4], 'patch_size': [128, 128, 128], 'median_patient_size_in_voxels': array([256, 128, 128]), 'current_spacing': array([1., 1., 1.]), 'original_spacing': array([1., 1., 1.]), 'do_dummy_2D_data_aug': False, 'pool_op_kernel_sizes': [[2, 2, 2], [2, 2, 2], [2, 2, 2], [2, 2, 2], [2, 1, 1]], 'conv_kernel_sizes': [[3, 3, 3], [3, 3, 3], [3, 3, 3], [3, 3, 3], [3, 3, 3], [3, 3, 3]]}

I am using stage 0 from these plans
I am using sample dice + CE loss

I am using data from this folder:  /home/fangzheng/zoule/ESO_nnUNet_dataset/nnUNet_preprocessed/Task601_lctsc40/nnUNetData_plans_v2.1_trgSp_1x1x1
###############################################
loading dataset
loading all case properties
2026-03-09 22:08:22.746471: Creating new 5-fold cross-validation split...
2026-03-09 22:08:22.746966: Desired fold for training: 0
2026-03-09 22:08:22.746998: This split has 19 training and 5 validation cases.
unpacking dataset
done
2026-03-09 22:08:23.877132: lr: 0.001
using pin_memory on device 0
/home/fangzheng/miniconda3/envs/zl_nnunetv1/lib/python3.9/site-packages/torch/nn/functional.py:2515: UserWarning: __floordiv__ is deprecated, and its behavior will change in a future version of pytorch. It currently rounds toward 0 (like the 'trunc' function NOT 'floor'). This results in incorrect rounding for negative values. To keep the current behavior, use torch.div(a, b, rounding_mode='trunc'), or for actual floor division, use torch.div(a, b, rounding_mode='floor').
  _verify_batch_size([input.size(0) * input.size(1) // num_groups, num_groups] + list(input.size()[2:]))
using pin_memory on device 0
2026-03-09 22:08:30.673995: Unable to plot network architecture:
2026-03-09 22:08:30.674203: _jit_pass_onnx_unpack_quantized_weights(): incompatible function arguments. The following argument types are supported:
    1. (arg0: torch::jit::Graph, arg1: Dict[str, IValue], arg2: bool) -> Dict[str, IValue]

Invoked with: graph(%input.1 : Float(1, 1, 128, 128, 128, strides=[2097152, 2097152, 16384, 128, 1], requires_grad=0, device=cuda:0),
      %1 : Float(1, strides=[1], requires_grad=1, device=cuda:0),
      %2 : Float(16, 1, 1, 1, 1, strides=[1, 1, 1, 1, 1], requires_grad=1, device=cuda:0),
      %3 : Float(16, strides=[1], requires_grad=1, device=cuda:0),
      %4 : Float(16, 1, 3, 3, 3, strides=[27, 27, 9, 3, 1], requires_grad=1, device=cuda:0),
      %5 : Float(16, strides=[1], requires_grad=1, device=cuda:0),
      %6 : Float(16, strides=[1], requires_grad=1, device=cuda:0),
      %7 : Float(16, strides=[1], requires_grad=1, device=cuda:0),
      %8 : Float(32, 16, 1, 1, 1, strides=[16, 1, 1, 1, 1], requires_grad=1, device=cuda:0),
      %9 : Float(32, strides=[1], requires_grad=1, device=cuda:0),
      %10 : Float(16, 32, 1, 1, 1, strides=[32, 1, 1, 1, 1], requires_grad=1, device=cuda:0),
      %11 : Float(16, strides=[1], requires_grad=1, device=cuda:0),
      %12 : Float(16, 1, 3, 3, 3, strides=[27, 27, 9, 3, 1], requires_grad=1, device=cuda:0),
      %13 : Float(16, strides=[1], requires_grad=1, device=cuda:0),
      %14 : Float(16, strides=[1], requires_grad=1, device=cuda:0),
      %15 : Float(16, strides=[1], requires_grad=1, device=cuda:0),
      %16 : Float(32, 16, 1, 1, 1, strides=[16, 1, 1, 1, 1], requires_grad=1, device=cuda:0),
      %17 : Float(32, strides=[1], requires_grad=1, device=cuda:0),
      %18 : Float(16, 32, 1, 1, 1, strides=[32, 1, 1, 1, 1], requires_grad=1, device=cuda:0),
      %19 : Float(16, strides=[1], requires_grad=1, device=cuda:0),
      %20 : Float(16, 1, 3, 3, 3, strides=[27, 27, 9, 3, 1], requires_grad=1, device=cuda:0),
      %21 : Float(16, strides=[1], requires_grad=1, device=cuda:0),
      %22 : Float(16, strides=[1], requires_grad=1, device=cuda:0),
      %23 : Float(16, strides=[1], requires_grad=1, device=cuda:0),
      %24 : Float(32, 16, 1, 1, 1, strides=[16, 1, 1, 1, 1], requires_grad=1, device=cuda:0),
      %25 : Float(32, strides=[1], requires_grad=1, device=cuda:0),
      %26 : Float(32, 32, 1, 1, 1, strides=[32, 1, 1, 1, 1], requires_grad=1, device=cuda:0),
      %27 : Float(32, strides=[1], requires_grad=1, device=cuda:0),
      %28 : Float(32, 16, 1, 1, 1, strides=[16, 1, 1, 1, 1], requires_grad=1, device=cuda:0),
      %29 : Float(32, strides=[1], requires_grad=1, device=cuda:0),
      %30 : Float(32, 1, 3, 3, 3, strides=[27, 27, 9, 3, 1], requires_grad=1, device=cuda:0),
      %31 : Float(32, strides=[1], requires_grad=1, device=cuda:0),
      %32 : Float(32, strides=[1], requires_grad=1, device=cuda:0),
      %33 : Float(32, strides=[1], requires_grad=1, device=cuda:0),
      %34 : Float(64, 32, 1, 1, 1, strides=[32, 1, 1, 1, 1], requires_grad=1, device=cuda:0),
      %35 : Float(64, strides=[1], requires_grad=1, device=cuda:0),
      %36 : Float(32, 64, 1, 1, 1, strides=[64, 1, 1, 1, 1], requires_grad=1, device=cuda:0),
      %37 : Float(32, strides=[1], requires_grad=1, device=cuda:0),
      %38 : Float(32, 1, 3, 3, 3, strides=[27, 27, 9, 3, 1], requires_grad=1, device=cuda:0),
      %39 : Float(32, strides=[1], requires_grad=1, device=cuda:0),
      %40 : Float(32, strides=[1], requires_grad=1, device=cuda:0),
      %41 : Float(32, strides=[1], requires_grad=1, device=cuda:0),
      %42 : Float(64, 32, 1, 1, 1, strides=[32, 1, 1, 1, 1], requires_grad=1, device=cuda:0),
      %43 : Float(64, strides=[1], requires_grad=1, device=cuda:0),
      %44 : Float(32, 64, 1, 1, 1, strides=[64, 1, 1, 1, 1], requires_grad=1, device=cuda:0),
      %45 : Float(32, strides=[1], requires_grad=1, device=cuda:0),
      %46 : Float(32, 1, 3, 3, 3, strides=[27, 27, 9, 3, 1], requires_grad=1, device=cuda:0),
      %47 : Float(32, strides=[1], requires_grad=1, device=cuda:0),
      %48 : Float(32, strides=[1], requires_grad=1, device=cuda:0),
      %49 : Float(32, strides=[1], requires_grad=1, device=cuda:0),
      %50 : Float(64, 32, 1, 1, 1, strides=[32, 1, 1, 1, 1], requires_grad=1, device=cuda:0),
      %51 : Float(64, strides=[1], requires_grad=1, device=cuda:0),
      %52 : Float(64, 64, 1, 1, 1, strides=[64, 1, 1, 1, 1], requires_grad=1, device=cuda:0),
      %53 : Float(64, strides=[1], requires_grad=1, device=cuda:0),
      %54 : Float(64, 32, 1, 1, 1, strides=[32, 1, 1, 1, 1], requires_grad=1, device=cuda:0),
      %55 : Float(64, strides=[1], requires_grad=1, device=cuda:0),
      %56 : Float(64, 1, 3, 3, 3, strides=[27, 27, 9, 3, 1], requires_grad=1, device=cuda:0),
      %57 : Float(64, strides=[1], requires_grad=1, device=cuda:0),
      %58 : Float(64, strides=[1], requires_grad=1, device=cuda:0),
      %59 : Float(64, strides=[1], requires_grad=1, device=cuda:0),
      %60 : Float(128, 64, 1, 1, 1, strides=[64, 1, 1, 1, 1], requires_grad=1, device=cuda:0),
      %61 : Float(128, strides=[1], requires_grad=1, device=cuda:0),
      %62 : Float(64, 128, 1, 1, 1, strides=[128, 1, 1, 1, 1], requires_grad=1, device=cuda:0),
      %63 : Float(64, strides=[1], requires_grad=1, device=cuda:0),
      %64 : Float(64, 1, 3, 3, 3, strides=[27, 27, 9, 3, 1], requires_grad=1, device=cuda:0),
      %65 : Float(64, strides=[1], requires_grad=1, device=cuda:0),
      %66 : Float(64, strides=[1], requires_grad=1, device=cuda:0),
      %67 : Float(64, strides=[1], requires_grad=1, device=cuda:0),
      %68 : Float(128, 64, 1, 1, 1, strides=[64, 1, 1, 1, 1], requires_grad=1, device=cuda:0),
      %69 : Float(128, strides=[1], requires_grad=1, device=cuda:0),
      %70 : Float(64, 128, 1, 1, 1, strides=[128, 1, 1, 1, 1], requires_grad=1, device=cuda:0),
      %71 : Float(64, strides=[1], requires_grad=1, device=cuda:0),
      %72 : Float(64, 1, 3, 3, 3, strides=[27, 27, 9, 3, 1], requires_grad=1, device=cuda:0),
      %73 : Float(64, strides=[1], requires_grad=1, device=cuda:0),
      %74 : Float(64, strides=[1], requires_grad=1, device=cuda:0),
      %75 : Float(64, strides=[1], requires_grad=1, device=cuda:0),
      %76 : Float(128, 64, 1, 1, 1, strides=[64, 1, 1, 1, 1], requires_grad=1, device=cuda:0),
      %77 : Float(128, strides=[1], requires_grad=1, device=cuda:0),
      %78 : Float(128, 128, 1, 1, 1, strides=[128, 1, 1, 1, 1], requires_grad=1, device=cuda:0),
      %79 : Float(128, strides=[1], requires_grad=1, device=cuda:0),
      %80 : Float(128, 64, 1, 1, 1, strides=[64, 1, 1, 1, 1], requires_grad=1, device=cuda:0),
      %81 : Float(128, strides=[1], requires_grad=1, device=cuda:0),
      %82 : Float(128, 1, 3, 3, 3, strides=[27, 27, 9, 3, 1], requires_grad=1, device=cuda:0),
      %83 : Float(128, strides=[1], requires_grad=1, device=cuda:0),
      %84 : Float(128, strides=[1], requires_grad=1, device=cuda:0),
      %85 : Float(128, strides=[1], requires_grad=1, device=cuda:0),
      %86 : Float(256, 128, 1, 1, 1, strides=[128, 1, 1, 1, 1], requires_grad=1, device=cuda:0),
      %87 : Float(256, strides=[1], requires_grad=1, device=cuda:0),
      %88 : Float(128, 256, 1, 1, 1, strides=[256, 1, 1, 1, 1], requires_grad=1, device=cuda:0),
      %89 : Float(128, strides=[1], requires_grad=1, device=cuda:0),
      %90 : Float(128, 1, 3, 3, 3, strides=[27, 27, 9, 3, 1], requires_grad=1, device=cuda:0),
      %91 : Float(128, strides=[1], requires_grad=1, device=cuda:0),
      %92 : Float(128, strides=[1], requires_grad=1, device=cuda:0),
      %93 : Float(128, strides=[1], requires_grad=1, device=cuda:0),
      %94 : Float(256, 128, 1, 1, 1, strides=[128, 1, 1, 1, 1], requires_grad=1, device=cuda:0),
      %95 : Float(256, strides=[1], requires_grad=1, device=cuda:0),
      %96 : Float(128, 256, 1, 1, 1, strides=[256, 1, 1, 1, 1], requires_grad=1, device=cuda:0),
      %97 : Float(128, strides=[1], requires_grad=1, device=cuda:0),
      %98 : Float(128, 1, 3, 3, 3, strides=[27, 27, 9, 3, 1], requires_grad=1, device=cuda:0),
      %99 : Float(128, strides=[1], requires_grad=1, device=cuda:0),
      %100 : Float(128, strides=[1], requires_grad=1, device=cuda:0),
      %101 : Float(128, strides=[1], requires_grad=1, device=cuda:0),
      %102 : Float(256, 128, 1, 1, 1, strides=[128, 1, 1, 1, 1], requires_grad=1, device=cuda:0),
      %103 : Float(256, strides=[1], requires_grad=1, device=cuda:0),
      %104 : Float(256, 256, 1, 1, 1, strides=[256, 1, 1, 1, 1], requires_grad=1, device=cuda:0),
      %105 : Float(256, strides=[1], requires_grad=1, device=cuda:0),
      %106 : Float(256, 128, 1, 1, 1, strides=[128, 1, 1, 1, 1], requires_grad=1, device=cuda:0),
      %107 : Float(256, strides=[1], requires_grad=1, device=cuda:0),
      %108 : Float(256, 1, 3, 3, 3, strides=[27, 27, 9, 3, 1], requires_grad=1, device=cuda:0),
      %109 : Float(256, strides=[1], requires_grad=1, device=cuda:0),
      %110 : Float(256, strides=[1], requires_grad=1, device=cuda:0),
      %111 : Float(256, strides=[1], requires_grad=1, device=cuda:0),
      %112 : Float(512, 256, 1, 1, 1, strides=[256, 1, 1, 1, 1], requires_grad=1, device=cuda:0),
      %113 : Float(512, strides=[1], requires_grad=1, device=cuda:0),
      %114 : Float(256, 512, 1, 1, 1, strides=[512, 1, 1, 1, 1], requires_grad=1, device=cuda:0),
      %115 : Float(256, strides=[1], requires_grad=1, device=cuda:0),
      %116 : Float(256, 1, 3, 3, 3, strides=[27, 27, 9, 3, 1], requires_grad=1, device=cuda:0),
      %117 : Float(256, strides=[1], requires_grad=1, device=cuda:0),
      %118 : Float(256, strides=[1], requires_grad=1, device=cuda:0),
      %119 : Float(256, strides=[1], requires_grad=1, device=cuda:0),
      %120 : Float(512, 256, 1, 1, 1, strides=[256, 1, 1, 1, 1], requires_grad=1, device=cuda:0),
      %121 : Float(512, strides=[1], requires_grad=1, device=cuda:0),
      %122 : Float(256, 512, 1, 1, 1, strides=[512, 1, 1, 1, 1], requires_grad=1, device=cuda:0),
      %123 : Float(256, strides=[1], requires_grad=1, device=cuda:0),
      %124 : Float(256, 1, 3, 3, 3, strides=[27, 27, 9, 3, 1], requires_grad=1, device=cuda:0),
      %125 : Float(256, strides=[1], requires_grad=1, device=cuda:0),
      %126 : Float(256, strides=[1], requires_grad=1, device=cuda:0),
      %127 : Float(256, strides=[1], requires_grad=1, device=cuda:0),
      %128 : Float(512, 256, 1, 1, 1, strides=[256, 1, 1, 1, 1], requires_grad=1, device=cuda:0),
      %129 : Float(512, strides=[1], requires_grad=1, device=cuda:0),
      %130 : Float(128, 512, 1, 1, 1, strides=[512, 1, 1, 1, 1], requires_grad=1, device=cuda:0),
      %131 : Float(128, strides=[1], requires_grad=1, device=cuda:0),
      %132 : Float(256, 128, 1, 1, 1, strides=[128, 1, 1, 1, 1], requires_grad=1, device=cuda:0),
      %133 : Float(128, strides=[1], requires_grad=1, device=cuda:0),
      %134 : Float(128, 1, 3, 3, 3, strides=[27, 27, 9, 3, 1], requires_grad=1, device=cuda:0),
      %135 : Float(128, strides=[1], requires_grad=1, device=cuda:0),
      %136 : Float(128, strides=[1], requires_grad=1, device=cuda:0),
      %137 : Float(128, strides=[1], requires_grad=1, device=cuda:0),
      %138 : Float(256, 128, 1, 1, 1, strides=[128, 1, 1, 1, 1], requires_grad=1, device=cuda:0),
      %139 : Float(256, strides=[1], requires_grad=1, device=cuda:0),
      %140 : Float(128, 256, 1, 1, 1, strides=[256, 1, 1, 1, 1], requires_grad=1, device=cuda:0),
      %141 : Float(128, strides=[1], requires_grad=1, device=cuda:0),
      %142 : Float(128, 1, 3, 3, 3, strides=[27, 27, 9, 3, 1], requires_grad=1, device=cuda:0),
      %143 : Float(128, strides=[1], requires_grad=1, device=cuda:0),
      %144 : Float(128, strides=[1], requires_grad=1, device=cuda:0),
      %145 : Float(128, strides=[1], requires_grad=1, device=cuda:0),
      %146 : Float(256, 128, 1, 1, 1, strides=[128, 1, 1, 1, 1], requires_grad=1, device=cuda:0),
      %147 : Float(256, strides=[1], requires_grad=1, device=cuda:0),
      %148 : Float(128, 256, 1, 1, 1, strides=[256, 1, 1, 1, 1], requires_grad=1, device=cuda:0),
      %149 : Float(128, strides=[1], requires_grad=1, device=cuda:0),
      %150 : Float(128, 1, 3, 3, 3, strides=[27, 27, 9, 3, 1], requires_grad=1, device=cuda:0),
      %151 : Float(128, strides=[1], requires_grad=1, device=cuda:0),
      %152 : Float(128, strides=[1], requires_grad=1, device=cuda:0),
      %153 : Float(128, strides=[1], requires_grad=1, device=cuda:0),
      %154 : Float(256, 128, 1, 1, 1, strides=[128, 1, 1, 1, 1], requires_grad=1, device=cuda:0),
      %155 : Float(256, strides=[1], requires_grad=1, device=cuda:0),
      %156 : Float(64, 256, 1, 1, 1, strides=[256, 1, 1, 1, 1], requires_grad=1, device=cuda:0),
      %157 : Float(64, strides=[1], requires_grad=1, device=cuda:0),
      %158 : Float(128, 64, 1, 1, 1, strides=[64, 1, 1, 1, 1], requires_grad=1, device=cuda:0),
      %159 : Float(64, strides=[1], requires_grad=1, device=cuda:0),
      %160 : Float(64, 1, 3, 3, 3, strides=[27, 27, 9, 3, 1], requires_grad=1, device=cuda:0),
      %161 : Float(64, strides=[1], requires_grad=1, device=cuda:0),
      %162 : Float(64, strides=[1], requires_grad=1, device=cuda:0),
      %163 : Float(64, strides=[1], requires_grad=1, device=cuda:0),
      %164 : Float(128, 64, 1, 1, 1, strides=[64, 1, 1, 1, 1], requires_grad=1, device=cuda:0),
      %165 : Float(128, strides=[1], requires_grad=1, device=cuda:0),
      %166 : Float(64, 128, 1, 1, 1, strides=[128, 1, 1, 1, 1], requires_grad=1, device=cuda:0),
      %167 : Float(64, strides=[1], requires_grad=1, device=cuda:0),
      %168 : Float(64, 1, 3, 3, 3, strides=[27, 27, 9, 3, 1], requires_grad=1, device=cuda:0),
      %169 : Float(64, strides=[1], requires_grad=1, device=cuda:0),
      %170 : Float(64, strides=[1], requires_grad=1, device=cuda:0),
      %171 : Float(64, strides=[1], requires_grad=1, device=cuda:0),
      %172 : Float(128, 64, 1, 1, 1, strides=[64, 1, 1, 1, 1], requires_grad=1, device=cuda:0),
      %173 : Float(128, strides=[1], requires_grad=1, device=cuda:0),
      %174 : Float(64, 128, 1, 1, 1, strides=[128, 1, 1, 1, 1], requires_grad=1, device=cuda:0),
      %175 : Float(64, strides=[1], requires_grad=1, device=cuda:0),
      %176 : Float(64, 1, 3, 3, 3, strides=[27, 27, 9, 3, 1], requires_grad=1, device=cuda:0),
      %177 : Float(64, strides=[1], requires_grad=1, device=cuda:0),
      %178 : Float(64, strides=[1], requires_grad=1, device=cuda:0),
      %179 : Float(64, strides=[1], requires_grad=1, device=cuda:0),
      %180 : Float(128, 64, 1, 1, 1, strides=[64, 1, 1, 1, 1], requires_grad=1, device=cuda:0),
      %181 : Float(128, strides=[1], requires_grad=1, device=cuda:0),
      %182 : Float(32, 128, 1, 1, 1, strides=[128, 1, 1, 1, 1], requires_grad=1, device=cuda:0),
      %183 : Float(32, strides=[1], requires_grad=1, device=cuda:0),
      %184 : Float(64, 32, 1, 1, 1, strides=[32, 1, 1, 1, 1], requires_grad=1, device=cuda:0),
      %185 : Float(32, strides=[1], requires_grad=1, device=cuda:0),
      %186 : Float(32, 1, 3, 3, 3, strides=[27, 27, 9, 3, 1], requires_grad=1, device=cuda:0),
      %187 : Float(32, strides=[1], requires_grad=1, device=cuda:0),
      %188 : Float(32, strides=[1], requires_grad=1, device=cuda:0),
      %189 : Float(32, strides=[1], requires_grad=1, device=cuda:0),
      %190 : Float(64, 32, 1, 1, 1, strides=[32, 1, 1, 1, 1], requires_grad=1, device=cuda:0),
      %191 : Float(64, strides=[1], requires_grad=1, device=cuda:0),
      %192 : Float(32, 64, 1, 1, 1, strides=[64, 1, 1, 1, 1], requires_grad=1, device=cuda:0),
      %193 : Float(32, strides=[1], requires_grad=1, device=cuda:0),
      %194 : Float(32, 1, 3, 3, 3, strides=[27, 27, 9, 3, 1], requires_grad=1, device=cuda:0),
      %195 : Float(32, strides=[1], requires_grad=1, device=cuda:0),
      %196 : Float(32, strides=[1], requires_grad=1, device=cuda:0),
      %197 : Float(32, strides=[1], requires_grad=1, device=cuda:0),
      %198 : Float(64, 32, 1, 1, 1, strides=[32, 1, 1, 1, 1], requires_grad=1, device=cuda:0),
      %199 : Float(64, strides=[1], requires_grad=1, device=cuda:0),
      %200 : Float(32, 64, 1, 1, 1, strides=[64, 1, 1, 1, 1], requires_grad=1, device=cuda:0),
      %201 : Float(32, strides=[1], requires_grad=1, device=cuda:0),
      %202 : Float(32, 1, 3, 3, 3, strides=[27, 27, 9, 3, 1], requires_grad=1, device=cuda:0),
      %203 : Float(32, strides=[1], requires_grad=1, device=cuda:0),
      %204 : Float(32, strides=[1], requires_grad=1, device=cuda:0),
      %205 : Float(32, strides=[1], requires_grad=1, device=cuda:0),
      %206 : Float(64, 32, 1, 1, 1, strides=[32, 1, 1, 1, 1], requires_grad=1, device=cuda:0),
      %207 : Float(64, strides=[1], requires_grad=1, device=cuda:0),
      %208 : Float(16, 64, 1, 1, 1, strides=[64, 1, 1, 1, 1], requires_grad=1, device=cuda:0),
      %209 : Float(16, strides=[1], requires_grad=1, device=cuda:0),
      %210 : Float(32, 16, 1, 1, 1, strides=[16, 1, 1, 1, 1], requires_grad=1, device=cuda:0),
      %211 : Float(16, strides=[1], requires_grad=1, device=cuda:0),
      %212 : Float(16, 1, 3, 3, 3, strides=[27, 27, 9, 3, 1], requires_grad=1, device=cuda:0),
      %213 : Float(16, strides=[1], requires_grad=1, device=cuda:0),
      %214 : Float(16, strides=[1], requires_grad=1, device=cuda:0),
      %215 : Float(16, strides=[1], requires_grad=1, device=cuda:0),
      %216 : Float(32, 16, 1, 1, 1, strides=[16, 1, 1, 1, 1], requires_grad=1, device=cuda:0),
      %217 : Float(32, strides=[1], requires_grad=1, device=cuda:0),
      %218 : Float(16, 32, 1, 1, 1, strides=[32, 1, 1, 1, 1], requires_grad=1, device=cuda:0),
      %219 : Float(16, strides=[1], requires_grad=1, device=cuda:0),
      %220 : Float(16, 1, 3, 3, 3, strides=[27, 27, 9, 3, 1], requires_grad=1, device=cuda:0),
      %221 : Float(16, strides=[1], requires_grad=1, device=cuda:0),
      %222 : Float(16, strides=[1], requires_grad=1, device=cuda:0),
      %223 : Float(16, strides=[1], requires_grad=1, device=cuda:0),
      %224 : Float(32, 16, 1, 1, 1, strides=[16, 1, 1, 1, 1], requires_grad=1, device=cuda:0),
      %225 : Float(32, strides=[1], requires_grad=1, device=cuda:0),
      %226 : Float(16, 32, 1, 1, 1, strides=[32, 1, 1, 1, 1], requires_grad=1, device=cuda:0),
      %227 : Float(16, strides=[1], requires_grad=1, device=cuda:0),
      %228 : Float(16, 2, 1, 1, 1, strides=[2, 1, 1, 1, 1], requires_grad=1, device=cuda:0),
      %229 : Float(2, strides=[1], requires_grad=1, device=cuda:0),
      %230 : Float(32, 2, 1, 1, 1, strides=[2, 1, 1, 1, 1], requires_grad=1, device=cuda:0),
      %231 : Float(2, strides=[1], requires_grad=1, device=cuda:0),
      %232 : Float(64, 2, 1, 1, 1, strides=[2, 1, 1, 1, 1], requires_grad=1, device=cuda:0),
      %233 : Float(2, strides=[1], requires_grad=1, device=cuda:0),
      %234 : Float(128, 2, 1, 1, 1, strides=[2, 1, 1, 1, 1], requires_grad=1, device=cuda:0),
      %235 : Float(2, strides=[1], requires_grad=1, device=cuda:0),
      %236 : Float(256, 2, 1, 1, 1, strides=[2, 1, 1, 1, 1], requires_grad=1, device=cuda:0),
      %237 : Float(2, strides=[1], requires_grad=1, device=cuda:0)):
  %3907 : int[] = prim::Constant[value=[1, 1, 1]]()
  %3908 : int[] = prim::Constant[value=[0, 0, 0]]()
  %3909 : int[] = prim::Constant[value=[1, 1, 1]]()
  %726 : bool = prim::Constant[value=0]() # /home/fangzheng/miniconda3/envs/zl_nnunetv1/lib/python3.9/site-packages/torch/nn/modules/conv.py:602:0
  %3910 : int[] = prim::Constant[value=[0, 0, 0]]()
  %731 : int = prim::Constant[value=1]() # /home/fangzheng/miniconda3/envs/zl_nnunetv1/lib/python3.9/site-packages/torch/nn/modules/conv.py:602:0
  %732 : bool = prim::Constant[value=1]() # /home/fangzheng/miniconda3/envs/zl_nnunetv1/lib/python3.9/site-packages/torch/nn/modules/conv.py:602:0
  %733 : bool = prim::Constant[value=0]() # /home/fangzheng/miniconda3/envs/zl_nnunetv1/lib/python3.9/site-packages/torch/nn/modules/conv.py:602:0
  %734 : bool = prim::Constant[value=1]() # /home/fangzheng/miniconda3/envs/zl_nnunetv1/lib/python3.9/site-packages/torch/nn/modules/conv.py:602:0
  %735 : bool = prim::Constant[value=1]() # /home/fangzheng/miniconda3/envs/zl_nnunetv1/lib/python3.9/site-packages/torch/nn/modules/conv.py:602:0
  %input.3 : Float(1, 16, 128, 128, 128, strides=[33554432, 2097152, 16384, 128, 1], requires_grad=0, device=cuda:0) = aten::_convolution(%input.1, %2, %3, %3907, %3908, %3909, %726, %3910, %731, %732, %733, %734, %735) # /home/fangzheng/miniconda3/envs/zl_nnunetv1/lib/python3.9/site-packages/torch/nn/modules/conv.py:602:0
  %3911 : int[] = prim::Constant[value=[1, 1, 1]]()
  %3912 : int[] = prim::Constant[value=[1, 1, 1]]()
  %3913 : int[] = prim::Constant[value=[1, 1, 1]]()
  %749 : bool = prim::Constant[value=0]() # /home/fangzheng/miniconda3/envs/zl_nnunetv1/lib/python3.9/site-packages/torch/nn/modules/conv.py:602:0
  %3914 : int[] = prim::Constant[value=[0, 0, 0]]()
  %754 : int = prim::Constant[value=16]() # /home/fangzheng/miniconda3/envs/zl_nnunetv1/lib/python3.9/site-packages/torch/nn/modules/conv.py:602:0
  %755 : bool = prim::Constant[value=1]() # /home/fangzheng/miniconda3/envs/zl_nnunetv1/lib/python3.9/site-packages/torch/nn/modules/conv.py:602:0
  %756 : bool = prim::Constant[value=0]() # /home/fangzheng/miniconda3/envs/zl_nnunetv1/lib/python3.9/site-packages/torch/nn/modules/conv.py:602:0
  %757 : bool = prim::Constant[value=1]() # /home/fangzheng/miniconda3/envs/zl_nnunetv1/lib/python3.9/site-packages/torch/nn/modules/conv.py:602:0
  %758 : bool = prim::Constant[value=1]() # /home/fangzheng/miniconda3/envs/zl_nnunetv1/lib/python3.9/site-packages/torch/nn/modules/conv.py:602:0
  %input.5 : Float(1, 16, 128, 128, 128, strides=[33554432, 2097152, 16384, 128, 1], requires_grad=0, device=cuda:0) = aten::_convolution(%input.3, %4, %5, %3911, %3912, %3913, %749, %3914, %754, %755, %756, %757, %758) # /home/fangzheng/miniconda3/envs/zl_nnunetv1/lib/python3.9/site-packages/torch/nn/modules/conv.py:602:0
  %790 : int = prim::Constant[value=16]() # /home/fangzheng/miniconda3/envs/zl_nnunetv1/lib/python3.9/site-packages/torch/nn/functional.py:2516:0
  %791 : float = prim::Constant[value=1.0000000000000001e-05]() # /home/fangzheng/miniconda3/envs/zl_nnunetv1/lib/python3.9/site-packages/torch/nn/functional.py:2516:0
  %792 : bool = prim::Constant[value=1]() # /home/fangzheng/miniconda3/envs/zl_nnunetv1/lib/python3.9/site-packages/torch/nn/functional.py:2516:0
  %input.7 : Float(1, 16, 128, 128, 128, strides=[33554432, 2097152, 16384, 128, 1], requires_grad=1, device=cuda:0) = aten::group_norm(%input.5, %790, %6, %7, %791, %792) # /home/fangzheng/miniconda3/envs/zl_nnunetv1/lib/python3.9/site-packages/torch/nn/functional.py:2516:0
  %3915 : int[] = prim::Constant[value=[1, 1, 1]]()
  %3916 : int[] = prim::Constant[value=[0, 0, 0]]()
  %3917 : int[] = prim::Constant[value=[1, 1, 1]]()
  %806 : bool = prim::Constant[value=0]() # /home/fangzheng/miniconda3/envs/zl_nnunetv1/lib/python3.9/site-packages/torch/nn/modules/conv.py:602:0
  %3918 : int[] = prim::Constant[value=[0, 0, 0]]()
  %811 : int = prim::Constant[value=1]() # /home/fangzheng/miniconda3/envs/zl_nnunetv1/lib/python3.9/site-packages/torch/nn/modules/conv.py:602:0
  %812 : bool = prim::Constant[value=1]() # /home/fangzheng/miniconda3/envs/zl_nnunetv1/lib/python3.9/site-packages/torch/nn/modules/conv.py:602:0
  %813 : bool = prim::Constant[value=0]() # /home/fangzheng/miniconda3/envs/zl_nnunetv1/lib/python3.9/site-packages/torch/nn/modules/conv.py:602:0
  %814 : bool = prim::Constant[value=1]() # /home/fangzheng/miniconda3/envs/zl_nnunetv1/lib/python3.9/site-packages/torch/nn/modules/conv.py:602:0
  %815 : bool = prim::Constant[value=1]() # /home/fangzheng/miniconda3/envs/zl_nnunetv1/lib/python3.9/site-packages/torch/nn/modules/conv.py:602:0
  %816 : Float(1, 32, 128, 128, 128, strides=[67108864, 2097152, 16384, 128, 1], requires_grad=0, device=cuda:0) = aten::_convolution(%input.7, %8, %9, %3915, %3916, %3917, %806, %3918, %811, %812, %813, %814, %815) # /home/fangzheng/miniconda3/envs/zl_nnunetv1/lib/python3.9/site-packages/torch/nn/modules/conv.py:602:0
  %817 : str = prim::Constant[value="none"]() # /home/fangzheng/miniconda3/envs/zl_nnunetv1/lib/python3.9/site-packages/torch/nn/modules/activation.py:681:0
  %input.9 : Float(1, 32, 128, 128, 128, strides=[67108864, 2097152, 16384, 128, 1], requires_grad=1, device=cuda:0) = aten::gelu(%816, %817) # /home/fangzheng/miniconda3/envs/zl_nnunetv1/lib/python3.9/site-packages/torch/nn/modules/activation.py:681:0
  %3919 : int[] = prim::Constant[value=[1, 1, 1]]()
  %3920 : int[] = prim::Constant[value=[0, 0, 0]]()
  %3921 : int[] = prim::Constant[value=[1, 1, 1]]()
  %831 : bool = prim::Constant[value=0]() # /home/fangzheng/miniconda3/envs/zl_nnunetv1/lib/python3.9/site-packages/torch/nn/modules/conv.py:602:0
  %3922 : int[] = prim::Constant[value=[0, 0, 0]]()
  %836 : int = prim::Constant[value=1]() # /home/fangzheng/miniconda3/envs/zl_nnunetv1/lib/python3.9/site-packages/torch/nn/modules/conv.py:602:0
  %837 : bool = prim::Constant[value=1]() # /home/fangzheng/miniconda3/envs/zl_nnunetv1/lib/python3.9/site-packages/torch/nn/modules/conv.py:602:0
  %838 : bool = prim::Constant[value=0]() # /home/fangzheng/miniconda3/envs/zl_nnunetv1/lib/python3.9/site-packages/torch/nn/modules/conv.py:602:0
  %839 : bool = prim::Constant[value=1]() # /home/fangzheng/miniconda3/envs/zl_nnunetv1/lib/python3.9/site-packages/torch/nn/modules/conv.py:602:0
  %840 : bool = prim::Constant[value=1]() # /home/fangzheng/miniconda3/envs/zl_nnunetv1/lib/python3.9/site-packages/torch/nn/modules/conv.py:602:0
  %841 : Float(1, 16, 128, 128, 128, strides=[33554432, 2097152, 16384, 128, 1], requires_grad=0, device=cuda:0) = aten::_convolution(%input.9, %10, %11, %3919, %3920, %3921, %831, %3922, %836, %837, %838, %839, %840) # /home/fangzheng/miniconda3/envs/zl_nnunetv1/lib/python3.9/site-packages/torch/nn/modules/conv.py:602:0
  %842 : int = prim::Constant[value=1]() # /home/fangzheng/zoule/mednext/nnunet_mednext/network_architecture/mednextv1/blocks.py:100:0
  %input.11 : Float(1, 16, 128, 128, 128, strides=[33554432, 2097152, 16384, 128, 1], requires_grad=1, device=cuda:0) = aten::add(%input.3, %841, %842) # /home/fangzheng/zoule/mednext/nnunet_mednext/network_architecture/mednextv1/blocks.py:100:0
  %3923 : int[] = prim::Constant[value=[1, 1, 1]]()
  %3924 : int[] = prim::Constant[value=[1, 1, 1]]()
  %3925 : int[] = prim::Constant[value=[1, 1, 1]]()
  %856 : bool = prim::Constant[value=0]() # /home/fangzheng/miniconda3/envs/zl_nnunetv1/lib/python3.9/site-packages/torch/nn/modules/conv.py:602:0
  %3926 : int[] = prim::Constant[value=[0, 0, 0]]()
  %861 : int = prim::Constant[value=16]() # /home/fangzheng/miniconda3/envs/zl_nnunetv1/lib/python3.9/site-packages/torch/nn/modules/conv.py:602:0
  %862 : bool = prim::Constant[value=1]() # /home/fangzheng/miniconda3/envs/zl_nnunetv1/lib/python3.9/site-packages/torch/nn/modules/conv.py:602:0
  %863 : bool = prim::Constant[value=0]() # /home/fangzheng/miniconda3/envs/zl_nnunetv1/lib/python3.9/site-packages/torch/nn/modules/conv.py:602:0
  %864 : bool = prim::Constant[value=1]() # /home/fangzheng/miniconda3/envs/zl_nnunetv1/lib/python3.9/site-packages/torch/nn/modules/conv.py:602:0
  %865 : bool = prim::Constant[value=1]() # /home/fangzheng/miniconda3/envs/zl_nnunetv1/lib/python3.9/site-packages/torch/nn/modules/conv.py:602:0
  %input.13 : Float(1, 16, 128, 128, 128, strides=[33554432, 2097152, 16384, 128, 1], requires_grad=0, device=cuda:0) = aten::_convolution(%input.11, %12, %13, %3923, %3924, %3925, %856, %3926, %861, %862, %863, %864, %865) # /home/fangzheng/miniconda3/envs/zl_nnunetv1/lib/python3.9/site-packages/torch/nn/modules/conv.py:602:0
  %897 : int = prim::Constant[value=16]() # /home/fangzheng/miniconda3/envs/zl_nnunetv1/lib/python3.9/site-packages/torch/nn/functional.py:2516:0
  %898 : float = prim::Constant[value=1.0000000000000001e-05]() # /home/fangzheng/miniconda3/envs/zl_nnunetv1/lib/python3.9/site-packages/torch/nn/functional.py:2516:0
  %899 : bool = prim::Constant[value=1]() # /home/fangzheng/miniconda3/envs/zl_nnunetv1/lib/python3.9/site-packages/torch/nn/functional.py:2516:0
  %input.15 : Float(1, 16, 128, 128, 128, strides=[33554432, 2097152, 16384, 128, 1], requires_grad=1, device=cuda:0) = aten::group_norm(%input.13, %897, %14, %15, %898, %899) # /home/fangzheng/miniconda3/envs/zl_nnunetv1/lib/python3.9/site-packages/torch/nn/functional.py:2516:0
  %3927 : int[] = prim::Constant[value=[1, 1, 1]]()
  %3928 : int[] = prim::Constant[value=[0, 0, 0]]()
  %3929 : int[] = prim::Constant[value=[1, 1, 1]]()
  %913 : bool = prim::Constant[value=0]() # /home/fangzheng/miniconda3/envs/zl_nnunetv1/lib/python3.9/site-packages/torch/nn/modules/conv.py:602:0
  %3930 : int[] = prim::Constant[value=[0, 0, 0]]()
  %918 : int = prim::Constant[value=1]() # /home/fangzheng/miniconda3/envs/zl_nnunetv1/lib/python3.9/site-packages/torch/nn/modules/conv.py:602:0
  %919 : bool = prim::Constant[value=1]() # /home/fangzheng/miniconda3/envs/zl_nnunetv1/lib/python3.9/site-packages/torch/nn/modules/conv.py:602:0
  %920 : bool = prim::Constant[value=0]() # /home/fangzheng/miniconda3/envs/zl_nnunetv1/lib/python3.9/site-packages/torch/nn/modules/conv.py:602:0
  %921 : bool = prim::Constant[value=1]() # /home/fangzheng/miniconda3/envs/zl_nnunetv1/lib/python3.9/site-packages/torch/nn/modules/conv.py:602:0
  %922 : bool = prim::Constant[value=1]() # /home/fangzheng/miniconda3/envs/zl_nnunetv1/lib/python3.9/site-packages/torch/nn/modules/conv.py:602:0
  %923 : Float(1, 32, 128, 128, 128, strides=[67108864, 2097152, 16384, 128, 1], requires_grad=0, device=cuda:0) = aten::_convolution(%input.15, %16, %17, %3927, %3928, %3929, %913, %3930, %918, %919, %920, %921, %922) # /home/fangzheng/miniconda3/envs/zl_nnunetv1/lib/python3.9/site-packages/torch/nn/modules/conv.py:602:0
  %924 : str = prim::Constant[value="none"]() # /home/fangzheng/miniconda3/envs/zl_nnunetv1/lib/python3.9/site-packages/torch/nn/modules/activation.py:681:0
  %input.17 : Float(1, 32, 128, 128, 128, strides=[67108864, 2097152, 16384, 128, 1], requires_grad=1, device=cuda:0) = aten::gelu(%923, %924) # /home/fangzheng/miniconda3/envs/zl_nnunetv1/lib/python3.9/site-packages/torch/nn/modules/activation.py:681:0
  %3931 : int[] = prim::Constant[value=[1, 1, 1]]()
  %3932 : int[] = prim::Constant[value=[0, 0, 0]]()
  %3933 : int[] = prim::Constant[value=[1, 1, 1]]()
  %938 : bool = prim::Constant[value=0]() # /home/fangzheng/miniconda3/envs/zl_nnunetv1/lib/python3.9/site-packages/torch/nn/modules/conv.py:602:0
  %3934 : int[] = prim::Constant[value=[0, 0, 0]]()
  %943 : int = prim::Constant[value=1]() # /home/fangzheng/miniconda3/envs/zl_nnunetv1/lib/python3.9/site-packages/torch/nn/modules/conv.py:602:0
  %944 : bool = prim::Constant[value=1]() # /home/fangzheng/miniconda3/envs/zl_nnunetv1/lib/python3.9/site-packages/torch/nn/modules/conv.py:602:0
  %945 : bool = prim::Constant[value=0]() # /home/fangzheng/miniconda3/envs/zl_nnunetv1/lib/python3.9/site-packages/torch/nn/modules/conv.py:602:0
  %946 : bool = prim::Constant[value=1]() # /home/fangzheng/miniconda3/envs/zl_nnunetv1/lib/python3.9/site-packages/torch/nn/modules/conv.py:602:0
  %947 : bool = prim::Constant[value=1]() # /home/fangzheng/miniconda3/envs/zl_nnunetv1/lib/python3.9/site-packages/torch/nn/modules/conv.py:602:0
  %948 : Float(1, 16, 128, 128, 128, strides=[33554432, 2097152, 16384, 128, 1], requires_grad=0, device=cuda:0) = aten::_convolution(%input.17, %18, %19, %3931, %3932, %3933, %938, %3934, %943, %944, %945, %946, %947) # /home/fangzheng/miniconda3/envs/zl_nnunetv1/lib/python3.9/site-packages/torch/nn/modules/conv.py:602:0
  %949 : int = prim::Constant[value=1]() # /home/fangzheng/zoule/mednext/nnunet_mednext/network_architecture/mednextv1/blocks.py:100:0
  %input.19 : Float(1, 16, 128, 128, 128, strides=[33554432, 2097152, 16384, 128, 1], requires_grad=1, device=cuda:0) = aten::add(%input.11, %948, %949) # /home/fangzheng/zoule/mednext/nnunet_mednext/network_architecture/mednextv1/blocks.py:100:0
  %3935 : int[] = prim::Constant[value=[2, 2, 2]]()
  %3936 : int[] = prim::Constant[value=[1, 1, 1]]()
  %3937 : int[] = prim::Constant[value=[1, 1, 1]]()
  %963 : bool = prim::Constant[value=0]() # /home/fangzheng/miniconda3/envs/zl_nnunetv1/lib/python3.9/site-packages/torch/nn/modules/conv.py:602:0
  %3938 : int[] = prim::Constant[value=[0, 0, 0]]()
  %968 : int = prim::Constant[value=16]() # /home/fangzheng/miniconda3/envs/zl_nnunetv1/lib/python3.9/site-packages/torch/nn/modules/conv.py:602:0
  %969 : bool = prim::Constant[value=1]() # /home/fangzheng/miniconda3/envs/zl_nnunetv1/lib/python3.9/site-packages/torch/nn/modules/conv.py:602:0
  %970 : bool = prim::Constant[value=0]() # /home/fangzheng/miniconda3/envs/zl_nnunetv1/lib/python3.9/site-packages/torch/nn/modules/conv.py:602:0
  %971 : bool = prim::Constant[value=1]() # /home/fangzheng/miniconda3/envs/zl_nnunetv1/lib/python3.9/site-packages/torch/nn/modules/conv.py:602:0
  %972 : bool = prim::Constant[value=1]() # /home/fangzheng/miniconda3/envs/zl_nnunetv1/lib/python3.9/site-packages/torch/nn/modules/conv.py:602:0
  %input.21 : Float(1, 16, 64, 64, 64, strides=[4194304, 262144, 4096, 64, 1], requires_grad=0, device=cuda:0) = aten::_convolution(%input.19, %20, %21, %3935, %3936, %3937, %963, %3938, %968, %969, %970, %971, %972) # /home/fangzheng/miniconda3/envs/zl_nnunetv1/lib/python3.9/site-packages/torch/nn/modules/conv.py:602:0
  %1004 : int = prim::Constant[value=16]() # /home/fangzheng/miniconda3/envs/zl_nnunetv1/lib/python3.9/site-packages/torch/nn/functional.py:2516:0
  %1005 : float = prim::Constant[value=1.0000000000000001e-05]() # /home/fangzheng/miniconda3/envs/zl_nnunetv1/lib/python3.9/site-packages/torch/nn/functional.py:2516:0
  %1006 : bool = prim::Constant[value=1]() # /home/fangzheng/miniconda3/envs/zl_nnunetv1/lib/python3.9/site-packages/torch/nn/functional.py:2516:0
  %input.23 : Float(1, 16, 64, 64, 64, strides=[4194304, 262144, 4096, 64, 1], requires_grad=1, device=cuda:0) = aten::group_norm(%input.21, %1004, %22, %23, %1005, %1006) # /home/fangzheng/miniconda3/envs/zl_nnunetv1/lib/python3.9/site-packages/torch/nn/functional.py:2516:0
  %3939 : int[] = prim::Constant[value=[1, 1, 1]]()
  %3940 : int[] = prim::Constant[value=[0, 0, 0]]()
  %3941 : int[] = prim::Constant[value=[1, 1, 1]]()
  %1020 : bool = prim::Constant[value=0]() # /home/fangzheng/miniconda3/envs/zl_nnunetv1/lib/python3.9/site-packages/torch/nn/modules/conv.py:602:0
  %3942 : int[] = prim::Constant[value=[0, 0, 0]]()
  %1025 : int = prim::Constant[value=1]() # /home/fangzheng/miniconda3/envs/zl_nnunetv1/lib/python3.9/site-packages/torch/nn/modules/conv.py:602:0
  %1026 : bool = prim::Constant[value=1]() # /home/fangzheng/miniconda3/envs/zl_nnunetv1/lib/python3.9/site-packages/torch/nn/modules/conv.py:602:0
  %1027 : bool = prim::Constant[value=0]() # /home/fangzheng/miniconda3/envs/zl_nnunetv1/lib/python3.9/site-packages/torch/nn/modules/conv.py:602:0
  %1028 : bool = prim::Constant[value=1]() # /home/fangzheng/miniconda3/envs/zl_nnunetv1/lib/python3.9/site-packages/torch/nn/modules/conv.py:602:0
  %1029 : bool = prim::Constant[value=1]() # /home/fangzheng/miniconda3/envs/zl_nnunetv1/lib/python3.9/site-packages/torch/nn/modules/conv.py:602:0
  %1030 : Float(1, 32, 64, 64, 64, strides=[8388608, 262144, 4096, 64, 1], requires_grad=0, device=cuda:0) = aten::_convolution(%input.23, %24, %25, %3939, %3940, %3941, %1020, %3942, %1025, %1026, %1027, %1028, %1029) # /home/fangzheng/miniconda3/envs/zl_nnunetv1/lib/python3.9/site-packages/torch/nn/modules/conv.py:602:0
  %1031 : str = prim::Constant[value="none"]() # /home/fangzheng/miniconda3/envs/zl_nnunetv1/lib/python3.9/site-packages/torch/nn/modules/activation.py:681:0
  %input.25 : Float(1, 32, 64, 64, 64, strides=[8388608, 262144, 4096, 64, 1], requires_grad=1, device=cuda:0) = aten::gelu(%1030, %1031) # /home/fangzheng/miniconda3/envs/zl_nnunetv1/lib/python3.9/site-packages/torch/nn/modules/activation.py:681:0
  %3943 : int[] = prim::Constant[value=[1, 1, 1]]()
  %3944 : int[] = prim::Constant[value=[0, 0, 0]]()
  %3945 : int[] = prim::Constant[value=[1, 1, 1]]()
  %1045 : bool = prim::Constant[value=0]() # /home/fangzheng/miniconda3/envs/zl_nnunetv1/lib/python3.9/site-packages/torch/nn/modules/conv.py:602:0
  %3946 : int[] = prim::Constant[value=[0, 0, 0]]()
  %1050 : int = prim::Constant[value=1]() # /home/fangzheng/miniconda3/envs/zl_nnunetv1/lib/python3.9/site-packages/torch/nn/modules/conv.py:602:0
  %1051 : bool = prim::Constant[value=1]() # /home/fangzheng/miniconda3/envs/zl_nnunetv1/lib/python3.9/site-packages/torch/nn/modules/conv.py:602:0
  %1052 : bool = prim::Constant[value=0]() # /home/fangzheng/miniconda3/envs/zl_nnunetv1/lib/python3.9/site-packages/torch/nn/modules/conv.py:602:0
  %1053 : bool = prim::Constant[value=1]() # /home/fangzheng/miniconda3/envs/zl_nnunetv1/lib/python3.9/site-packages/torch/nn/modules/conv.py:602:0
  %1054 : bool = prim::Constant[value=1]() # /home/fangzheng/miniconda3/envs/zl_nnunetv1/lib/python3.9/site-packages/torch/nn/modules/conv.py:602:0
  %1055 : Float(1, 32, 64, 64, 64, strides=[8388608, 262144, 4096, 64, 1], requires_grad=0, device=cuda:0) = aten::_convolution(%input.25, %26, %27, %3943, %3944, %3945, %1045, %3946, %1050, %1051, %1052, %1053, %1054) # /home/fangzheng/miniconda3/envs/zl_nnunetv1/lib/python3.9/site-packages/torch/nn/modules/conv.py:602:0
  %3947 : int[] = prim::Constant[value=[2, 2, 2]]()
  %3948 : int[] = prim::Constant[value=[0, 0, 0]]()
  %3949 : int[] = prim::Constant[value=[1, 1, 1]]()
  %1068 : bool = prim::Constant[value=0]() # /home/fangzheng/miniconda3/envs/zl_nnunetv1/lib/python3.9/site-packages/torch/nn/modules/conv.py:602:0
  %3950 : int[] = prim::Constant[value=[0, 0, 0]]()
  %1073 : int = prim::Constant[value=1]() # /home/fangzheng/miniconda3/envs/zl_nnunetv1/lib/python3.9/site-packages/torch/nn/modules/conv.py:602:0
  %1074 : bool = prim::Constant[value=1]() # /home/fangzheng/miniconda3/envs/zl_nnunetv1/lib/python3.9/site-packages/torch/nn/modules/conv.py:602:0
  %1075 : bool = prim::Constant[value=0]() # /home/fangzheng/miniconda3/envs/zl_nnunetv1/lib/python3.9/site-packages/torch/nn/modules/conv.py:602:0
  %1076 : bool = prim::Constant[value=1]() # /home/fangzheng/miniconda3/envs/zl_nnunetv1/lib/python3.9/site-packages/torch/nn/modules/conv.py:602:0
  %1077 : bool = prim::Constant[value=1]() # /home/fangzheng/miniconda3/envs/zl_nnunetv1/lib/python3.9/site-packages/torch/nn/modules/conv.py:602:0
  %1078 : Float(1, 32, 64, 64, 64, strides=[8388608, 262144, 4096, 64, 1], requires_grad=0, device=cuda:0) = aten::_convolution(%input.19, %28, %29, %3947, %3948, %3949, %1068, %3950, %1073, %1074, %1075, %1076, %1077) # /home/fangzheng/miniconda3/envs/zl_nnunetv1/lib/python3.9/site-packages/torch/nn/modules/conv.py:602:0
  %1079 : int = prim::Constant[value=1]() # /home/fangzheng/zoule/mednext/nnunet_mednext/network_architecture/mednextv1/blocks.py:141:0
  %input.27 : Float(1, 32, 64, 64, 64, strides=[8388608, 262144, 4096, 64, 1], requires_grad=1, device=cuda:0) = aten::add(%1055, %1078, %1079) # /home/fangzheng/zoule/mednext/nnunet_mednext/network_architecture/mednextv1/blocks.py:141:0
  %3951 : int[] = prim::Constant[value=[1, 1, 1]]()
  %3952 : int[] = prim::Constant[value=[1, 1, 1]]()
  %3953 : int[] = prim::Constant[value=[1, 1, 1]]()
  %1093 : bool = prim::Constant[value=0]() # /home/fangzheng/miniconda3/envs/zl_nnunetv1/lib/python3.9/site-packages/torch/nn/modules/conv.py:602:0
  %3954 : int[] = prim::Constant[value=[0, 0, 0]]()
  %1098 : int = prim::Constant[value=32]() # /home/fangzheng/miniconda3/envs/zl_nnunetv1/lib/python3.9/site-packages/torch/nn/modules/conv.py:602:0
  %1099 : bool = prim::Constant[value=1]() # /home/fangzheng/miniconda3/envs/zl_nnunetv1/lib/python3.9/site-packages/torch/nn/modules/conv.py:602:0
  %1100 : bool = prim::Constant[value=0]() # /home/fangzheng/miniconda3/envs/zl_nnunetv1/lib/python3.9/site-packages/torch/nn/modules/conv.py:602:0
  %1101 : bool = prim::Constant[value=1]() # /home/fangzheng/miniconda3/envs/zl_nnunetv1/lib/python3.9/site-packages/torch/nn/modules/conv.py:602:0
  %1102 : bool = prim::Constant[value=1]() # /home/fangzheng/miniconda3/envs/zl_nnunetv1/lib/python3.9/site-packages/torch/nn/modules/conv.py:602:0
  %input.29 : Float(1, 32, 64, 64, 64, strides=[8388608, 262144, 4096, 64, 1], requires_grad=0, device=cuda:0) = aten::_convolution(%input.27, %30, %31, %3951, %3952, %3953, %1093, %3954, %1098, %1099, %1100, %1101, %1102) # /home/fangzheng/miniconda3/envs/zl_nnunetv1/lib/python3.9/site-packages/torch/nn/modules/conv.py:602:0
  %1134 : int = prim::Constant[value=32]() # /home/fangzheng/miniconda3/envs/zl_nnunetv1/lib/python3.9/site-packages/torch/nn/functional.py:2516:0
  %1135 : float = prim::Constant[value=1.0000000000000001e-05]() # /home/fangzheng/miniconda3/envs/zl_nnunetv1/lib/python3.9/site-packages/torch/nn/functional.py:2516:0
  %1136 : bool = prim::Constant[value=1]() # /home/fangzheng/miniconda3/envs/zl_nnunetv1/lib/python3.9/site-packages/torch/nn/functional.py:2516:0
  %input.31 : Float(1, 32, 64, 64, 64, strides=[8388608, 262144, 4096, 64, 1], requires_grad=1, device=cuda:0) = aten::group_norm(%input.29, %1134, %32, %33, %1135, %1136) # /home/fangzheng/miniconda3/envs/zl_nnunetv1/lib/python3.9/site-packages/torch/nn/functional.py:2516:0
  %3955 : int[] = prim::Constant[value=[1, 1, 1]]()
  %3956 : int[] = prim::Constant[value=[0, 0, 0]]()
  %3957 : int[] = prim::Constant[value=[1, 1, 1]]()
  %1150 : bool = prim::Constant[value=0]() # /home/fangzheng/miniconda3/envs/zl_nnunetv1/lib/python3.9/site-packages/torch/nn/modules/conv.py:602:0
  %3958 : int[] = prim::Constant[value=[0, 0, 0]]()
  %1155 : int = prim::Constant[value=1]() # /home/fangzheng/miniconda3/envs/zl_nnunetv1/lib/python3.9/site-packages/torch/nn/modules/conv.py:602:0
  %1156 : bool = prim::Constant[value=1]() # /home/fangzheng/miniconda3/envs/zl_nnunetv1/lib/python3.9/site-packages/torch/nn/modules/conv.py:602:0
  %1157 : bool = prim::Constant[value=0]() # /home/fangzheng/miniconda3/envs/zl_nnunetv1/lib/python3.9/site-packages/torch/nn/modules/conv.py:602:0
  %1158 : bool = prim::Constant[value=1]() # /home/fangzheng/miniconda3/envs/zl_nnunetv1/lib/python3.9/site-packages/torch/nn/modules/conv.py:602:0
  %1159 : bool = prim::Constant[value=1]() # /home/fangzheng/miniconda3/envs/zl_nnunetv1/lib/python3.9/site-packages/torch/nn/modules/conv.py:602:0
  %1160 : Float(1, 64, 64, 64, 64, strides=[16777216, 262144, 4096, 64, 1], requires_grad=0, device=cuda:0) = aten::_convolution(%input.31, %34, %35, %3955, %3956, %3957, %1150, %3958, %1155, %1156, %1157, %1158, %1159) # /home/fangzheng/miniconda3/envs/zl_nnunetv1/lib/python3.9/site-packages/torch/nn/modules/conv.py:602:0
  %1161 : str = prim::Constant[value="none"]() # /home/fangzheng/miniconda3/envs/zl_nnunetv1/lib/python3.9/site-packages/torch/nn/modules/activation.py:681:0
  %input.33 : Float(1, 64, 64, 64, 64, strides=[16777216, 262144, 4096, 64, 1], requires_grad=1, device=cuda:0) = aten::gelu(%1160, %1161) # /home/fangzheng/miniconda3/envs/zl_nnunetv1/lib/python3.9/site-packages/torch/nn/modules/activation.py:681:0
  %3959 : int[] = prim::Constant[value=[1, 1, 1]]()
  %3960 : int[] = prim::Constant[value=[0, 0, 0]]()
  %3961 : int[] = prim::Constant[value=[1, 1, 1]]()
  %1175 : bool = prim::Constant[value=0]() # /home/fangzheng/miniconda3/envs/zl_nnunetv1/lib/python3.9/site-packages/torch/nn/modules/conv.py:602:0
  %3962 : int[] = prim::Constant[value=[0, 0, 0]]()
  %1180 : int = prim::Constant[value=1]() # /home/fangzheng/miniconda3/envs/zl_nnunetv1/lib/python3.9/site-packages/torch/nn/modules/conv.py:602:0
  %1181 : bool = prim::Constant[value=1]() # /home/fangzheng/miniconda3/envs/zl_nnunetv1/lib/python3.9/site-packages/torch/nn/modules/conv.py:602:0
  %1182 : bool = prim::Constant[value=0]() # /home/fangzheng/miniconda3/envs/zl_nnunetv1/lib/python3.9/site-packages/torch/nn/modules/conv.py:602:0
  %1183 : bool = prim::Constant[value=1]() # /home/fangzheng/miniconda3/envs/zl_nnunetv1/lib/python3.9/site-packages/torch/nn/modules/conv.py:602:0
  %1184 : bool = prim::Constant[value=1]() # /home/fangzheng/miniconda3/envs/zl_nnunetv1/lib/python3.9/site-packages/torch/nn/modules/conv.py:602:0
  %1185 : Float(1, 32, 64, 64, 64, strides=[8388608, 262144, 4096, 64, 1], requires_grad=0, device=cuda:0) = aten::_convolution(%input.33, %36, %37, %3959, %3960, %3961, %1175, %3962, %1180, %1181, %1182, %1183, %1184) # /home/fangzheng/miniconda3/envs/zl_nnunetv1/lib/python3.9/site-packages/torch/nn/modules/conv.py:602:0
  %1186 : int = prim::Constant[value=1]() # /home/fangzheng/zoule/mednext/nnunet_mednext/network_architecture/mednextv1/blocks.py:100:0
  %input.35 : Float(1, 32, 64, 64, 64, strides=[8388608, 262144, 4096, 64, 1], requires_grad=1, device=cuda:0) = aten::add(%input.27, %1185, %1186) # /home/fangzheng/zoule/mednext/nnunet_mednext/network_architecture/mednextv1/blocks.py:100:0
  %3963 : int[] = prim::Constant[value=[1, 1, 1]]()
  %3964 : int[] = prim::Constant[value=[1, 1, 1]]()
  %3965 : int[] = prim::Constant[value=[1, 1, 1]]()
  %1200 : bool = prim::Constant[value=0]() # /home/fangzheng/miniconda3/envs/zl_nnunetv1/lib/python3.9/site-packages/torch/nn/modules/conv.py:602:0
  %3966 : int[] = prim::Constant[value=[0, 0, 0]]()
  %1205 : int = prim::Constant[value=32]() # /home/fangzheng/miniconda3/envs/zl_nnunetv1/lib/python3.9/site-packages/torch/nn/modules/conv.py:602:0
  %1206 : bool = prim::Constant[value=1]() # /home/fangzheng/miniconda3/envs/zl_nnunetv1/lib/python3.9/site-packages/torch/nn/modules/conv.py:602:0
  %1207 : bool = prim::Constant[value=0]() # /home/fangzheng/miniconda3/envs/zl_nnunetv1/lib/python3.9/site-packages/torch/nn/modules/conv.py:602:0
  %1208 : bool = prim::Constant[value=1]() # /home/fangzheng/miniconda3/envs/zl_nnunetv1/lib/python3.9/site-packages/torch/nn/modules/conv.py:602:0
  %1209 : bool = prim::Constant[value=1]() # /home/fangzheng/miniconda3/envs/zl_nnunetv1/lib/python3.9/site-packages/torch/nn/modules/conv.py:602:0
  %input.37 : Float(1, 32, 64, 64, 64, strides=[8388608, 262144, 4096, 64, 1], requires_grad=0, device=cuda:0) = aten::_convolution(%input.35, %38, %39, %3963, %3964, %3965, %1200, %3966, %1205, %1206, %1207, %1208, %1209) # /home/fangzheng/miniconda3/envs/zl_nnunetv1/lib/python3.9/site-packages/torch/nn/modules/conv.py:602:0
  %1241 : int = prim::Constant[value=32]() # /home/fangzheng/miniconda3/envs/zl_nnunetv1/lib/python3.9/site-packages/torch/nn/functional.py:2516:0
  %1242 : float = prim::Constant[value=1.0000000000000001e-05]() # /home/fangzheng/miniconda3/envs/zl_nnunetv1/lib/python3.9/site-packages/torch/nn/functional.py:2516:0
  %1243 : bool = prim::Constant[value=1]() # /home/fangzheng/miniconda3/envs/zl_nnunetv1/lib/python3.9/site-packages/torch/nn/functional.py:2516:0
  %input.39 : Float(1, 32, 64, 64, 64, strides=[8388608, 262144, 4096, 64, 1], requires_grad=1, device=cuda:0) = aten::group_norm(%input.37, %1241, %40, %41, %1242, %1243) # /home/fangzheng/miniconda3/envs/zl_nnunetv1/lib/python3.9/site-packages/torch/nn/functional.py:2516:0
  %3967 : int[] = prim::Constant[value=[1, 1, 1]]()
  %3968 : int[] = prim::Constant[value=[0, 0, 0]]()
  %3969 : int[] = prim::Constant[value=[1, 1, 1]]()
  %1257 : bool = prim::Constant[value=0]() # /home/fangzheng/miniconda3/envs/zl_nnunetv1/lib/python3.9/site-packages/torch/nn/modules/conv.py:602:0
  %3970 : int[] = prim::Constant[value=[0, 0, 0]]()
  %1262 : int = prim::Constant[value=1]() # /home/fangzheng/miniconda3/envs/zl_nnunetv1/lib/python3.9/site-packages/torch/nn/modules/conv.py:602:0
  %1263 : bool = prim::Constant[value=1]() # /home/fangzheng/miniconda3/envs/zl_nnunetv1/lib/python3.9/site-packages/torch/nn/modules/conv.py:602:0
  %1264 : bool = prim::Constant[value=0]() # /home/fangzheng/miniconda3/envs/zl_nnunetv1/lib/python3.9/site-packages/torch/nn/modules/conv.py:602:0
  %1265 : bool = prim::Constant[value=1]() # /home/fangzheng/miniconda3/envs/zl_nnunetv1/lib/python3.9/site-packages/torch/nn/modules/conv.py:602:0
  %1266 : bool = prim::Constant[value=1]() # /home/fangzheng/miniconda3/envs/zl_nnunetv1/lib/python3.9/site-packages/torch/nn/modules/conv.py:602:0
  %1267 : Float(1, 64, 64, 64, 64, strides=[16777216, 262144, 4096, 64, 1], requires_grad=0, device=cuda:0) = aten::_convolution(%input.39, %42, %43, %3967, %3968, %3969, %1257, %3970, %1262, %1263, %1264, %1265, %1266) # /home/fangzheng/miniconda3/envs/zl_nnunetv1/lib/python3.9/site-packages/torch/nn/modules/conv.py:602:0
  %1268 : str = prim::Constant[value="none"]() # /home/fangzheng/miniconda3/envs/zl_nnunetv1/lib/python3.9/site-packages/torch/nn/modules/activation.py:681:0
  %input.41 : Float(1, 64, 64, 64, 64, strides=[16777216, 262144, 4096, 64, 1], requires_grad=1, device=cuda:0) = aten::gelu(%1267, %1268) # /home/fangzheng/miniconda3/envs/zl_nnunetv1/lib/python3.9/site-packages/torch/nn/modules/activation.py:681:0
  %3971 : int[] = prim::Constant[value=[1, 1, 1]]()
  %3972 : int[] = prim::Constant[value=[0, 0, 0]]()
  %3973 : int[] = prim::Constant[value=[1, 1, 1]]()
  %1282 : bool = prim::Constant[value=0]() # /home/fangzheng/miniconda3/envs/zl_nnunetv1/lib/python3.9/site-packages/torch/nn/modules/conv.py:602:0
  %3974 : int[] = prim::Constant[value=[0, 0, 0]]()
  %1287 : int = prim::Constant[value=1]() # /home/fangzheng/miniconda3/envs/zl_nnunetv1/lib/python3.9/site-packages/torch/nn/modules/conv.py:602:0
  %1288 : bool = prim::Constant[value=1]() # /home/fangzheng/miniconda3/envs/zl_nnunetv1/lib/python3.9/site-packages/torch/nn/modules/conv.py:602:0
  %1289 : bool = prim::Constant[value=0]() # /home/fangzheng/miniconda3/envs/zl_nnunetv1/lib/python3.9/site-packages/torch/nn/modules/conv.py:602:0
  %1290 : bool = prim::Constant[value=1]() # /home/fangzheng/miniconda3/envs/zl_nnunetv1/lib/python3.9/site-packages/torch/nn/modules/conv.py:602:0
  %1291 : bool = prim::Constant[value=1]() # /home/fangzheng/miniconda3/envs/zl_nnunetv1/lib/python3.9/site-packages/torch/nn/modules/conv.py:602:0
  %1292 : Float(1, 32, 64, 64, 64, strides=[8388608, 262144, 4096, 64, 1], requires_grad=0, device=cuda:0) = aten::_convolution(%input.41, %44, %45, %3971, %3972, %3973, %1282, %3974, %1287, %1288, %1289, %1290, %1291) # /home/fangzheng/miniconda3/envs/zl_nnunetv1/lib/python3.9/site-packages/torch/nn/modules/conv.py:602:0
  %1293 : int = prim::Constant[value=1]() # /home/fangzheng/zoule/mednext/nnunet_mednext/network_architecture/mednextv1/blocks.py:100:0
  %input.43 : Float(1, 32, 64, 64, 64, strides=[8388608, 262144, 4096, 64, 1], requires_grad=1, device=cuda:0) = aten::add(%input.35, %1292, %1293) # /home/fangzheng/zoule/mednext/nnunet_mednext/network_architecture/mednextv1/blocks.py:100:0
  %3975 : int[] = prim::Constant[value=[2, 2, 2]]()
  %3976 : int[] = prim::Constant[value=[1, 1, 1]]()
  %3977 : int[] = prim::Constant[value=[1, 1, 1]]()
  %1307 : bool = prim::Constant[value=0]() # /home/fangzheng/miniconda3/envs/zl_nnunetv1/lib/python3.9/site-packages/torch/nn/modules/conv.py:602:0
  %3978 : int[] = prim::Constant[value=[0, 0, 0]]()
  %1312 : int = prim::Constant[value=32]() # /home/fangzheng/miniconda3/envs/zl_nnunetv1/lib/python3.9/site-packages/torch/nn/modules/conv.py:602:0
  %1313 : bool = prim::Constant[value=1]() # /home/fangzheng/miniconda3/envs/zl_nnunetv1/lib/python3.9/site-packages/torch/nn/modules/conv.py:602:0
  %1314 : bool = prim::Constant[value=0]() # /home/fangzheng/miniconda3/envs/zl_nnunetv1/lib/python3.9/site-packages/torch/nn/modules/conv.py:602:0
  %1315 : bool = prim::Constant[value=1]() # /home/fangzheng/miniconda3/envs/zl_nnunetv1/lib/python3.9/site-packages/torch/nn/modules/conv.py:602:0
  %1316 : bool = prim::Constant[value=1]() # /home/fangzheng/miniconda3/envs/zl_nnunetv1/lib/python3.9/site-packages/torch/nn/modules/conv.py:602:0
  %input.45 : Float(1, 32, 32, 32, 32, strides=[1048576, 32768, 1024, 32, 1], requires_grad=0, device=cuda:0) = aten::_convolution(%input.43, %46, %47, %3975, %3976, %3977, %1307, %3978, %1312, %1313, %1314, %1315, %1316) # /home/fangzheng/miniconda3/envs/zl_nnunetv1/lib/python3.9/site-packages/torch/nn/modules/conv.py:602:0
  %1348 : int = prim::Constant[value=32]() # /home/fangzheng/miniconda3/envs/zl_nnunetv1/lib/python3.9/site-packages/torch/nn/functional.py:2516:0
  %1349 : float = prim::Constant[value=1.0000000000000001e-05]() # /home/fangzheng/miniconda3/envs/zl_nnunetv1/lib/python3.9/site-packages/torch/nn/functional.py:2516:0
  %1350 : bool = prim::Constant[value=1]() # /home/fangzheng/miniconda3/envs/zl_nnunetv1/lib/python3.9/site-packages/torch/nn/functional.py:2516:0
  %input.47 : Float(1, 32, 32, 32, 32, strides=[1048576, 32768, 1024, 32, 1], requires_grad=1, device=cuda:0) = aten::group_norm(%input.45, %1348, %48, %49, %1349, %1350) # /home/fangzheng/miniconda3/envs/zl_nnunetv1/lib/python3.9/site-packages/torch/nn/functional.py:2516:0
  %3979 : int[] = prim::Constant[value=[1, 1, 1]]()
  %3980 : int[] = prim::Constant[value=[0, 0, 0]]()
  %3981 : int[] = prim::Constant[value=[1, 1, 1]]()
  %1364 : bool = prim::Constant[value=0]() # /home/fangzheng/miniconda3/envs/zl_nnunetv1/lib/python3.9/site-packages/torch/nn/modules/conv.py:602:0
  %3982 : int[] = prim::Constant[value=[0, 0, 0]]()
  %1369 : int = prim::Constant[value=1]() # /home/fangzheng/miniconda3/envs/zl_nnunetv1/lib/python3.9/site-packages/torch/nn/modules/conv.py:602:0
  %1370 : bool = prim::Constant[value=1]() # /home/fangzheng/miniconda3/envs/zl_nnunetv1/lib/python3.9/site-packages/torch/nn/modules/conv.py:602:0
  %1371 : bool = prim::Constant[value=0]() # /home/fangzheng/miniconda3/envs/zl_nnunetv1/lib/python3.9/site-packages/torch/nn/modules/conv.py:602:0
  %1372 : bool = prim::Constant[value=1]() # /home/fangzheng/miniconda3/envs/zl_nnunetv1/lib/python3.9/site-packages/torch/nn/modules/conv.py:602:0
  %1373 : bool = prim::Constant[value=1]() # /home/fangzheng/miniconda3/envs/zl_nnunetv1/lib/python3.9/site-packages/torch/nn/modules/conv.py:602:0
  %1374 : Float(1, 64, 32, 32, 32, strides=[2097152, 32768, 1024, 32, 1], requires_grad=0, device=cuda:0) = aten::_convolution(%input.47, %50, %51, %3979, %3980, %3981, %1364, %3982, %1369, %1370, %1371, %1372, %1373) # /home/fangzheng/miniconda3/envs/zl_nnunetv1/lib/python3.9/site-packages/torch/nn/modules/conv.py:602:0
  %1375 : str = prim::Constant[value="none"]() # /home/fangzheng/miniconda3/envs/zl_nnunetv1/lib/python3.9/site-packages/torch/nn/modules/activation.py:681:0
  %input.49 : Float(1, 64, 32, 32, 32, strides=[2097152, 32768, 1024, 32, 1], requires_grad=1, device=cuda:0) = aten::gelu(%1374, %1375) # /home/fangzheng/miniconda3/envs/zl_nnunetv1/lib/python3.9/site-packages/torch/nn/modules/activation.py:681:0
  %3983 : int[] = prim::Constant[value=[1, 1, 1]]()
  %3984 : int[] = prim::Constant[value=[0, 0, 0]]()
  %3985 : int[] = prim::Constant[value=[1, 1, 1]]()
  %1389 : bool = prim::Constant[value=0]() # /home/fangzheng/miniconda3/envs/zl_nnunetv1/lib/python3.9/site-packages/torch/nn/modules/conv.py:602:0
  %3986 : int[] = prim::Constant[value=[0, 0, 0]]()
  %1394 : int = prim::Constant[value=1]() # /home/fangzheng/miniconda3/envs/zl_nnunetv1/lib/python3.9/site-packages/torch/nn/modules/conv.py:602:0
  %1395 : bool = prim::Constant[value=1]() # /home/fangzheng/miniconda3/envs/zl_nnunetv1/lib/python3.9/site-packages/torch/nn/modules/conv.py:602:0
  %1396 : bool = prim::Constant[value=0]() # /home/fangzheng/miniconda3/envs/zl_nnunetv1/lib/python3.9/site-packages/torch/nn/modules/conv.py:602:0
  %1397 : bool = prim::Constant[value=1]() # /home/fangzheng/miniconda3/envs/zl_nnunetv1/lib/python3.9/site-packages/torch/nn/modules/conv.py:602:0
  %1398 : bool = prim::Constant[value=1]() # /home/fangzheng/miniconda3/envs/zl_nnunetv1/lib/python3.9/site-packages/torch/nn/modules/conv.py:602:0
  %1399 : Float(1, 64, 32, 32, 32, strides=[2097152, 32768, 1024, 32, 1], requires_grad=0, device=cuda:0) = aten::_convolution(%input.49, %52, %53, %3983, %3984, %3985, %1389, %3986, %1394, %1395, %1396, %1397, %1398) # /home/fangzheng/miniconda3/envs/zl_nnunetv1/lib/python3.9/site-packages/torch/nn/modules/conv.py:602:0
  %3987 : int[] = prim::Constant[value=[2, 2, 2]]()
  %3988 : int[] = prim::Constant[value=[0, 0, 0]]()
  %3989 : int[] = prim::Constant[value=[1, 1, 1]]()
  %1412 : bool = prim::Constant[value=0]() # /home/fangzheng/miniconda3/envs/zl_nnunetv1/lib/python3.9/site-packages/torch/nn/modules/conv.py:602:0
  %3990 : int[] = prim::Constant[value=[0, 0, 0]]()
  %1417 : int = prim::Constant[value=1]() # /home/fangzheng/miniconda3/envs/zl_nnunetv1/lib/python3.9/site-packages/torch/nn/modules/conv.py:602:0
  %1418 : bool = prim::Constant[value=1]() # /home/fangzheng/miniconda3/envs/zl_nnunetv1/lib/python3.9/site-packages/torch/nn/modules/conv.py:602:0
  %1419 : bool = prim::Constant[value=0]() # /home/fangzheng/miniconda3/envs/zl_nnunetv1/lib/python3.9/site-packages/torch/nn/modules/conv.py:602:0
  %1420 : bool = prim::Constant[value=1]() # /home/fangzheng/miniconda3/envs/zl_nnunetv1/lib/python3.9/site-packages/torch/nn/modules/conv.py:602:0
  %1421 : bool = prim::Constant[value=1]() # /home/fangzheng/miniconda3/envs/zl_nnunetv1/lib/python3.9/site-packages/torch/nn/modules/conv.py:602:0
  %1422 : Float(1, 64, 32, 32, 32, strides=[2097152, 32768, 1024, 32, 1], requires_grad=0, device=cuda:0) = aten::_convolution(%input.43, %54, %55, %3987, %3988, %3989, %1412, %3990, %1417, %1418, %1419, %1420, %1421) # /home/fangzheng/miniconda3/envs/zl_nnunetv1/lib/python3.9/site-packages/torch/nn/modules/conv.py:602:0
  %1423 : int = prim::Constant[value=1]() # /home/fangzheng/zoule/mednext/nnunet_mednext/network_architecture/mednextv1/blocks.py:141:0
  %input.51 : Float(1, 64, 32, 32, 32, strides=[2097152, 32768, 1024, 32, 1], requires_grad=1, device=cuda:0) = aten::add(%1399, %1422, %1423) # /home/fangzheng/zoule/mednext/nnunet_mednext/network_architecture/mednextv1/blocks.py:141:0
  %3991 : int[] = prim::Constant[value=[1, 1, 1]]()
  %3992 : int[] = prim::Constant[value=[1, 1, 1]]()
  %3993 : int[] = prim::Constant[value=[1, 1, 1]]()
  %1437 : bool = prim::Constant[value=0]() # /home/fangzheng/miniconda3/envs/zl_nnunetv1/lib/python3.9/site-packages/torch/nn/modules/conv.py:602:0
  %3994 : int[] = prim::Constant[value=[0, 0, 0]]()
  %1442 : int = prim::Constant[value=64]() # /home/fangzheng/miniconda3/envs/zl_nnunetv1/lib/python3.9/site-packages/torch/nn/modules/conv.py:602:0
  %1443 : bool = prim::Constant[value=1]() # /home/fangzheng/miniconda3/envs/zl_nnunetv1/lib/python3.9/site-packages/torch/nn/modules/conv.py:602:0
  %1444 : bool = prim::Constant[value=0]() # /home/fangzheng/miniconda3/envs/zl_nnunetv1/lib/python3.9/site-packages/torch/nn/modules/conv.py:602:0
  %1445 : bool = prim::Constant[value=1]() # /home/fangzheng/miniconda3/envs/zl_nnunetv1/lib/python3.9/site-packages/torch/nn/modules/conv.py:602:0
  %1446 : bool = prim::Constant[value=1]() # /home/fangzheng/miniconda3/envs/zl_nnunetv1/lib/python3.9/site-packages/torch/nn/modules/conv.py:602:0
  %input.53 : Float(1, 64, 32, 32, 32, strides=[2097152, 32768, 1024, 32, 1], requires_grad=0, device=cuda:0) = aten::_convolution(%input.51, %56, %57, %3991, %3992, %3993, %1437, %3994, %1442, %1443, %1444, %1445, %1446) # /home/fangzheng/miniconda3/envs/zl_nnunetv1/lib/python3.9/site-packages/torch/nn/modules/conv.py:602:0
  %1478 : int = prim::Constant[value=64]() # /home/fangzheng/miniconda3/envs/zl_nnunetv1/lib/python3.9/site-packages/torch/nn/functional.py:2516:0
  %1479 : float = prim::Constant[value=1.0000000000000001e-05]() # /home/fangzheng/miniconda3/envs/zl_nnunetv1/lib/python3.9/site-packages/torch/nn/functional.py:2516:0
  %1480 : bool = prim::Constant[value=1]() # /home/fangzheng/miniconda3/envs/zl_nnunetv1/lib/python3.9/site-packages/torch/nn/functional.py:2516:0
  %input.55 : Float(1, 64, 32, 32, 32, strides=[2097152, 32768, 1024, 32, 1], requires_grad=1, device=cuda:0) = aten::group_norm(%input.53, %1478, %58, %59, %1479, %1480) # /home/fangzheng/miniconda3/envs/zl_nnunetv1/lib/python3.9/site-packages/torch/nn/functional.py:2516:0
  %3995 : int[] = prim::Constant[value=[1, 1, 1]]()
  %3996 : int[] = prim::Constant[value=[0, 0, 0]]()
  %3997 : int[] = prim::Constant[value=[1, 1, 1]]()
  %1494 : bool = prim::Constant[value=0]() # /home/fangzheng/miniconda3/envs/zl_nnunetv1/lib/python3.9/site-packages/torch/nn/modules/conv.py:602:0
  %3998 : int[] = prim::Constant[value=[0, 0, 0]]()
  %1499 : int = prim::Constant[value=1]() # /home/fangzheng/miniconda3/envs/zl_nnunetv1/lib/python3.9/site-packages/torch/nn/modules/conv.py:602:0
  %1500 : bool = prim::Constant[value=1]() # /home/fangzheng/miniconda3/envs/zl_nnunetv1/lib/python3.9/site-packages/torch/nn/modules/conv.py:602:0
  %1501 : bool = prim::Constant[value=0]() # /home/fangzheng/miniconda3/envs/zl_nnunetv1/lib/python3.9/site-packages/torch/nn/modules/conv.py:602:0
  %1502 : bool = prim::Constant[value=1]() # /home/fangzheng/miniconda3/envs/zl_nnunetv1/lib/python3.9/site-packages/torch/nn/modules/conv.py:602:0
  %1503 : bool = prim::Constant[value=1]() # /home/fangzheng/miniconda3/envs/zl_nnunetv1/lib/python3.9/site-packages/torch/nn/modules/conv.py:602:0
  %1504 : Float(1, 128, 32, 32, 32, strides=[4194304, 32768, 1024, 32, 1], requires_grad=0, device=cuda:0) = aten::_convolution(%input.55, %60, %61, %3995, %3996, %3997, %1494, %3998, %1499, %1500, %1501, %1502, %1503) # /home/fangzheng/miniconda3/envs/zl_nnunetv1/lib/python3.9/site-packages/torch/nn/modules/conv.py:602:0
  %1505 : str = prim::Constant[value="none"]() # /home/fangzheng/miniconda3/envs/zl_nnunetv1/lib/python3.9/site-packages/torch/nn/modules/activation.py:681:0
  %input.57 : Float(1, 128, 32, 32, 32, strides=[4194304, 32768, 1024, 32, 1], requires_grad=1, device=cuda:0) = aten::gelu(%1504, %1505) # /home/fangzheng/miniconda3/envs/zl_nnunetv1/lib/python3.9/site-packages/torch/nn/modules/activation.py:681:0
  %3999 : int[] = prim::Constant[value=[1, 1, 1]]()
  %4000 : int[] = prim::Constant[value=[0, 0, 0]]()
  %4001 : int[] = prim::Constant[value=[1, 1, 1]]()
  %1519 : bool = prim::Constant[value=0]() # /home/fangzheng/miniconda3/envs/zl_nnunetv1/lib/python3.9/site-packages/torch/nn/modules/conv.py:602:0
  %4002 : int[] = prim::Constant[value=[0, 0, 0]]()
  %1524 : int = prim::Constant[value=1]() # /home/fangzheng/miniconda3/envs/zl_nnunetv1/lib/python3.9/site-packages/torch/nn/modules/conv.py:602:0
  %1525 : bool = prim::Constant[value=1]() # /home/fangzheng/miniconda3/envs/zl_nnunetv1/lib/python3.9/site-packages/torch/nn/modules/conv.py:602:0
  %1526 : bool = prim::Constant[value=0]() # /home/fangzheng/miniconda3/envs/zl_nnunetv1/lib/python3.9/site-packages/torch/nn/modules/conv.py:602:0
  %1527 : bool = prim::Constant[value=1]() # /home/fangzheng/miniconda3/envs/zl_nnunetv1/lib/python3.9/site-packages/torch/nn/modules/conv.py:602:0
  %1528 : bool = prim::Constant[value=1]() # /home/fangzheng/miniconda3/envs/zl_nnunetv1/lib/python3.9/site-packages/torch/nn/modules/conv.py:602:0
  %1529 : Float(1, 64, 32, 32, 32, strides=[2097152, 32768, 1024, 32, 1], requires_grad=0, device=cuda:0) = aten::_convolution(%input.57, %62, %63, %3999, %4000, %4001, %1519, %4002, %1524, %1525, %1526, %1527, %1528) # /home/fangzheng/miniconda3/envs/zl_nnunetv1/lib/python3.9/site-packages/torch/nn/modules/conv.py:602:0
  %1530 : int = prim::Constant[value=1]() # /home/fangzheng/zoule/mednext/nnunet_mednext/network_architecture/mednextv1/blocks.py:100:0
  %input.59 : Float(1, 64, 32, 32, 32, strides=[2097152, 32768, 1024, 32, 1], requires_grad=1, device=cuda:0) = aten::add(%input.51, %1529, %1530) # /home/fangzheng/zoule/mednext/nnunet_mednext/network_architecture/mednextv1/blocks.py:100:0
  %4003 : int[] = prim::Constant[value=[1, 1, 1]]()
  %4004 : int[] = prim::Constant[value=[1, 1, 1]]()
  %4005 : int[] = prim::Constant[value=[1, 1, 1]]()
  %1544 : bool = prim::Constant[value=0]() # /home/fangzheng/miniconda3/envs/zl_nnunetv1/lib/python3.9/site-packages/torch/nn/modules/conv.py:602:0
  %4006 : int[] = prim::Constant[value=[0, 0, 0]]()
  %1549 : int = prim::Constant[value=64]() # /home/fangzheng/miniconda3/envs/zl_nnunetv1/lib/python3.9/site-packages/torch/nn/modules/conv.py:602:0
  %1550 : bool = prim::Constant[value=1]() # /home/fangzheng/miniconda3/envs/zl_nnunetv1/lib/python3.9/site-packages/torch/nn/modules/conv.py:602:0
  %1551 : bool = prim::Constant[value=0]() # /home/fangzheng/miniconda3/envs/zl_nnunetv1/lib/python3.9/site-packages/torch/nn/modules/conv.py:602:0
  %1552 : bool = prim::Constant[value=1]() # /home/fangzheng/miniconda3/envs/zl_nnunetv1/lib/python3.9/site-packages/torch/nn/modules/conv.py:602:0
  %1553 : bool = prim::Constant[value=1]() # /home/fangzheng/miniconda3/envs/zl_nnunetv1/lib/python3.9/site-packages/torch/nn/modules/conv.py:602:0
  %input.61 : Float(1, 64, 32, 32, 32, strides=[2097152, 32768, 1024, 32, 1], requires_grad=0, device=cuda:0) = aten::_convolution(%input.59, %64, %65, %4003, %4004, %4005, %1544, %4006, %1549, %1550, %1551, %1552, %1553) # /home/fangzheng/miniconda3/envs/zl_nnunetv1/lib/python3.9/site-packages/torch/nn/modules/conv.py:602:0
  %1585 : int = prim::Constant[value=64]() # /home/fangzheng/miniconda3/envs/zl_nnunetv1/lib/python3.9/site-packages/torch/nn/functional.py:2516:0
  %1586 : float = prim::Constant[value=1.0000000000000001e-05]() # /home/fangzheng/miniconda3/envs/zl_nnunetv1/lib/python3.9/site-packages/torch/nn/functional.py:2516:0
  %1587 : bool = prim::Constant[value=1]() # /home/fangzheng/miniconda3/envs/zl_nnunetv1/lib/python3.9/site-packages/torch/nn/functional.py:2516:0
  %input.63 : Float(1, 64, 32, 32, 32, strides=[2097152, 32768, 1024, 32, 1], requires_grad=1, device=cuda:0) = aten::group_norm(%input.61, %1585, %66, %67, %1586, %1587) # /home/fangzheng/miniconda3/envs/zl_nnunetv1/lib/python3.9/site-packages/torch/nn/functional.py:2516:0
  %4007 : int[] = prim::Constant[value=[1, 1, 1]]()
  %4008 : int[] = prim::Constant[value=[0, 0, 0]]()
  %4009 : int[] = prim::Constant[value=[1, 1, 1]]()
  %1601 : bool = prim::Constant[value=0]() # /home/fangzheng/miniconda3/envs/zl_nnunetv1/lib/python3.9/site-packages/torch/nn/modules/conv.py:602:0
  %4010 : int[] = prim::Constant[value=[0, 0, 0]]()
  %1606 : int = prim::Constant[value=1]() # /home/fangzheng/miniconda3/envs/zl_nnunetv1/lib/python3.9/site-packages/torch/nn/modules/conv.py:602:0
  %1607 : bool = prim::Constant[value=1]() # /home/fangzheng/miniconda3/envs/zl_nnunetv1/lib/python3.9/site-packages/torch/nn/modules/conv.py:602:0
  %1608 : bool = prim::Constant[value=0]() # /home/fangzheng/miniconda3/envs/zl_nnunetv1/lib/python3.9/site-packages/torch/nn/modules/conv.py:602:0
  %1609 : bool = prim::Constant[value=1]() # /home/fangzheng/miniconda3/envs/zl_nnunetv1/lib/python3.9/site-packages/torch/nn/modules/conv.py:602:0
  %1610 : bool = prim::Constant[value=1]() # /home/fangzheng/miniconda3/envs/zl_nnunetv1/lib/python3.9/site-packages/torch/nn/modules/conv.py:602:0
  %1611 : Float(1, 128, 32, 32, 32, strides=[4194304, 32768, 1024, 32, 1], requires_grad=0, device=cuda:0) = aten::_convolution(%input.63, %68, %69, %4007, %4008, %4009, %1601, %4010, %1606, %1607, %1608, %1609, %1610) # /home/fangzheng/miniconda3/envs/zl_nnunetv1/lib/python3.9/site-packages/torch/nn/modules/conv.py:602:0
  %1612 : str = prim::Constant[value="none"]() # /home/fangzheng/miniconda3/envs/zl_nnunetv1/lib/python3.9/site-packages/torch/nn/modules/activation.py:681:0
  %input.65 : Float(1, 128, 32, 32, 32, strides=[4194304, 32768, 1024, 32, 1], requires_grad=1, device=cuda:0) = aten::gelu(%1611, %1612) # /home/fangzheng/miniconda3/envs/zl_nnunetv1/lib/python3.9/site-packages/torch/nn/modules/activation.py:681:0
  %4011 : int[] = prim::Constant[value=[1, 1, 1]]()
  %4012 : int[] = prim::Constant[value=[0, 0, 0]]()
  %4013 : int[] = prim::Constant[value=[1, 1, 1]]()
  %1626 : bool = prim::Constant[value=0]() # /home/fangzheng/miniconda3/envs/zl_nnunetv1/lib/python3.9/site-packages/torch/nn/modules/conv.py:602:0
  %4014 : int[] = prim::Constant[value=[0, 0, 0]]()
  %1631 : int = prim::Constant[value=1]() # /home/fangzheng/miniconda3/envs/zl_nnunetv1/lib/python3.9/site-packages/torch/nn/modules/conv.py:602:0
  %1632 : bool = prim::Constant[value=1]() # /home/fangzheng/miniconda3/envs/zl_nnunetv1/lib/python3.9/site-packages/torch/nn/modules/conv.py:602:0
  %1633 : bool = prim::Constant[value=0]() # /home/fangzheng/miniconda3/envs/zl_nnunetv1/lib/python3.9/site-packages/torch/nn/modules/conv.py:602:0
  %1634 : bool = prim::Constant[value=1]() # /home/fangzheng/miniconda3/envs/zl_nnunetv1/lib/python3.9/site-packages/torch/nn/modules/conv.py:602:0
  %1635 : bool = prim::Constant[value=1]() # /home/fangzheng/miniconda3/envs/zl_nnunetv1/lib/python3.9/site-packages/torch/nn/modules/conv.py:602:0
  %1636 : Float(1, 64, 32, 32, 32, strides=[2097152, 32768, 1024, 32, 1], requires_grad=0, device=cuda:0) = aten::_convolution(%input.65, %70, %71, %4011, %4012, %4013, %1626, %4014, %1631, %1632, %1633, %1634, %1635) # /home/fangzheng/miniconda3/envs/zl_nnunetv1/lib/python3.9/site-packages/torch/nn/modules/conv.py:602:0
  %1637 : int = prim::Constant[value=1]() # /home/fangzheng/zoule/mednext/nnunet_mednext/network_architecture/mednextv1/blocks.py:100:0
  %input.67 : Float(1, 64, 32, 32, 32, strides=[2097152, 32768, 1024, 32, 1], requires_grad=1, device=cuda:0) = aten::add(%input.59, %1636, %1637) # /home/fangzheng/zoule/mednext/nnunet_mednext/network_architecture/mednextv1/blocks.py:100:0
  %4015 : int[] = prim::Constant[value=[2, 2, 2]]()
  %4016 : int[] = prim::Constant[value=[1, 1, 1]]()
  %4017 : int[] = prim::Constant[value=[1, 1, 1]]()
  %1651 : bool = prim::Constant[value=0]() # /home/fangzheng/miniconda3/envs/zl_nnunetv1/lib/python3.9/site-packages/torch/nn/modules/conv.py:602:0
  %4018 : int[] = prim::Constant[value=[0, 0, 0]]()
  %1656 : int = prim::Constant[value=64]() # /home/fangzheng/miniconda3/envs/zl_nnunetv1/lib/python3.9/site-packages/torch/nn/modules/conv.py:602:0
  %1657 : bool = prim::Constant[value=1]() # /home/fangzheng/miniconda3/envs/zl_nnunetv1/lib/python3.9/site-packages/torch/nn/modules/conv.py:602:0
  %1658 : bool = prim::Constant[value=0]() # /home/fangzheng/miniconda3/envs/zl_nnunetv1/lib/python3.9/site-packages/torch/nn/modules/conv.py:602:0
  %1659 : bool = prim::Constant[value=1]() # /home/fangzheng/miniconda3/envs/zl_nnunetv1/lib/python3.9/site-packages/torch/nn/modules/conv.py:602:0
  %1660 : bool = prim::Constant[value=1]() # /home/fangzheng/miniconda3/envs/zl_nnunetv1/lib/python3.9/site-packages/torch/nn/modules/conv.py:602:0
  %input.69 : Float(1, 64, 16, 16, 16, strides=[262144, 4096, 256, 16, 1], requires_grad=0, device=cuda:0) = aten::_convolution(%input.67, %72, %73, %4015, %4016, %4017, %1651, %4018, %1656, %1657, %1658, %1659, %1660) # /home/fangzheng/miniconda3/envs/zl_nnunetv1/lib/python3.9/site-packages/torch/nn/modules/conv.py:602:0
  %1692 : int = prim::Constant[value=64]() # /home/fangzheng/miniconda3/envs/zl_nnunetv1/lib/python3.9/site-packages/torch/nn/functional.py:2516:0
  %1693 : float = prim::Constant[value=1.0000000000000001e-05]() # /home/fangzheng/miniconda3/envs/zl_nnunetv1/lib/python3.9/site-packages/torch/nn/functional.py:2516:0
  %1694 : bool = prim::Constant[value=1]() # /home/fangzheng/miniconda3/envs/zl_nnunetv1/lib/python3.9/site-packages/torch/nn/functional.py:2516:0
  %input.71 : Float(1, 64, 16, 16, 16, strides=[262144, 4096, 256, 16, 1], requires_grad=1, device=cuda:0) = aten::group_norm(%input.69, %1692, %74, %75, %1693, %1694) # /home/fangzheng/miniconda3/envs/zl_nnunetv1/lib/python3.9/site-packages/torch/nn/functional.py:2516:0
  %4019 : int[] = prim::Constant[value=[1, 1, 1]]()
  %4020 : int[] = prim::Constant[value=[0, 0, 0]]()
  %4021 : int[] = prim::Constant[value=[1, 1, 1]]()
  %1708 : bool = prim::Constant[value=0]() # /home/fangzheng/miniconda3/envs/zl_nnunetv1/lib/python3.9/site-packages/torch/nn/modules/conv.py:602:0
  %4022 : int[] = prim::Constant[value=[0, 0, 0]]()
  %1713 : int = prim::Constant[value=1]() # /home/fangzheng/miniconda3/envs/zl_nnunetv1/lib/python3.9/site-packages/torch/nn/modules/conv.py:602:0
  %1714 : bool = prim::Constant[value=1]() # /home/fangzheng/miniconda3/envs/zl_nnunetv1/lib/python3.9/site-packages/torch/nn/modules/conv.py:602:0
  %1715 : bool = prim::Constant[value=0]() # /home/fangzheng/miniconda3/envs/zl_nnunetv1/lib/python3.9/site-packages/torch/nn/modules/conv.py:602:0
  %1716 : bool = prim::Constant[value=1]() # /home/fangzheng/miniconda3/envs/zl_nnunetv1/lib/python3.9/site-packages/torch/nn/modules/conv.py:602:0
  %1717 : bool = prim::Constant[value=1]() # /home/fangzheng/miniconda3/envs/zl_nnunetv1/lib/python3.9/site-packages/torch/nn/modules/conv.py:602:0
  %1718 : Float(1, 128, 16, 16, 16, strides=[524288, 4096, 256, 16, 1], requires_grad=0, device=cuda:0) = aten::_convolution(%input.71, %76, %77, %4019, %4020, %4021, %1708, %4022, %1713, %1714, %1715, %1716, %1717) # /home/fangzheng/miniconda3/envs/zl_nnunetv1/lib/python3.9/site-packages/torch/nn/modules/conv.py:602:0
  %1719 : str = prim::Constant[value="none"]() # /home/fangzheng/miniconda3/envs/zl_nnunetv1/lib/python3.9/site-packages/torch/nn/modules/activation.py:681:0
  %input.73 : Float(1, 128, 16, 16, 16, strides=[524288, 4096, 256, 16, 1], requires_grad=1, device=cuda:0) = aten::gelu(%1718, %1719) # /home/fangzheng/miniconda3/envs/zl_nnunetv1/lib/python3.9/site-packages/torch/nn/modules/activation.py:681:0
  %4023 : int[] = prim::Constant[value=[1, 1, 1]]()
  %4024 : int[] = prim::Constant[value=[0, 0, 0]]()
  %4025 : int[] = prim::Constant[value=[1, 1, 1]]()
  %1733 : bool = prim::Constant[value=0]() # /home/fangzheng/miniconda3/envs/zl_nnunetv1/lib/python3.9/site-packages/torch/nn/modules/conv.py:602:0
  %4026 : int[] = prim::Constant[value=[0, 0, 0]]()
  %1738 : int = prim::Constant[value=1]() # /home/fangzheng/miniconda3/envs/zl_nnunetv1/lib/python3.9/site-packages/torch/nn/modules/conv.py:602:0
  %1739 : bool = prim::Constant[value=1]() # /home/fangzheng/miniconda3/envs/zl_nnunetv1/lib/python3.9/site-packages/torch/nn/modules/conv.py:602:0
  %1740 : bool = prim::Constant[value=0]() # /home/fangzheng/miniconda3/envs/zl_nnunetv1/lib/python3.9/site-packages/torch/nn/modules/conv.py:602:0
  %1741 : bool = prim::Constant[value=1]() # /home/fangzheng/miniconda3/envs/zl_nnunetv1/lib/python3.9/site-packages/torch/nn/modules/conv.py:602:0
  %1742 : bool = prim::Constant[value=1]() # /home/fangzheng/miniconda3/envs/zl_nnunetv1/lib/python3.9/site-packages/torch/nn/modules/conv.py:602:0
  %1743 : Float(1, 128, 16, 16, 16, strides=[524288, 4096, 256, 16, 1], requires_grad=0, device=cuda:0) = aten::_convolution(%input.73, %78, %79, %4023, %4024, %4025, %1733, %4026, %1738, %1739, %1740, %1741, %1742) # /home/fangzheng/miniconda3/envs/zl_nnunetv1/lib/python3.9/site-packages/torch/nn/modules/conv.py:602:0
  %4027 : int[] = prim::Constant[value=[2, 2, 2]]()
  %4028 : int[] = prim::Constant[value=[0, 0, 0]]()
  %4029 : int[] = prim::Constant[value=[1, 1, 1]]()
  %1756 : bool = prim::Constant[value=0]() # /home/fangzheng/miniconda3/envs/zl_nnunetv1/lib/python3.9/site-packages/torch/nn/modules/conv.py:602:0
  %4030 : int[] = prim::Constant[value=[0, 0, 0]]()
  %1761 : int = prim::Constant[value=1]() # /home/fangzheng/miniconda3/envs/zl_nnunetv1/lib/python3.9/site-packages/torch/nn/modules/conv.py:602:0
  %1762 : bool = prim::Constant[value=1]() # /home/fangzheng/miniconda3/envs/zl_nnunetv1/lib/python3.9/site-packages/torch/nn/modules/conv.py:602:0
  %1763 : bool = prim::Constant[value=0]() # /home/fangzheng/miniconda3/envs/zl_nnunetv1/lib/python3.9/site-packages/torch/nn/modules/conv.py:602:0
  %1764 : bool = prim::Constant[value=1]() # /home/fangzheng/miniconda3/envs/zl_nnunetv1/lib/python3.9/site-packages/torch/nn/modules/conv.py:602:0
  %1765 : bool = prim::Constant[value=1]() # /home/fangzheng/miniconda3/envs/zl_nnunetv1/lib/python3.9/site-packages/torch/nn/modules/conv.py:602:0
  %1766 : Float(1, 128, 16, 16, 16, strides=[524288, 4096, 256, 16, 1], requires_grad=0, device=cuda:0) = aten::_convolution(%input.67, %80, %81, %4027, %4028, %4029, %1756, %4030, %1761, %1762, %1763, %1764, %1765) # /home/fangzheng/miniconda3/envs/zl_nnunetv1/lib/python3.9/site-packages/torch/nn/modules/conv.py:602:0
  %1767 : int = prim::Constant[value=1]() # /home/fangzheng/zoule/mednext/nnunet_mednext/network_architecture/mednextv1/blocks.py:141:0
  %input.75 : Float(1, 128, 16, 16, 16, strides=[524288, 4096, 256, 16, 1], requires_grad=1, device=cuda:0) = aten::add(%1743, %1766, %1767) # /home/fangzheng/zoule/mednext/nnunet_mednext/network_architecture/mednextv1/blocks.py:141:0
  %4031 : int[] = prim::Constant[value=[1, 1, 1]]()
  %4032 : int[] = prim::Constant[value=[1, 1, 1]]()
  %4033 : int[] = prim::Constant[value=[1, 1, 1]]()
  %1781 : bool = prim::Constant[value=0]() # /home/fangzheng/miniconda3/envs/zl_nnunetv1/lib/python3.9/site-packages/torch/nn/modules/conv.py:602:0
  %4034 : int[] = prim::Constant[value=[0, 0, 0]]()
  %1786 : int = prim::Constant[value=128]() # /home/fangzheng/miniconda3/envs/zl_nnunetv1/lib/python3.9/site-packages/torch/nn/modules/conv.py:602:0
  %1787 : bool = prim::Constant[value=1]() # /home/fangzheng/miniconda3/envs/zl_nnunetv1/lib/python3.9/site-packages/torch/nn/modules/conv.py:602:0
  %1788 : bool = prim::Constant[value=0]() # /home/fangzheng/miniconda3/envs/zl_nnunetv1/lib/python3.9/site-packages/torch/nn/modules/conv.py:602:0
  %1789 : bool = prim::Constant[value=1]() # /home/fangzheng/miniconda3/envs/zl_nnunetv1/lib/python3.9/site-packages/torch/nn/modules/conv.py:602:0
  %1790 : bool = prim::Constant[value=1]() # /home/fangzheng/miniconda3/envs/zl_nnunetv1/lib/python3.9/site-packages/torch/nn/modules/conv.py:602:0
  %input.77 : Float(1, 128, 16, 16, 16, strides=[524288, 4096, 256, 16, 1], requires_grad=0, device=cuda:0) = aten::_convolution(%input.75, %82, %83, %4031, %4032, %4033, %1781, %4034, %1786, %1787, %1788, %1789, %1790) # /home/fangzheng/miniconda3/envs/zl_nnunetv1/lib/python3.9/site-packages/torch/nn/modules/conv.py:602:0
  %1822 : int = prim::Constant[value=128]() # /home/fangzheng/miniconda3/envs/zl_nnunetv1/lib/python3.9/site-packages/torch/nn/functional.py:2516:0
  %1823 : float = prim::Constant[value=1.0000000000000001e-05]() # /home/fangzheng/miniconda3/envs/zl_nnunetv1/lib/python3.9/site-packages/torch/nn/functional.py:2516:0
  %1824 : bool = prim::Constant[value=1]() # /home/fangzheng/miniconda3/envs/zl_nnunetv1/lib/python3.9/site-packages/torch/nn/functional.py:2516:0
  %input.79 : Float(1, 128, 16, 16, 16, strides=[524288, 4096, 256, 16, 1], requires_grad=1, device=cuda:0) = aten::group_norm(%input.77, %1822, %84, %85, %1823, %1824) # /home/fangzheng/miniconda3/envs/zl_nnunetv1/lib/python3.9/site-packages/torch/nn/functional.py:2516:0
  %4035 : int[] = prim::Constant[value=[1, 1, 1]]()
  %4036 : int[] = prim::Constant[value=[0, 0, 0]]()
  %4037 : int[] = prim::Constant[value=[1, 1, 1]]()
  %1838 : bool = prim::Constant[value=0]() # /home/fangzheng/miniconda3/envs/zl_nnunetv1/lib/python3.9/site-packages/torch/nn/modules/conv.py:602:0
  %4038 : int[] = prim::Constant[value=[0, 0, 0]]()
  %1843 : int = prim::Constant[value=1]() # /home/fangzheng/miniconda3/envs/zl_nnunetv1/lib/python3.9/site-packages/torch/nn/modules/conv.py:602:0
  %1844 : bool = prim::Constant[value=1]() # /home/fangzheng/miniconda3/envs/zl_nnunetv1/lib/python3.9/site-packages/torch/nn/modules/conv.py:602:0
  %1845 : bool = prim::Constant[value=0]() # /home/fangzheng/miniconda3/envs/zl_nnunetv1/lib/python3.9/site-packages/torch/nn/modules/conv.py:602:0
  %1846 : bool = prim::Constant[value=1]() # /home/fangzheng/miniconda3/envs/zl_nnunetv1/lib/python3.9/site-packages/torch/nn/modules/conv.py:602:0
  %1847 : bool = prim::Constant[value=1]() # /home/fangzheng/miniconda3/envs/zl_nnunetv1/lib/python3.9/site-packages/torch/nn/modules/conv.py:602:0
  %1848 : Float(1, 256, 16, 16, 16, strides=[1048576, 4096, 256, 16, 1], requires_grad=0, device=cuda:0) = aten::_convolution(%input.79, %86, %87, %4035, %4036, %4037, %1838, %4038, %1843, %1844, %1845, %1846, %1847) # /home/fangzheng/miniconda3/envs/zl_nnunetv1/lib/python3.9/site-packages/torch/nn/modules/conv.py:602:0
  %1849 : str = prim::Constant[value="none"]() # /home/fangzheng/miniconda3/envs/zl_nnunetv1/lib/python3.9/site-packages/torch/nn/modules/activation.py:681:0
  %input.81 : Float(1, 256, 16, 16, 16, strides=[1048576, 4096, 256, 16, 1], requires_grad=1, device=cuda:0) = aten::gelu(%1848, %1849) # /home/fangzheng/miniconda3/envs/zl_nnunetv1/lib/python3.9/site-packages/torch/nn/modules/activation.py:681:0
  %4039 : int[] = prim::Constant[value=[1, 1, 1]]()
  %4040 : int[] = prim::Constant[value=[0, 0, 0]]()
  %4041 : int[] = prim::Constant[value=[1, 1, 1]]()
  %1863 : bool = prim::Constant[value=0]() # /home/fangzheng/miniconda3/envs/zl_nnunetv1/lib/python3.9/site-packages/torch/nn/modules/conv.py:602:0
  %4042 : int[] = prim::Constant[value=[0, 0, 0]]()
  %1868 : int = prim::Constant[value=1]() # /home/fangzheng/miniconda3/envs/zl_nnunetv1/lib/python3.9/site-packages/torch/nn/modules/conv.py:602:0
  %1869 : bool = prim::Constant[value=1]() # /home/fangzheng/miniconda3/envs/zl_nnunetv1/lib/python3.9/site-packages/torch/nn/modules/conv.py:602:0
  %1870 : bool = prim::Constant[value=0]() # /home/fangzheng/miniconda3/envs/zl_nnunetv1/lib/python3.9/site-packages/torch/nn/modules/conv.py:602:0
  %1871 : bool = prim::Constant[value=1]() # /home/fangzheng/miniconda3/envs/zl_nnunetv1/lib/python3.9/site-packages/torch/nn/modules/conv.py:602:0
  %1872 : bool = prim::Constant[value=1]() # /home/fangzheng/miniconda3/envs/zl_nnunetv1/lib/python3.9/site-packages/torch/nn/modules/conv.py:602:0
  %1873 : Float(1, 128, 16, 16, 16, strides=[524288, 4096, 256, 16, 1], requires_grad=0, device=cuda:0) = aten::_convolution(%input.81, %88, %89, %4039, %4040, %4041, %1863, %4042, %1868, %1869, %1870, %1871, %1872) # /home/fangzheng/miniconda3/envs/zl_nnunetv1/lib/python3.9/site-packages/torch/nn/modules/conv.py:602:0
  %1874 : int = prim::Constant[value=1]() # /home/fangzheng/zoule/mednext/nnunet_mednext/network_architecture/mednextv1/blocks.py:100:0
  %input.83 : Float(1, 128, 16, 16, 16, strides=[524288, 4096, 256, 16, 1], requires_grad=1, device=cuda:0) = aten::add(%input.75, %1873, %1874) # /home/fangzheng/zoule/mednext/nnunet_mednext/network_architecture/mednextv1/blocks.py:100:0
  %4043 : int[] = prim::Constant[value=[1, 1, 1]]()
  %4044 : int[] = prim::Constant[value=[1, 1, 1]]()
  %4045 : int[] = prim::Constant[value=[1, 1, 1]]()
  %1888 : bool = prim::Constant[value=0]() # /home/fangzheng/miniconda3/envs/zl_nnunetv1/lib/python3.9/site-packages/torch/nn/modules/conv.py:602:0
  %4046 : int[] = prim::Constant[value=[0, 0, 0]]()
  %1893 : int = prim::Constant[value=128]() # /home/fangzheng/miniconda3/envs/zl_nnunetv1/lib/python3.9/site-packages/torch/nn/modules/conv.py:602:0
  %1894 : bool = prim::Constant[value=1]() # /home/fangzheng/miniconda3/envs/zl_nnunetv1/lib/python3.9/site-packages/torch/nn/modules/conv.py:602:0
  %1895 : bool = prim::Constant[value=0]() # /home/fangzheng/miniconda3/envs/zl_nnunetv1/lib/python3.9/site-packages/torch/nn/modules/conv.py:602:0
  %1896 : bool = prim::Constant[value=1]() # /home/fangzheng/miniconda3/envs/zl_nnunetv1/lib/python3.9/site-packages/torch/nn/modules/conv.py:602:0
  %1897 : bool = prim::Constant[value=1]() # /home/fangzheng/miniconda3/envs/zl_nnunetv1/lib/python3.9/site-packages/torch/nn/modules/conv.py:602:0
  %input.85 : Float(1, 128, 16, 16, 16, strides=[524288, 4096, 256, 16, 1], requires_grad=0, device=cuda:0) = aten::_convolution(%input.83, %90, %91, %4043, %4044, %4045, %1888, %4046, %1893, %1894, %1895, %1896, %1897) # /home/fangzheng/miniconda3/envs/zl_nnunetv1/lib/python3.9/site-packages/torch/nn/modules/conv.py:602:0
  %1929 : int = prim::Constant[value=128]() # /home/fangzheng/miniconda3/envs/zl_nnunetv1/lib/python3.9/site-packages/torch/nn/functional.py:2516:0
  %1930 : float = prim::Constant[value=1.0000000000000001e-05]() # /home/fangzheng/miniconda3/envs/zl_nnunetv1/lib/python3.9/site-packages/torch/nn/functional.py:2516:0
  %1931 : bool = prim::Constant[value=1]() # /home/fangzheng/miniconda3/envs/zl_nnunetv1/lib/python3.9/site-packages/torch/nn/functional.py:2516:0
  %input.87 : Float(1, 128, 16, 16, 16, strides=[524288, 4096, 256, 16, 1], requires_grad=1, device=cuda:0) = aten::group_norm(%input.85, %1929, %92, %93, %1930, %1931) # /home/fangzheng/miniconda3/envs/zl_nnunetv1/lib/python3.9/site-packages/torch/nn/functional.py:2516:0
  %4047 : int[] = prim::Constant[value=[1, 1, 1]]()
  %4048 : int[] = prim::Constant[value=[0, 0, 0]]()
  %4049 : int[] = prim::Constant[value=[1, 1, 1]]()
  %1945 : bool = prim::Constant[value=0]() # /home/fangzheng/miniconda3/envs/zl_nnunetv1/lib/python3.9/site-packages/torch/nn/modules/conv.py:602:0
  %4050 : int[] = prim::Constant[value=[0, 0, 0]]()
  %1950 : int = prim::Constant[value=1]() # /home/fangzheng/miniconda3/envs/zl_nnunetv1/lib/python3.9/site-packages/torch/nn/modules/conv.py:602:0
  %1951 : bool = prim::Constant[value=1]() # /home/fangzheng/miniconda3/envs/zl_nnunetv1/lib/python3.9/site-packages/torch/nn/modules/conv.py:602:0
  %1952 : bool = prim::Constant[value=0]() # /home/fangzheng/miniconda3/envs/zl_nnunetv1/lib/python3.9/site-packages/torch/nn/modules/conv.py:602:0
  %1953 : bool = prim::Constant[value=1]() # /home/fangzheng/miniconda3/envs/zl_nnunetv1/lib/python3.9/site-packages/torch/nn/modules/conv.py:602:0
  %1954 : bool = prim::Constant[value=1]() # /home/fangzheng/miniconda3/envs/zl_nnunetv1/lib/python3.9/site-packages/torch/nn/modules/conv.py:602:0
  %1955 : Float(1, 256, 16, 16, 16, strides=[1048576, 4096, 256, 16, 1], requires_grad=0, device=cuda:0) = aten::_convolution(%input.87, %94, %95, %4047, %4048, %4049, %1945, %4050, %1950, %1951, %1952, %1953, %1954) # /home/fangzheng/miniconda3/envs/zl_nnunetv1/lib/python3.9/site-packages/torch/nn/modules/conv.py:602:0
  %1956 : str = prim::Constant[value="none"]() # /home/fangzheng/miniconda3/envs/zl_nnunetv1/lib/python3.9/site-packages/torch/nn/modules/activation.py:681:0
  %input.89 : Float(1, 256, 16, 16, 16, strides=[1048576, 4096, 256, 16, 1], requires_grad=1, device=cuda:0) = aten::gelu(%1955, %1956) # /home/fangzheng/miniconda3/envs/zl_nnunetv1/lib/python3.9/site-packages/torch/nn/modules/activation.py:681:0
  %4051 : int[] = prim::Constant[value=[1, 1, 1]]()
  %4052 : int[] = prim::Constant[value=[0, 0, 0]]()
  %4053 : int[] = prim::Constant[value=[1, 1, 1]]()
  %1970 : bool = prim::Constant[value=0]() # /home/fangzheng/miniconda3/envs/zl_nnunetv1/lib/python3.9/site-packages/torch/nn/modules/conv.py:602:0
  %4054 : int[] = prim::Constant[value=[0, 0, 0]]()
  %1975 : int = prim::Constant[value=1]() # /home/fangzheng/miniconda3/envs/zl_nnunetv1/lib/python3.9/site-packages/torch/nn/modules/conv.py:602:0
  %1976 : bool = prim::Constant[value=1]() # /home/fangzheng/miniconda3/envs/zl_nnunetv1/lib/python3.9/site-packages/torch/nn/modules/conv.py:602:0
  %1977 : bool = prim::Constant[value=0]() # /home/fangzheng/miniconda3/envs/zl_nnunetv1/lib/python3.9/site-packages/torch/nn/modules/conv.py:602:0
  %1978 : bool = prim::Constant[value=1]() # /home/fangzheng/miniconda3/envs/zl_nnunetv1/lib/python3.9/site-packages/torch/nn/modules/conv.py:602:0
  %1979 : bool = prim::Constant[value=1]() # /home/fangzheng/miniconda3/envs/zl_nnunetv1/lib/python3.9/site-packages/torch/nn/modules/conv.py:602:0
  %1980 : Float(1, 128, 16, 16, 16, strides=[524288, 4096, 256, 16, 1], requires_grad=0, device=cuda:0) = aten::_convolution(%input.89, %96, %97, %4051, %4052, %4053, %1970, %4054, %1975, %1976, %1977, %1978, %1979) # /home/fangzheng/miniconda3/envs/zl_nnunetv1/lib/python3.9/site-packages/torch/nn/modules/conv.py:602:0
  %1981 : int = prim::Constant[value=1]() # /home/fangzheng/zoule/mednext/nnunet_mednext/network_architecture/mednextv1/blocks.py:100:0
  %input.91 : Float(1, 128, 16, 16, 16, strides=[524288, 4096, 256, 16, 1], requires_grad=1, device=cuda:0) = aten::add(%input.83, %1980, %1981) # /home/fangzheng/zoule/mednext/nnunet_mednext/network_architecture/mednextv1/blocks.py:100:0
  %4055 : int[] = prim::Constant[value=[2, 2, 2]]()
  %4056 : int[] = prim::Constant[value=[1, 1, 1]]()
  %4057 : int[] = prim::Constant[value=[1, 1, 1]]()
  %1995 : bool = prim::Constant[value=0]() # /home/fangzheng/miniconda3/envs/zl_nnunetv1/lib/python3.9/site-packages/torch/nn/modules/conv.py:602:0
  %4058 : int[] = prim::Constant[value=[0, 0, 0]]()
  %2000 : int = prim::Constant[value=128]() # /home/fangzheng/miniconda3/envs/zl_nnunetv1/lib/python3.9/site-packages/torch/nn/modules/conv.py:602:0
  %2001 : bool = prim::Constant[value=1]() # /home/fangzheng/miniconda3/envs/zl_nnunetv1/lib/python3.9/site-packages/torch/nn/modules/conv.py:602:0
  %2002 : bool = prim::Constant[value=0]() # /home/fangzheng/miniconda3/envs/zl_nnunetv1/lib/python3.9/site-packages/torch/nn/modules/conv.py:602:0
  %2003 : bool = prim::Constant[value=1]() # /home/fangzheng/miniconda3/envs/zl_nnunetv1/lib/python3.9/site-packages/torch/nn/modules/conv.py:602:0
  %2004 : bool = prim::Constant[value=1]() # /home/fangzheng/miniconda3/envs/zl_nnunetv1/lib/python3.9/site-packages/torch/nn/modules/conv.py:602:0
  %input.93 : Float(1, 128, 8, 8, 8, strides=[65536, 512, 64, 8, 1], requires_grad=0, device=cuda:0) = aten::_convolution(%input.91, %98, %99, %4055, %4056, %4057, %1995, %4058, %2000, %2001, %2002, %2003, %2004) # /home/fangzheng/miniconda3/envs/zl_nnunetv1/lib/python3.9/site-packages/torch/nn/modules/conv.py:602:0
  %2036 : int = prim::Constant[value=128]() # /home/fangzheng/miniconda3/envs/zl_nnunetv1/lib/python3.9/site-packages/torch/nn/functional.py:2516:0
  %2037 : float = prim::Constant[value=1.0000000000000001e-05]() # /home/fangzheng/miniconda3/envs/zl_nnunetv1/lib/python3.9/site-packages/torch/nn/functional.py:2516:0
  %2038 : bool = prim::Constant[value=1]() # /home/fangzheng/miniconda3/envs/zl_nnunetv1/lib/python3.9/site-packages/torch/nn/functional.py:2516:0
  %input.95 : Float(1, 128, 8, 8, 8, strides=[65536, 512, 64, 8, 1], requires_grad=1, device=cuda:0) = aten::group_norm(%input.93, %2036, %100, %101, %2037, %2038) # /home/fangzheng/miniconda3/envs/zl_nnunetv1/lib/python3.9/site-packages/torch/nn/functional.py:2516:0
  %4059 : int[] = prim::Constant[value=[1, 1, 1]]()
  %4060 : int[] = prim::Constant[value=[0, 0, 0]]()
  %4061 : int[] = prim::Constant[value=[1, 1, 1]]()
  %2052 : bool = prim::Constant[value=0]() # /home/fangzheng/miniconda3/envs/zl_nnunetv1/lib/python3.9/site-packages/torch/nn/modules/conv.py:602:0
  %4062 : int[] = prim::Constant[value=[0, 0, 0]]()
  %2057 : int = prim::Constant[value=1]() # /home/fangzheng/miniconda3/envs/zl_nnunetv1/lib/python3.9/site-packages/torch/nn/modules/conv.py:602:0
  %2058 : bool = prim::Constant[value=1]() # /home/fangzheng/miniconda3/envs/zl_nnunetv1/lib/python3.9/site-packages/torch/nn/modules/conv.py:602:0
  %2059 : bool = prim::Constant[value=0]() # /home/fangzheng/miniconda3/envs/zl_nnunetv1/lib/python3.9/site-packages/torch/nn/modules/conv.py:602:0
  %2060 : bool = prim::Constant[value=1]() # /home/fangzheng/miniconda3/envs/zl_nnunetv1/lib/python3.9/site-packages/torch/nn/modules/conv.py:602:0
  %2061 : bool = prim::Constant[value=1]() # /home/fangzheng/miniconda3/envs/zl_nnunetv1/lib/python3.9/site-packages/torch/nn/modules/conv.py:602:0
  %2062 : Float(1, 256, 8, 8, 8, strides=[131072, 512, 64, 8, 1], requires_grad=0, device=cuda:0) = aten::_convolution(%input.95, %102, %103, %4059, %4060, %4061, %2052, %4062, %2057, %2058, %2059, %2060, %2061) # /home/fangzheng/miniconda3/envs/zl_nnunetv1/lib/python3.9/site-packages/torch/nn/modules/conv.py:602:0
  %2063 : str = prim::Constant[value="none"]() # /home/fangzheng/miniconda3/envs/zl_nnunetv1/lib/python3.9/site-packages/torch/nn/modules/activation.py:681:0
  %input.97 : Float(1, 256, 8, 8, 8, strides=[131072, 512, 64, 8, 1], requires_grad=1, device=cuda:0) = aten::gelu(%2062, %2063) # /home/fangzheng/miniconda3/envs/zl_nnunetv1/lib/python3.9/site-packages/torch/nn/modules/activation.py:681:0
  %4063 : int[] = prim::Constant[value=[1, 1, 1]]()
  %4064 : int[] = prim::Constant[value=[0, 0, 0]]()
  %4065 : int[] = prim::Constant[value=[1, 1, 1]]()
  %2077 : bool = prim::Constant[value=0]() # /home/fangzheng/miniconda3/envs/zl_nnunetv1/lib/python3.9/site-packages/torch/nn/modules/conv.py:602:0
  %4066 : int[] = prim::Constant[value=[0, 0, 0]]()
  %2082 : int = prim::Constant[value=1]() # /home/fangzheng/miniconda3/envs/zl_nnunetv1/lib/python3.9/site-packages/torch/nn/modules/conv.py:602:0
  %2083 : bool = prim::Constant[value=1]() # /home/fangzheng/miniconda3/envs/zl_nnunetv1/lib/python3.9/site-packages/torch/nn/modules/conv.py:602:0
  %2084 : bool = prim::Constant[value=0]() # /home/fangzheng/miniconda3/envs/zl_nnunetv1/lib/python3.9/site-packages/torch/nn/modules/conv.py:602:0
  %2085 : bool = prim::Constant[value=1]() # /home/fangzheng/miniconda3/envs/zl_nnunetv1/lib/python3.9/site-packages/torch/nn/modules/conv.py:602:0
  %2086 : bool = prim::Constant[value=1]() # /home/fangzheng/miniconda3/envs/zl_nnunetv1/lib/python3.9/site-packages/torch/nn/modules/conv.py:602:0
  %2087 : Float(1, 256, 8, 8, 8, strides=[131072, 512, 64, 8, 1], requires_grad=0, device=cuda:0) = aten::_convolution(%input.97, %104, %105, %4063, %4064, %4065, %2077, %4066, %2082, %2083, %2084, %2085, %2086) # /home/fangzheng/miniconda3/envs/zl_nnunetv1/lib/python3.9/site-packages/torch/nn/modules/conv.py:602:0
  %4067 : int[] = prim::Constant[value=[2, 2, 2]]()
  %4068 : int[] = prim::Constant[value=[0, 0, 0]]()
  %4069 : int[] = prim::Constant[value=[1, 1, 1]]()
  %2100 : bool = prim::Constant[value=0]() # /home/fangzheng/miniconda3/envs/zl_nnunetv1/lib/python3.9/site-packages/torch/nn/modules/conv.py:602:0
  %4070 : int[] = prim::Constant[value=[0, 0, 0]]()
  %2105 : int = prim::Constant[value=1]() # /home/fangzheng/miniconda3/envs/zl_nnunetv1/lib/python3.9/site-packages/torch/nn/modules/conv.py:602:0
  %2106 : bool = prim::Constant[value=1]() # /home/fangzheng/miniconda3/envs/zl_nnunetv1/lib/python3.9/site-packages/torch/nn/modules/conv.py:602:0
  %2107 : bool = prim::Constant[value=0]() # /home/fangzheng/miniconda3/envs/zl_nnunetv1/lib/python3.9/site-packages/torch/nn/modules/conv.py:602:0
  %2108 : bool = prim::Constant[value=1]() # /home/fangzheng/miniconda3/envs/zl_nnunetv1/lib/python3.9/site-packages/torch/nn/modules/conv.py:602:0
  %2109 : bool = prim::Constant[value=1]() # /home/fangzheng/miniconda3/envs/zl_nnunetv1/lib/python3.9/site-packages/torch/nn/modules/conv.py:602:0
  %2110 : Float(1, 256, 8, 8, 8, strides=[131072, 512, 64, 8, 1], requires_grad=0, device=cuda:0) = aten::_convolution(%input.91, %106, %107, %4067, %4068, %4069, %2100, %4070, %2105, %2106, %2107, %2108, %2109) # /home/fangzheng/miniconda3/envs/zl_nnunetv1/lib/python3.9/site-packages/torch/nn/modules/conv.py:602:0
  %2111 : int = prim::Constant[value=1]() # /home/fangzheng/zoule/mednext/nnunet_mednext/network_architecture/mednextv1/blocks.py:141:0
  %input.99 : Float(1, 256, 8, 8, 8, strides=[131072, 512, 64, 8, 1], requires_grad=1, device=cuda:0) = aten::add(%2087, %2110, %2111) # /home/fangzheng/zoule/mednext/nnunet_mednext/network_architecture/mednextv1/blocks.py:141:0
  %4071 : int[] = prim::Constant[value=[1, 1, 1]]()
  %4072 : int[] = prim::Constant[value=[1, 1, 1]]()
  %4073 : int[] = prim::Constant[value=[1, 1, 1]]()
  %2125 : bool = prim::Constant[value=0]() # /home/fangzheng/miniconda3/envs/zl_nnunetv1/lib/python3.9/site-packages/torch/nn/modules/conv.py:602:0
  %4074 : int[] = prim::Constant[value=[0, 0, 0]]()
  %2130 : int = prim::Constant[value=256]() # /home/fangzheng/miniconda3/envs/zl_nnunetv1/lib/python3.9/site-packages/torch/nn/modules/conv.py:602:0
  %2131 : bool = prim::Constant[value=1]() # /home/fangzheng/miniconda3/envs/zl_nnunetv1/lib/python3.9/site-packages/torch/nn/modules/conv.py:602:0
  %2132 : bool = prim::Constant[value=0]() # /home/fangzheng/miniconda3/envs/zl_nnunetv1/lib/python3.9/site-packages/torch/nn/modules/conv.py:602:0
  %2133 : bool = prim::Constant[value=1]() # /home/fangzheng/miniconda3/envs/zl_nnunetv1/lib/python3.9/site-packages/torch/nn/modules/conv.py:602:0
  %2134 : bool = prim::Constant[value=1]() # /home/fangzheng/miniconda3/envs/zl_nnunetv1/lib/python3.9/site-packages/torch/nn/modules/conv.py:602:0
  %input.101 : Float(1, 256, 8, 8, 8, strides=[131072, 512, 64, 8, 1], requires_grad=0, device=cuda:0) = aten::_convolution(%input.99, %108, %109, %4071, %4072, %4073, %2125, %4074, %2130, %2131, %2132, %2133, %2134) # /home/fangzheng/miniconda3/envs/zl_nnunetv1/lib/python3.9/site-packages/torch/nn/modules/conv.py:602:0
  %2166 : int = prim::Constant[value=256]() # /home/fangzheng/miniconda3/envs/zl_nnunetv1/lib/python3.9/site-packages/torch/nn/functional.py:2516:0
  %2167 : float = prim::Constant[value=1.0000000000000001e-05]() # /home/fangzheng/miniconda3/envs/zl_nnunetv1/lib/python3.9/site-packages/torch/nn/functional.py:2516:0
  %2168 : bool = prim::Constant[value=1]() # /home/fangzheng/miniconda3/envs/zl_nnunetv1/lib/python3.9/site-packages/torch/nn/functional.py:2516:0
  %input.103 : Float(1, 256, 8, 8, 8, strides=[131072, 512, 64, 8, 1], requires_grad=1, device=cuda:0) = aten::group_norm(%input.101, %2166, %110, %111, %2167, %2168) # /home/fangzheng/miniconda3/envs/zl_nnunetv1/lib/python3.9/site-packages/torch/nn/functional.py:2516:0
  %4075 : int[] = prim::Constant[value=[1, 1, 1]]()
  %4076 : int[] = prim::Constant[value=[0, 0, 0]]()
  %4077 : int[] = prim::Constant[value=[1, 1, 1]]()
  %2182 : bool = prim::Constant[value=0]() # /home/fangzheng/miniconda3/envs/zl_nnunetv1/lib/python3.9/site-packages/torch/nn/modules/conv.py:602:0
  %4078 : int[] = prim::Constant[value=[0, 0, 0]]()
  %2187 : int = prim::Constant[value=1]() # /home/fangzheng/miniconda3/envs/zl_nnunetv1/lib/python3.9/site-packages/torch/nn/modules/conv.py:602:0
  %2188 : bool = prim::Constant[value=1]() # /home/fangzheng/miniconda3/envs/zl_nnunetv1/lib/python3.9/site-packages/torch/nn/modules/conv.py:602:0
  %2189 : bool = prim::Constant[value=0]() # /home/fangzheng/miniconda3/envs/zl_nnunetv1/lib/python3.9/site-packages/torch/nn/modules/conv.py:602:0
  %2190 : bool = prim::Constant[value=1]() # /home/fangzheng/miniconda3/envs/zl_nnunetv1/lib/python3.9/site-packages/torch/nn/modules/conv.py:602:0
  %2191 : bool = prim::Constant[value=1]() # /home/fangzheng/miniconda3/envs/zl_nnunetv1/lib/python3.9/site-packages/torch/nn/modules/conv.py:602:0
  %2192 : Float(1, 512, 8, 8, 8, strides=[262144, 512, 64, 8, 1], requires_grad=0, device=cuda:0) = aten::_convolution(%input.103, %112, %113, %4075, %4076, %4077, %2182, %4078, %2187, %2188, %2189, %2190, %2191) # /home/fangzheng/miniconda3/envs/zl_nnunetv1/lib/python3.9/site-packages/torch/nn/modules/conv.py:602:0
  %2193 : str = prim::Constant[value="none"]() # /home/fangzheng/miniconda3/envs/zl_nnunetv1/lib/python3.9/site-packages/torch/nn/modules/activation.py:681:0
  %input.105 : Float(1, 512, 8, 8, 8, strides=[262144, 512, 64, 8, 1], requires_grad=1, device=cuda:0) = aten::gelu(%2192, %2193) # /home/fangzheng/miniconda3/envs/zl_nnunetv1/lib/python3.9/site-packages/torch/nn/modules/activation.py:681:0
  %4079 : int[] = prim::Constant[value=[1, 1, 1]]()
  %4080 : int[] = prim::Constant[value=[0, 0, 0]]()
  %4081 : int[] = prim::Constant[value=[1, 1, 1]]()
  %2207 : bool = prim::Constant[value=0]() # /home/fangzheng/miniconda3/envs/zl_nnunetv1/lib/python3.9/site-packages/torch/nn/modules/conv.py:602:0
  %4082 : int[] = prim::Constant[value=[0, 0, 0]]()
  %2212 : int = prim::Constant[value=1]() # /home/fangzheng/miniconda3/envs/zl_nnunetv1/lib/python3.9/site-packages/torch/nn/modules/conv.py:602:0
  %2213 : bool = prim::Constant[value=1]() # /home/fangzheng/miniconda3/envs/zl_nnunetv1/lib/python3.9/site-packages/torch/nn/modules/conv.py:602:0
  %2214 : bool = prim::Constant[value=0]() # /home/fangzheng/miniconda3/envs/zl_nnunetv1/lib/python3.9/site-packages/torch/nn/modules/conv.py:602:0
  %2215 : bool = prim::Constant[value=1]() # /home/fangzheng/miniconda3/envs/zl_nnunetv1/lib/python3.9/site-packages/torch/nn/modules/conv.py:602:0
  %2216 : bool = prim::Constant[value=1]() # /home/fangzheng/miniconda3/envs/zl_nnunetv1/lib/python3.9/site-packages/torch/nn/modules/conv.py:602:0
  %2217 : Float(1, 256, 8, 8, 8, strides=[131072, 512, 64, 8, 1], requires_grad=0, device=cuda:0) = aten::_convolution(%input.105, %114, %115, %4079, %4080, %4081, %2207, %4082, %2212, %2213, %2214, %2215, %2216) # /home/fangzheng/miniconda3/envs/zl_nnunetv1/lib/python3.9/site-packages/torch/nn/modules/conv.py:602:0
  %2218 : int = prim::Constant[value=1]() # /home/fangzheng/zoule/mednext/nnunet_mednext/network_architecture/mednextv1/blocks.py:100:0
  %input.107 : Float(1, 256, 8, 8, 8, strides=[131072, 512, 64, 8, 1], requires_grad=1, device=cuda:0) = aten::add(%input.99, %2217, %2218) # /home/fangzheng/zoule/mednext/nnunet_mednext/network_architecture/mednextv1/blocks.py:100:0
  %4083 : int[] = prim::Constant[value=[1, 1, 1]]()
  %4084 : int[] = prim::Constant[value=[1, 1, 1]]()
  %4085 : int[] = prim::Constant[value=[1, 1, 1]]()
  %2232 : bool = prim::Constant[value=0]() # /home/fangzheng/miniconda3/envs/zl_nnunetv1/lib/python3.9/site-packages/torch/nn/modules/conv.py:602:0
  %4086 : int[] = prim::Constant[value=[0, 0, 0]]()
  %2237 : int = prim::Constant[value=256]() # /home/fangzheng/miniconda3/envs/zl_nnunetv1/lib/python3.9/site-packages/torch/nn/modules/conv.py:602:0
  %2238 : bool = prim::Constant[value=1]() # /home/fangzheng/miniconda3/envs/zl_nnunetv1/lib/python3.9/site-packages/torch/nn/modules/conv.py:602:0
  %2239 : bool = prim::Constant[value=0]() # /home/fangzheng/miniconda3/envs/zl_nnunetv1/lib/python3.9/site-packages/torch/nn/modules/conv.py:602:0
  %2240 : bool = prim::Constant[value=1]() # /home/fangzheng/miniconda3/envs/zl_nnunetv1/lib/python3.9/site-packages/torch/nn/modules/conv.py:602:0
  %2241 : bool = prim::Constant[value=1]() # /home/fangzheng/miniconda3/envs/zl_nnunetv1/lib/python3.9/site-packages/torch/nn/modules/conv.py:602:0
  %input.109 : Float(1, 256, 8, 8, 8, strides=[131072, 512, 64, 8, 1], requires_grad=0, device=cuda:0) = aten::_convolution(%input.107, %116, %117, %4083, %4084, %4085, %2232, %4086, %2237, %2238, %2239, %2240, %2241) # /home/fangzheng/miniconda3/envs/zl_nnunetv1/lib/python3.9/site-packages/torch/nn/modules/conv.py:602:0
  %2273 : int = prim::Constant[value=256]() # /home/fangzheng/miniconda3/envs/zl_nnunetv1/lib/python3.9/site-packages/torch/nn/functional.py:2516:0
  %2274 : float = prim::Constant[value=1.0000000000000001e-05]() # /home/fangzheng/miniconda3/envs/zl_nnunetv1/lib/python3.9/site-packages/torch/nn/functional.py:2516:0
  %2275 : bool = prim::Constant[value=1]() # /home/fangzheng/miniconda3/envs/zl_nnunetv1/lib/python3.9/site-packages/torch/nn/functional.py:2516:0
  %input.111 : Float(1, 256, 8, 8, 8, strides=[131072, 512, 64, 8, 1], requires_grad=1, device=cuda:0) = aten::group_norm(%input.109, %2273, %118, %119, %2274, %2275) # /home/fangzheng/miniconda3/envs/zl_nnunetv1/lib/python3.9/site-packages/torch/nn/functional.py:2516:0
  %4087 : int[] = prim::Constant[value=[1, 1, 1]]()
  %4088 : int[] = prim::Constant[value=[0, 0, 0]]()
  %4089 : int[] = prim::Constant[value=[1, 1, 1]]()
  %2289 : bool = prim::Constant[value=0]() # /home/fangzheng/miniconda3/envs/zl_nnunetv1/lib/python3.9/site-packages/torch/nn/modules/conv.py:602:0
  %4090 : int[] = prim::Constant[value=[0, 0, 0]]()
  %2294 : int = prim::Constant[value=1]() # /home/fangzheng/miniconda3/envs/zl_nnunetv1/lib/python3.9/site-packages/torch/nn/modules/conv.py:602:0
  %2295 : bool = prim::Constant[value=1]() # /home/fangzheng/miniconda3/envs/zl_nnunetv1/lib/python3.9/site-packages/torch/nn/modules/conv.py:602:0
  %2296 : bool = prim::Constant[value=0]() # /home/fangzheng/miniconda3/envs/zl_nnunetv1/lib/python3.9/site-packages/torch/nn/modules/conv.py:602:0
  %2297 : bool = prim::Constant[value=1]() # /home/fangzheng/miniconda3/envs/zl_nnunetv1/lib/python3.9/site-packages/torch/nn/modules/conv.py:602:0
  %2298 : bool = prim::Constant[value=1]() # /home/fangzheng/miniconda3/envs/zl_nnunetv1/lib/python3.9/site-packages/torch/nn/modules/conv.py:602:0
  %2299 : Float(1, 512, 8, 8, 8, strides=[262144, 512, 64, 8, 1], requires_grad=0, device=cuda:0) = aten::_convolution(%input.111, %120, %121, %4087, %4088, %4089, %2289, %4090, %2294, %2295, %2296, %2297, %2298) # /home/fangzheng/miniconda3/envs/zl_nnunetv1/lib/python3.9/site-packages/torch/nn/modules/conv.py:602:0
  %2300 : str = prim::Constant[value="none"]() # /home/fangzheng/miniconda3/envs/zl_nnunetv1/lib/python3.9/site-packages/torch/nn/modules/activation.py:681:0
  %input.113 : Float(1, 512, 8, 8, 8, strides=[262144, 512, 64, 8, 1], requires_grad=1, device=cuda:0) = aten::gelu(%2299, %2300) # /home/fangzheng/miniconda3/envs/zl_nnunetv1/lib/python3.9/site-packages/torch/nn/modules/activation.py:681:0
  %4091 : int[] = prim::Constant[value=[1, 1, 1]]()
  %4092 : int[] = prim::Constant[value=[0, 0, 0]]()
  %4093 : int[] = prim::Constant[value=[1, 1, 1]]()
  %2314 : bool = prim::Constant[value=0]() # /home/fangzheng/miniconda3/envs/zl_nnunetv1/lib/python3.9/site-packages/torch/nn/modules/conv.py:602:0
  %4094 : int[] = prim::Constant[value=[0, 0, 0]]()
  %2319 : int = prim::Constant[value=1]() # /home/fangzheng/miniconda3/envs/zl_nnunetv1/lib/python3.9/site-packages/torch/nn/modules/conv.py:602:0
  %2320 : bool = prim::Constant[value=1]() # /home/fangzheng/miniconda3/envs/zl_nnunetv1/lib/python3.9/site-packages/torch/nn/modules/conv.py:602:0
  %2321 : bool = prim::Constant[value=0]() # /home/fangzheng/miniconda3/envs/zl_nnunetv1/lib/python3.9/site-packages/torch/nn/modules/conv.py:602:0
  %2322 : bool = prim::Constant[value=1]() # /home/fangzheng/miniconda3/envs/zl_nnunetv1/lib/python3.9/site-packages/torch/nn/modules/conv.py:602:0
  %2323 : bool = prim::Constant[value=1]() # /home/fangzheng/miniconda3/envs/zl_nnunetv1/lib/python3.9/site-packages/torch/nn/modules/conv.py:602:0
  %2324 : Float(1, 256, 8, 8, 8, strides=[131072, 512, 64, 8, 1], requires_grad=0, device=cuda:0) = aten::_convolution(%input.113, %122, %123, %4091, %4092, %4093, %2314, %4094, %2319, %2320, %2321, %2322, %2323) # /home/fangzheng/miniconda3/envs/zl_nnunetv1/lib/python3.9/site-packages/torch/nn/modules/conv.py:602:0
  %2325 : int = prim::Constant[value=1]() # /home/fangzheng/zoule/mednext/nnunet_mednext/network_architecture/mednextv1/blocks.py:100:0
  %2326 : Float(1, 256, 8, 8, 8, strides=[131072, 512, 64, 8, 1], requires_grad=1, device=cuda:0) = aten::add(%input.107, %2324, %2325) # /home/fangzheng/zoule/mednext/nnunet_mednext/network_architecture/mednextv1/blocks.py:100:0
  %4095 : int[] = prim::Constant[value=[1, 1, 1]]()
  %4096 : int[] = prim::Constant[value=[0, 0, 0]]()
  %4097 : int[] = prim::Constant[value=[1, 1, 1]]()
  %2339 : bool = prim::Constant[value=1]() # /home/fangzheng/miniconda3/envs/zl_nnunetv1/lib/python3.9/site-packages/torch/nn/modules/conv.py:1102:0
  %4098 : int[] = prim::Constant[value=[0, 0, 0]]()
  %2344 : int = prim::Constant[value=1]() # /home/fangzheng/miniconda3/envs/zl_nnunetv1/lib/python3.9/site-packages/torch/nn/modules/conv.py:1102:0
  %2345 : bool = prim::Constant[value=1]() # /home/fangzheng/miniconda3/envs/zl_nnunetv1/lib/python3.9/site-packages/torch/nn/modules/conv.py:1102:0
  %2346 : bool = prim::Constant[value=0]() # /home/fangzheng/miniconda3/envs/zl_nnunetv1/lib/python3.9/site-packages/torch/nn/modules/conv.py:1102:0
  %2347 : bool = prim::Constant[value=1]() # /home/fangzheng/miniconda3/envs/zl_nnunetv1/lib/python3.9/site-packages/torch/nn/modules/conv.py:1102:0
  %2348 : bool = prim::Constant[value=1]() # /home/fangzheng/miniconda3/envs/zl_nnunetv1/lib/python3.9/site-packages/torch/nn/modules/conv.py:1102:0
  %2349 : Float(1, 2, 8, 8, 8, strides=[1024, 512, 64, 8, 1], requires_grad=0, device=cuda:0) = aten::_convolution(%2326, %236, %237, %4095, %4096, %4097, %2339, %4098, %2344, %2345, %2346, %2347, %2348) # /home/fangzheng/miniconda3/envs/zl_nnunetv1/lib/python3.9/site-packages/torch/nn/modules/conv.py:1102:0
  %4099 : int[] = prim::Constant[value=[2, 2, 2]]()
  %4100 : int[] = prim::Constant[value=[1, 1, 1]]()
  %4101 : int[] = prim::Constant[value=[1, 1, 1]]()
  %2362 : bool = prim::Constant[value=1]() # /home/fangzheng/miniconda3/envs/zl_nnunetv1/lib/python3.9/site-packages/torch/nn/modules/conv.py:1102:0
  %4102 : int[] = prim::Constant[value=[0, 0, 0]]()
  %2367 : int = prim::Constant[value=256]() # /home/fangzheng/miniconda3/envs/zl_nnunetv1/lib/python3.9/site-packages/torch/nn/modules/conv.py:1102:0
  %2368 : bool = prim::Constant[value=1]() # /home/fangzheng/miniconda3/envs/zl_nnunetv1/lib/python3.9/site-packages/torch/nn/modules/conv.py:1102:0
  %2369 : bool = prim::Constant[value=0]() # /home/fangzheng/miniconda3/envs/zl_nnunetv1/lib/python3.9/site-packages/torch/nn/modules/conv.py:1102:0
  %2370 : bool = prim::Constant[value=1]() # /home/fangzheng/miniconda3/envs/zl_nnunetv1/lib/python3.9/site-packages/torch/nn/modules/conv.py:1102:0
  %2371 : bool = prim::Constant[value=1]() # /home/fangzheng/miniconda3/envs/zl_nnunetv1/lib/python3.9/site-packages/torch/nn/modules/conv.py:1102:0
  %input.115 : Float(1, 256, 15, 15, 15, strides=[864000, 3375, 225, 15, 1], requires_grad=0, device=cuda:0) = aten::_convolution(%2326, %124, %125, %4099, %4100, %4101, %2362, %4102, %2367, %2368, %2369, %2370, %2371) # /home/fangzheng/miniconda3/envs/zl_nnunetv1/lib/python3.9/site-packages/torch/nn/modules/conv.py:1102:0
  %2403 : int = prim::Constant[value=256]() # /home/fangzheng/miniconda3/envs/zl_nnunetv1/lib/python3.9/site-packages/torch/nn/functional.py:2516:0
  %2404 : float = prim::Constant[value=1.0000000000000001e-05]() # /home/fangzheng/miniconda3/envs/zl_nnunetv1/lib/python3.9/site-packages/torch/nn/functional.py:2516:0
  %2405 : bool = prim::Constant[value=1]() # /home/fangzheng/miniconda3/envs/zl_nnunetv1/lib/python3.9/site-packages/torch/nn/functional.py:2516:0
  %input.117 : Float(1, 256, 15, 15, 15, strides=[864000, 3375, 225, 15, 1], requires_grad=1, device=cuda:0) = aten::group_norm(%input.115, %2403, %126, %127, %2404, %2405) # /home/fangzheng/miniconda3/envs/zl_nnunetv1/lib/python3.9/site-packages/torch/nn/functional.py:2516:0
  %4103 : int[] = prim::Constant[value=[1, 1, 1]]()
  %4104 : int[] = prim::Constant[value=[0, 0, 0]]()
  %4105 : int[] = prim::Constant[value=[1, 1, 1]]()
  %2419 : bool = prim::Constant[value=0]() # /home/fangzheng/miniconda3/envs/zl_nnunetv1/lib/python3.9/site-packages/torch/nn/modules/conv.py:602:0
  %4106 : int[] = prim::Constant[value=[0, 0, 0]]()
  %2424 : int = prim::Constant[value=1]() # /home/fangzheng/miniconda3/envs/zl_nnunetv1/lib/python3.9/site-packages/torch/nn/modules/conv.py:602:0
  %2425 : bool = prim::Constant[value=1]() # /home/fangzheng/miniconda3/envs/zl_nnunetv1/lib/python3.9/site-packages/torch/nn/modules/conv.py:602:0
  %2426 : bool = prim::Constant[value=0]() # /home/fangzheng/miniconda3/envs/zl_nnunetv1/lib/python3.9/site-packages/torch/nn/modules/conv.py:602:0
  %2427 : bool = prim::Constant[value=1]() # /home/fangzheng/miniconda3/envs/zl_nnunetv1/lib/python3.9/site-packages/torch/nn/modules/conv.py:602:0
  %2428 : bool = prim::Constant[value=1]() # /home/fangzheng/miniconda3/envs/zl_nnunetv1/lib/python3.9/site-packages/torch/nn/modules/conv.py:602:0
  %2429 : Float(1, 512, 15, 15, 15, strides=[1728000, 3375, 225, 15, 1], requires_grad=0, device=cuda:0) = aten::_convolution(%input.117, %128, %129, %4103, %4104, %4105, %2419, %4106, %2424, %2425, %2426, %2427, %2428) # /home/fangzheng/miniconda3/envs/zl_nnunetv1/lib/python3.9/site-packages/torch/nn/modules/conv.py:602:0
  %2430 : str = prim::Constant[value="none"]() # /home/fangzheng/miniconda3/envs/zl_nnunetv1/lib/python3.9/site-packages/torch/nn/modules/activation.py:681:0
  %input.119 : Float(1, 512, 15, 15, 15, strides=[1728000, 3375, 225, 15, 1], requires_grad=1, device=cuda:0) = aten::gelu(%2429, %2430) # /home/fangzheng/miniconda3/envs/zl_nnunetv1/lib/python3.9/site-packages/torch/nn/modules/activation.py:681:0
  %4107 : int[] = prim::Constant[value=[1, 1, 1]]()
  %4108 : int[] = prim::Constant[value=[0, 0, 0]]()
  %4109 : int[] = prim::Constant[value=[1, 1, 1]]()
  %2444 : bool = prim::Constant[value=0]() # /home/fangzheng/miniconda3/envs/zl_nnunetv1/lib/python3.9/site-packages/torch/nn/modules/conv.py:602:0
  %4110 : int[] = prim::Constant[value=[0, 0, 0]]()
  %2449 : int = prim::Constant[value=1]() # /home/fangzheng/miniconda3/envs/zl_nnunetv1/lib/python3.9/site-packages/torch/nn/modules/conv.py:602:0
  %2450 : bool = prim::Constant[value=1]() # /home/fangzheng/miniconda3/envs/zl_nnunetv1/lib/python3.9/site-packages/torch/nn/modules/conv.py:602:0
  %2451 : bool = prim::Constant[value=0]() # /home/fangzheng/miniconda3/envs/zl_nnunetv1/lib/python3.9/site-packages/torch/nn/modules/conv.py:602:0
  %2452 : bool = prim::Constant[value=1]() # /home/fangzheng/miniconda3/envs/zl_nnunetv1/lib/python3.9/site-packages/torch/nn/modules/conv.py:602:0
  %2453 : bool = prim::Constant[value=1]() # /home/fangzheng/miniconda3/envs/zl_nnunetv1/lib/python3.9/site-packages/torch/nn/modules/conv.py:602:0
  %2454 : Float(1, 128, 15, 15, 15, strides=[432000, 3375, 225, 15, 1], requires_grad=0, device=cuda:0) = aten::_convolution(%input.119, %130, %131, %4107, %4108, %4109, %2444, %4110, %2449, %2450, %2451, %2452, %2453) # /home/fangzheng/miniconda3/envs/zl_nnunetv1/lib/python3.9/site-packages/torch/nn/modules/conv.py:602:0
  %4111 : int[] = prim::Constant[value=[1, 0, 1, 0, 1, 0]]()
  %2462 : str = prim::Constant[value="constant"]() # /home/fangzheng/zoule/mednext/nnunet_mednext/network_architecture/mednextv1/blocks.py:187:0
  %2463 : NoneType = prim::Constant()
  %2464 : Float(1, 128, 16, 16, 16, strides=[524288, 4096, 256, 16, 1], requires_grad=1, device=cuda:0) = aten::pad(%2454, %4111, %2462, %2463) # /home/fangzheng/zoule/mednext/nnunet_mednext/network_architecture/mednextv1/blocks.py:187:0
  %4112 : int[] = prim::Constant[value=[2, 2, 2]]()
  %4113 : int[] = prim::Constant[value=[0, 0, 0]]()
  %4114 : int[] = prim::Constant[value=[1, 1, 1]]()
  %2477 : bool = prim::Constant[value=1]() # /home/fangzheng/miniconda3/envs/zl_nnunetv1/lib/python3.9/site-packages/torch/nn/modules/conv.py:1102:0
  %4115 : int[] = prim::Constant[value=[0, 0, 0]]()
  %2482 : int = prim::Constant[value=1]() # /home/fangzheng/miniconda3/envs/zl_nnunetv1/lib/python3.9/site-packages/torch/nn/modules/conv.py:1102:0
  %2483 : bool = prim::Constant[value=1]() # /home/fangzheng/miniconda3/envs/zl_nnunetv1/lib/python3.9/site-packages/torch/nn/modules/conv.py:1102:0
  %2484 : bool = prim::Constant[value=0]() # /home/fangzheng/miniconda3/envs/zl_nnunetv1/lib/python3.9/site-packages/torch/nn/modules/conv.py:1102:0
  %2485 : bool = prim::Constant[value=1]() # /home/fangzheng/miniconda3/envs/zl_nnunetv1/lib/python3.9/site-packages/torch/nn/modules/conv.py:1102:0
  %2486 : bool = prim::Constant[value=1]() # /home/fangzheng/miniconda3/envs/zl_nnunetv1/lib/python3.9/site-packages/torch/nn/modules/conv.py:1102:0
  %2487 : Float(1, 128, 15, 15, 15, strides=[432000, 3375, 225, 15, 1], requires_grad=0, device=cuda:0) = aten::_convolution(%2326, %132, %133, %4112, %4113, %4114, %2477, %4115, %2482, %2483, %2484, %2485, %2486) # /home/fangzheng/miniconda3/envs/zl_nnunetv1/lib/python3.9/site-packages/torch/nn/modules/conv.py:1102:0
  %4116 : int[] = prim::Constant[value=[1, 0, 1, 0, 1, 0]]()
  %2495 : str = prim::Constant[value="constant"]() # /home/fangzheng/zoule/mednext/nnunet_mednext/network_architecture/mednextv1/blocks.py:194:0
  %2496 : NoneType = prim::Constant()
  %2497 : Float(1, 128, 16, 16, 16, strides=[524288, 4096, 256, 16, 1], requires_grad=1, device=cuda:0) = aten::pad(%2487, %4116, %2495, %2496) # /home/fangzheng/zoule/mednext/nnunet_mednext/network_architecture/mednextv1/blocks.py:194:0
  %2498 : int = prim::Constant[value=1]() # /home/fangzheng/zoule/mednext/nnunet_mednext/network_architecture/mednextv1/blocks.py:195:0
  %2499 : Float(1, 128, 16, 16, 16, strides=[524288, 4096, 256, 16, 1], requires_grad=1, device=cuda:0) = aten::add(%2464, %2497, %2498) # /home/fangzheng/zoule/mednext/nnunet_mednext/network_architecture/mednextv1/blocks.py:195:0
  %2500 : int = prim::Constant[value=1]() # /home/fangzheng/zoule/mednext/nnunet_mednext/network_architecture/mednextv1/MedNextV1.py:350:0
  %input.121 : Float(1, 128, 16, 16, 16, strides=[524288, 4096, 256, 16, 1], requires_grad=1, device=cuda:0) = aten::add(%input.91, %2499, %2500) # /home/fangzheng/zoule/mednext/nnunet_mednext/network_architecture/mednextv1/MedNextV1.py:350:0
  %4117 : int[] = prim::Constant[value=[1, 1, 1]]()
  %4118 : int[] = prim::Constant[value=[1, 1, 1]]()
  %4119 : int[] = prim::Constant[value=[1, 1, 1]]()
  %2514 : bool = prim::Constant[value=0]() # /home/fangzheng/miniconda3/envs/zl_nnunetv1/lib/python3.9/site-packages/torch/nn/modules/conv.py:602:0
  %4120 : int[] = prim::Constant[value=[0, 0, 0]]()
  %2519 : int = prim::Constant[value=128]() # /home/fangzheng/miniconda3/envs/zl_nnunetv1/lib/python3.9/site-packages/torch/nn/modules/conv.py:602:0
  %2520 : bool = prim::Constant[value=1]() # /home/fangzheng/miniconda3/envs/zl_nnunetv1/lib/python3.9/site-packages/torch/nn/modules/conv.py:602:0
  %2521 : bool = prim::Constant[value=0]() # /home/fangzheng/miniconda3/envs/zl_nnunetv1/lib/python3.9/site-packages/torch/nn/modules/conv.py:602:0
  %2522 : bool = prim::Constant[value=1]() # /home/fangzheng/miniconda3/envs/zl_nnunetv1/lib/python3.9/site-packages/torch/nn/modules/conv.py:602:0
  %2523 : bool = prim::Constant[value=1]() # /home/fangzheng/miniconda3/envs/zl_nnunetv1/lib/python3.9/site-packages/torch/nn/modules/conv.py:602:0
  %input.123 : Float(1, 128, 16, 16, 16, strides=[524288, 4096, 256, 16, 1], requires_grad=0, device=cuda:0) = aten::_convolution(%input.121, %134, %135, %4117, %4118, %4119, %2514, %4120, %2519, %2520, %2521, %2522, %2523) # /home/fangzheng/miniconda3/envs/zl_nnunetv1/lib/python3.9/site-packages/torch/nn/modules/conv.py:602:0
  %2555 : int = prim::Constant[value=128]() # /home/fangzheng/miniconda3/envs/zl_nnunetv1/lib/python3.9/site-packages/torch/nn/functional.py:2516:0
  %2556 : float = prim::Constant[value=1.0000000000000001e-05]() # /home/fangzheng/miniconda3/envs/zl_nnunetv1/lib/python3.9/site-packages/torch/nn/functional.py:2516:0
  %2557 : bool = prim::Constant[value=1]() # /home/fangzheng/miniconda3/envs/zl_nnunetv1/lib/python3.9/site-packages/torch/nn/functional.py:2516:0
  %input.125 : Float(1, 128, 16, 16, 16, strides=[524288, 4096, 256, 16, 1], requires_grad=1, device=cuda:0) = aten::group_norm(%input.123, %2555, %136, %137, %2556, %2557) # /home/fangzheng/miniconda3/envs/zl_nnunetv1/lib/python3.9/site-packages/torch/nn/functional.py:2516:0
  %4121 : int[] = prim::Constant[value=[1, 1, 1]]()
  %4122 : int[] = prim::Constant[value=[0, 0, 0]]()
  %4123 : int[] = prim::Constant[value=[1, 1, 1]]()
  %2571 : bool = prim::Constant[value=0]() # /home/fangzheng/miniconda3/envs/zl_nnunetv1/lib/python3.9/site-packages/torch/nn/modules/conv.py:602:0
  %4124 : int[] = prim::Constant[value=[0, 0, 0]]()
  %2576 : int = prim::Constant[value=1]() # /home/fangzheng/miniconda3/envs/zl_nnunetv1/lib/python3.9/site-packages/torch/nn/modules/conv.py:602:0
  %2577 : bool = prim::Constant[value=1]() # /home/fangzheng/miniconda3/envs/zl_nnunetv1/lib/python3.9/site-packages/torch/nn/modules/conv.py:602:0
  %2578 : bool = prim::Constant[value=0]() # /home/fangzheng/miniconda3/envs/zl_nnunetv1/lib/python3.9/site-packages/torch/nn/modules/conv.py:602:0
  %2579 : bool = prim::Constant[value=1]() # /home/fangzheng/miniconda3/envs/zl_nnunetv1/lib/python3.9/site-packages/torch/nn/modules/conv.py:602:0
  %2580 : bool = prim::Constant[value=1]() # /home/fangzheng/miniconda3/envs/zl_nnunetv1/lib/python3.9/site-packages/torch/nn/modules/conv.py:602:0
  %2581 : Float(1, 256, 16, 16, 16, strides=[1048576, 4096, 256, 16, 1], requires_grad=0, device=cuda:0) = aten::_convolution(%input.125, %138, %139, %4121, %4122, %4123, %2571, %4124, %2576, %2577, %2578, %2579, %2580) # /home/fangzheng/miniconda3/envs/zl_nnunetv1/lib/python3.9/site-packages/torch/nn/modules/conv.py:602:0
  %2582 : str = prim::Constant[value="none"]() # /home/fangzheng/miniconda3/envs/zl_nnunetv1/lib/python3.9/site-packages/torch/nn/modules/activation.py:681:0
  %input.127 : Float(1, 256, 16, 16, 16, strides=[1048576, 4096, 256, 16, 1], requires_grad=1, device=cuda:0) = aten::gelu(%2581, %2582) # /home/fangzheng/miniconda3/envs/zl_nnunetv1/lib/python3.9/site-packages/torch/nn/modules/activation.py:681:0
  %4125 : int[] = prim::Constant[value=[1, 1, 1]]()
  %4126 : int[] = prim::Constant[value=[0, 0, 0]]()
  %4127 : int[] = prim::Constant[value=[1, 1, 1]]()
  %2596 : bool = prim::Constant[value=0]() # /home/fangzheng/miniconda3/envs/zl_nnunetv1/lib/python3.9/site-packages/torch/nn/modules/conv.py:602:0
  %4128 : int[] = prim::Constant[value=[0, 0, 0]]()
  %2601 : int = prim::Constant[value=1]() # /home/fangzheng/miniconda3/envs/zl_nnunetv1/lib/python3.9/site-packages/torch/nn/modules/conv.py:602:0
  %2602 : bool = prim::Constant[value=1]() # /home/fangzheng/miniconda3/envs/zl_nnunetv1/lib/python3.9/site-packages/torch/nn/modules/conv.py:602:0
  %2603 : bool = prim::Constant[value=0]() # /home/fangzheng/miniconda3/envs/zl_nnunetv1/lib/python3.9/site-packages/torch/nn/modules/conv.py:602:0
  %2604 : bool = prim::Constant[value=1]() # /home/fangzheng/miniconda3/envs/zl_nnunetv1/lib/python3.9/site-packages/torch/nn/modules/conv.py:602:0
  %2605 : bool = prim::Constant[value=1]() # /home/fangzheng/miniconda3/envs/zl_nnunetv1/lib/python3.9/site-packages/torch/nn/modules/conv.py:602:0
  %2606 : Float(1, 128, 16, 16, 16, strides=[524288, 4096, 256, 16, 1], requires_grad=0, device=cuda:0) = aten::_convolution(%input.127, %140, %141, %4125, %4126, %4127, %2596, %4128, %2601, %2602, %2603, %2604, %2605) # /home/fangzheng/miniconda3/envs/zl_nnunetv1/lib/python3.9/site-packages/torch/nn/modules/conv.py:602:0
  %2607 : int = prim::Constant[value=1]() # /home/fangzheng/zoule/mednext/nnunet_mednext/network_architecture/mednextv1/blocks.py:100:0
  %input.129 : Float(1, 128, 16, 16, 16, strides=[524288, 4096, 256, 16, 1], requires_grad=1, device=cuda:0) = aten::add(%input.121, %2606, %2607) # /home/fangzheng/zoule/mednext/nnunet_mednext/network_architecture/mednextv1/blocks.py:100:0
  %4129 : int[] = prim::Constant[value=[1, 1, 1]]()
  %4130 : int[] = prim::Constant[value=[1, 1, 1]]()
  %4131 : int[] = prim::Constant[value=[1, 1, 1]]()
  %2621 : bool = prim::Constant[value=0]() # /home/fangzheng/miniconda3/envs/zl_nnunetv1/lib/python3.9/site-packages/torch/nn/modules/conv.py:602:0
  %4132 : int[] = prim::Constant[value=[0, 0, 0]]()
  %2626 : int = prim::Constant[value=128]() # /home/fangzheng/miniconda3/envs/zl_nnunetv1/lib/python3.9/site-packages/torch/nn/modules/conv.py:602:0
  %2627 : bool = prim::Constant[value=1]() # /home/fangzheng/miniconda3/envs/zl_nnunetv1/lib/python3.9/site-packages/torch/nn/modules/conv.py:602:0
  %2628 : bool = prim::Constant[value=0]() # /home/fangzheng/miniconda3/envs/zl_nnunetv1/lib/python3.9/site-packages/torch/nn/modules/conv.py:602:0
  %2629 : bool = prim::Constant[value=1]() # /home/fangzheng/miniconda3/envs/zl_nnunetv1/lib/python3.9/site-packages/torch/nn/modules/conv.py:602:0
  %2630 : bool = prim::Constant[value=1]() # /home/fangzheng/miniconda3/envs/zl_nnunetv1/lib/python3.9/site-packages/torch/nn/modules/conv.py:602:0
  %input.131 : Float(1, 128, 16, 16, 16, strides=[524288, 4096, 256, 16, 1], requires_grad=0, device=cuda:0) = aten::_convolution(%input.129, %142, %143, %4129, %4130, %4131, %2621, %4132, %2626, %2627, %2628, %2629, %2630) # /home/fangzheng/miniconda3/envs/zl_nnunetv1/lib/python3.9/site-packages/torch/nn/modules/conv.py:602:0
  %2662 : int = prim::Constant[value=128]() # /home/fangzheng/miniconda3/envs/zl_nnunetv1/lib/python3.9/site-packages/torch/nn/functional.py:2516:0
  %2663 : float = prim::Constant[value=1.0000000000000001e-05]() # /home/fangzheng/miniconda3/envs/zl_nnunetv1/lib/python3.9/site-packages/torch/nn/functional.py:2516:0
  %2664 : bool = prim::Constant[value=1]() # /home/fangzheng/miniconda3/envs/zl_nnunetv1/lib/python3.9/site-packages/torch/nn/functional.py:2516:0
  %input.133 : Float(1, 128, 16, 16, 16, strides=[524288, 4096, 256, 16, 1], requires_grad=1, device=cuda:0) = aten::group_norm(%input.131, %2662, %144, %145, %2663, %2664) # /home/fangzheng/miniconda3/envs/zl_nnunetv1/lib/python3.9/site-packages/torch/nn/functional.py:2516:0
  %4133 : int[] = prim::Constant[value=[1, 1, 1]]()
  %4134 : int[] = prim::Constant[value=[0, 0, 0]]()
  %4135 : int[] = prim::Constant[value=[1, 1, 1]]()
  %2678 : bool = prim::Constant[value=0]() # /home/fangzheng/miniconda3/envs/zl_nnunetv1/lib/python3.9/site-packages/torch/nn/modules/conv.py:602:0
  %4136 : int[] = prim::Constant[value=[0, 0, 0]]()
  %2683 : int = prim::Constant[value=1]() # /home/fangzheng/miniconda3/envs/zl_nnunetv1/lib/python3.9/site-packages/torch/nn/modules/conv.py:602:0
  %2684 : bool = prim::Constant[value=1]() # /home/fangzheng/miniconda3/envs/zl_nnunetv1/lib/python3.9/site-packages/torch/nn/modules/conv.py:602:0
  %2685 : bool = prim::Constant[value=0]() # /home/fangzheng/miniconda3/envs/zl_nnunetv1/lib/python3.9/site-packages/torch/nn/modules/conv.py:602:0
  %2686 : bool = prim::Constant[value=1]() # /home/fangzheng/miniconda3/envs/zl_nnunetv1/lib/python3.9/site-packages/torch/nn/modules/conv.py:602:0
  %2687 : bool = prim::Constant[value=1]() # /home/fangzheng/miniconda3/envs/zl_nnunetv1/lib/python3.9/site-packages/torch/nn/modules/conv.py:602:0
  %2688 : Float(1, 256, 16, 16, 16, strides=[1048576, 4096, 256, 16, 1], requires_grad=0, device=cuda:0) = aten::_convolution(%input.133, %146, %147, %4133, %4134, %4135, %2678, %4136, %2683, %2684, %2685, %2686, %2687) # /home/fangzheng/miniconda3/envs/zl_nnunetv1/lib/python3.9/site-packages/torch/nn/modules/conv.py:602:0
  %2689 : str = prim::Constant[value="none"]() # /home/fangzheng/miniconda3/envs/zl_nnunetv1/lib/python3.9/site-packages/torch/nn/modules/activation.py:681:0
  %input.135 : Float(1, 256, 16, 16, 16, strides=[1048576, 4096, 256, 16, 1], requires_grad=1, device=cuda:0) = aten::gelu(%2688, %2689) # /home/fangzheng/miniconda3/envs/zl_nnunetv1/lib/python3.9/site-packages/torch/nn/modules/activation.py:681:0
  %4137 : int[] = prim::Constant[value=[1, 1, 1]]()
  %4138 : int[] = prim::Constant[value=[0, 0, 0]]()
  %4139 : int[] = prim::Constant[value=[1, 1, 1]]()
  %2703 : bool = prim::Constant[value=0]() # /home/fangzheng/miniconda3/envs/zl_nnunetv1/lib/python3.9/site-packages/torch/nn/modules/conv.py:602:0
  %4140 : int[] = prim::Constant[value=[0, 0, 0]]()
  %2708 : int = prim::Constant[value=1]() # /home/fangzheng/miniconda3/envs/zl_nnunetv1/lib/python3.9/site-packages/torch/nn/modules/conv.py:602:0
  %2709 : bool = prim::Constant[value=1]() # /home/fangzheng/miniconda3/envs/zl_nnunetv1/lib/python3.9/site-packages/torch/nn/modules/conv.py:602:0
  %2710 : bool = prim::Constant[value=0]() # /home/fangzheng/miniconda3/envs/zl_nnunetv1/lib/python3.9/site-packages/torch/nn/modules/conv.py:602:0
  %2711 : bool = prim::Constant[value=1]() # /home/fangzheng/miniconda3/envs/zl_nnunetv1/lib/python3.9/site-packages/torch/nn/modules/conv.py:602:0
  %2712 : bool = prim::Constant[value=1]() # /home/fangzheng/miniconda3/envs/zl_nnunetv1/lib/python3.9/site-packages/torch/nn/modules/conv.py:602:0
  %2713 : Float(1, 128, 16, 16, 16, strides=[524288, 4096, 256, 16, 1], requires_grad=0, device=cuda:0) = aten::_convolution(%input.135, %148, %149, %4137, %4138, %4139, %2703, %4140, %2708, %2709, %2710, %2711, %2712) # /home/fangzheng/miniconda3/envs/zl_nnunetv1/lib/python3.9/site-packages/torch/nn/modules/conv.py:602:0
  %2714 : int = prim::Constant[value=1]() # /home/fangzheng/zoule/mednext/nnunet_mednext/network_architecture/mednextv1/blocks.py:100:0
  %2715 : Float(1, 128, 16, 16, 16, strides=[524288, 4096, 256, 16, 1], requires_grad=1, device=cuda:0) = aten::add(%input.129, %2713, %2714) # /home/fangzheng/zoule/mednext/nnunet_mednext/network_architecture/mednextv1/blocks.py:100:0
  %4141 : int[] = prim::Constant[value=[1, 1, 1]]()
  %4142 : int[] = prim::Constant[value=[0, 0, 0]]()
  %4143 : int[] = prim::Constant[value=[1, 1, 1]]()
  %2728 : bool = prim::Constant[value=1]() # /home/fangzheng/miniconda3/envs/zl_nnunetv1/lib/python3.9/site-packages/torch/nn/modules/conv.py:1102:0
  %4144 : int[] = prim::Constant[value=[0, 0, 0]]()
  %2733 : int = prim::Constant[value=1]() # /home/fangzheng/miniconda3/envs/zl_nnunetv1/lib/python3.9/site-packages/torch/nn/modules/conv.py:1102:0
  %2734 : bool = prim::Constant[value=1]() # /home/fangzheng/miniconda3/envs/zl_nnunetv1/lib/python3.9/site-packages/torch/nn/modules/conv.py:1102:0
  %2735 : bool = prim::Constant[value=0]() # /home/fangzheng/miniconda3/envs/zl_nnunetv1/lib/python3.9/site-packages/torch/nn/modules/conv.py:1102:0
  %2736 : bool = prim::Constant[value=1]() # /home/fangzheng/miniconda3/envs/zl_nnunetv1/lib/python3.9/site-packages/torch/nn/modules/conv.py:1102:0
  %2737 : bool = prim::Constant[value=1]() # /home/fangzheng/miniconda3/envs/zl_nnunetv1/lib/python3.9/site-packages/torch/nn/modules/conv.py:1102:0
  %2738 : Float(1, 2, 16, 16, 16, strides=[8192, 4096, 256, 16, 1], requires_grad=0, device=cuda:0) = aten::_convolution(%2715, %234, %235, %4141, %4142, %4143, %2728, %4144, %2733, %2734, %2735, %2736, %2737) # /home/fangzheng/miniconda3/envs/zl_nnunetv1/lib/python3.9/site-packages/torch/nn/modules/conv.py:1102:0
  %4145 : int[] = prim::Constant[value=[2, 2, 2]]()
  %4146 : int[] = prim::Constant[value=[1, 1, 1]]()
  %4147 : int[] = prim::Constant[value=[1, 1, 1]]()
  %2751 : bool = prim::Constant[value=1]() # /home/fangzheng/miniconda3/envs/zl_nnunetv1/lib/python3.9/site-packages/torch/nn/modules/conv.py:1102:0
  %4148 : int[] = prim::Constant[value=[0, 0, 0]]()
  %2756 : int = prim::Constant[value=128]() # /home/fangzheng/miniconda3/envs/zl_nnunetv1/lib/python3.9/site-packages/torch/nn/modules/conv.py:1102:0
  %2757 : bool = prim::Constant[value=1]() # /home/fangzheng/miniconda3/envs/zl_nnunetv1/lib/python3.9/site-packages/torch/nn/modules/conv.py:1102:0
  %2758 : bool = prim::Constant[value=0]() # /home/fangzheng/miniconda3/envs/zl_nnunetv1/lib/python3.9/site-packages/torch/nn/modules/conv.py:1102:0
  %2759 : bool = prim::Constant[value=1]() # /home/fangzheng/miniconda3/envs/zl_nnunetv1/lib/python3.9/site-packages/torch/nn/modules/conv.py:1102:0
  %2760 : bool = prim::Constant[value=1]() # /home/fangzheng/miniconda3/envs/zl_nnunetv1/lib/python3.9/site-packages/torch/nn/modules/conv.py:1102:0
  %input.137 : Float(1, 128, 31, 31, 31, strides=[3813248, 29791, 961, 31, 1], requires_grad=0, device=cuda:0) = aten::_convolution(%2715, %150, %151, %4145, %4146, %4147, %2751, %4148, %2756, %2757, %2758, %2759, %2760) # /home/fangzheng/miniconda3/envs/zl_nnunetv1/lib/python3.9/site-packages/torch/nn/modules/conv.py:1102:0
  %2792 : int = prim::Constant[value=128]() # /home/fangzheng/miniconda3/envs/zl_nnunetv1/lib/python3.9/site-packages/torch/nn/functional.py:2516:0
  %2793 : float = prim::Constant[value=1.0000000000000001e-05]() # /home/fangzheng/miniconda3/envs/zl_nnunetv1/lib/python3.9/site-packages/torch/nn/functional.py:2516:0
  %2794 : bool = prim::Constant[value=1]() # /home/fangzheng/miniconda3/envs/zl_nnunetv1/lib/python3.9/site-packages/torch/nn/functional.py:2516:0
  %input.139 : Float(1, 128, 31, 31, 31, strides=[3813248, 29791, 961, 31, 1], requires_grad=1, device=cuda:0) = aten::group_norm(%input.137, %2792, %152, %153, %2793, %2794) # /home/fangzheng/miniconda3/envs/zl_nnunetv1/lib/python3.9/site-packages/torch/nn/functional.py:2516:0
  %4149 : int[] = prim::Constant[value=[1, 1, 1]]()
  %4150 : int[] = prim::Constant[value=[0, 0, 0]]()
  %4151 : int[] = prim::Constant[value=[1, 1, 1]]()
  %2808 : bool = prim::Constant[value=0]() # /home/fangzheng/miniconda3/envs/zl_nnunetv1/lib/python3.9/site-packages/torch/nn/modules/conv.py:602:0
  %4152 : int[] = prim::Constant[value=[0, 0, 0]]()
  %2813 : int = prim::Constant[value=1]() # /home/fangzheng/miniconda3/envs/zl_nnunetv1/lib/python3.9/site-packages/torch/nn/modules/conv.py:602:0
  %2814 : bool = prim::Constant[value=1]() # /home/fangzheng/miniconda3/envs/zl_nnunetv1/lib/python3.9/site-packages/torch/nn/modules/conv.py:602:0
  %2815 : bool = prim::Constant[value=0]() # /home/fangzheng/miniconda3/envs/zl_nnunetv1/lib/python3.9/site-packages/torch/nn/modules/conv.py:602:0
  %2816 : bool = prim::Constant[value=1]() # /home/fangzheng/miniconda3/envs/zl_nnunetv1/lib/python3.9/site-packages/torch/nn/modules/conv.py:602:0
  %2817 : bool = prim::Constant[value=1]() # /home/fangzheng/miniconda3/envs/zl_nnunetv1/lib/python3.9/site-packages/torch/nn/modules/conv.py:602:0
  %2818 : Float(1, 256, 31, 31, 31, strides=[7626496, 29791, 961, 31, 1], requires_grad=0, device=cuda:0) = aten::_convolution(%input.139, %154, %155, %4149, %4150, %4151, %2808, %4152, %2813, %2814, %2815, %2816, %2817) # /home/fangzheng/miniconda3/envs/zl_nnunetv1/lib/python3.9/site-packages/torch/nn/modules/conv.py:602:0
  %2819 : str = prim::Constant[value="none"]() # /home/fangzheng/miniconda3/envs/zl_nnunetv1/lib/python3.9/site-packages/torch/nn/modules/activation.py:681:0
  %input.141 : Float(1, 256, 31, 31, 31, strides=[7626496, 29791, 961, 31, 1], requires_grad=1, device=cuda:0) = aten::gelu(%2818, %2819) # /home/fangzheng/miniconda3/envs/zl_nnunetv1/lib/python3.9/site-packages/torch/nn/modules/activation.py:681:0
  %4153 : int[] = prim::Constant[value=[1, 1, 1]]()
  %4154 : int[] = prim::Constant[value=[0, 0, 0]]()
  %4155 : int[] = prim::Constant[value=[1, 1, 1]]()
  %2833 : bool = prim::Constant[value=0]() # /home/fangzheng/miniconda3/envs/zl_nnunetv1/lib/python3.9/site-packages/torch/nn/modules/conv.py:602:0
  %4156 : int[] = prim::Constant[value=[0, 0, 0]]()
  %2838 : int = prim::Constant[value=1]() # /home/fangzheng/miniconda3/envs/zl_nnunetv1/lib/python3.9/site-packages/torch/nn/modules/conv.py:602:0
  %2839 : bool = prim::Constant[value=1]() # /home/fangzheng/miniconda3/envs/zl_nnunetv1/lib/python3.9/site-packages/torch/nn/modules/conv.py:602:0
  %2840 : bool = prim::Constant[value=0]() # /home/fangzheng/miniconda3/envs/zl_nnunetv1/lib/python3.9/site-packages/torch/nn/modules/conv.py:602:0
  %2841 : bool = prim::Constant[value=1]() # /home/fangzheng/miniconda3/envs/zl_nnunetv1/lib/python3.9/site-packages/torch/nn/modules/conv.py:602:0
  %2842 : bool = prim::Constant[value=1]() # /home/fangzheng/miniconda3/envs/zl_nnunetv1/lib/python3.9/site-packages/torch/nn/modules/conv.py:602:0
  %2843 : Float(1, 64, 31, 31, 31, strides=[1906624, 29791, 961, 31, 1], requires_grad=0, device=cuda:0) = aten::_convolution(%input.141, %156, %157, %4153, %4154, %4155, %2833, %4156, %2838, %2839, %2840, %2841, %2842) # /home/fangzheng/miniconda3/envs/zl_nnunetv1/lib/python3.9/site-packages/torch/nn/modules/conv.py:602:0
  %4157 : int[] = prim::Constant[value=[1, 0, 1, 0, 1, 0]]()
  %2851 : str = prim::Constant[value="constant"]() # /home/fangzheng/zoule/mednext/nnunet_mednext/network_architecture/mednextv1/blocks.py:187:0
  %2852 : NoneType = prim::Constant()
  %2853 : Float(1, 64, 32, 32, 32, strides=[2097152, 32768, 1024, 32, 1], requires_grad=1, device=cuda:0) = aten::pad(%2843, %4157, %2851, %2852) # /home/fangzheng/zoule/mednext/nnunet_mednext/network_architecture/mednextv1/blocks.py:187:0
  %4158 : int[] = prim::Constant[value=[2, 2, 2]]()
  %4159 : int[] = prim::Constant[value=[0, 0, 0]]()
  %4160 : int[] = prim::Constant[value=[1, 1, 1]]()
  %2866 : bool = prim::Constant[value=1]() # /home/fangzheng/miniconda3/envs/zl_nnunetv1/lib/python3.9/site-packages/torch/nn/modules/conv.py:1102:0
  %4161 : int[] = prim::Constant[value=[0, 0, 0]]()
  %2871 : int = prim::Constant[value=1]() # /home/fangzheng/miniconda3/envs/zl_nnunetv1/lib/python3.9/site-packages/torch/nn/modules/conv.py:1102:0
  %2872 : bool = prim::Constant[value=1]() # /home/fangzheng/miniconda3/envs/zl_nnunetv1/lib/python3.9/site-packages/torch/nn/modules/conv.py:1102:0
  %2873 : bool = prim::Constant[value=0]() # /home/fangzheng/miniconda3/envs/zl_nnunetv1/lib/python3.9/site-packages/torch/nn/modules/conv.py:1102:0
  %2874 : bool = prim::Constant[value=1]() # /home/fangzheng/miniconda3/envs/zl_nnunetv1/lib/python3.9/site-packages/torch/nn/modules/conv.py:1102:0
  %2875 : bool = prim::Constant[value=1]() # /home/fangzheng/miniconda3/envs/zl_nnunetv1/lib/python3.9/site-packages/torch/nn/modules/conv.py:1102:0
  %2876 : Float(1, 64, 31, 31, 31, strides=[1906624, 29791, 961, 31, 1], requires_grad=0, device=cuda:0) = aten::_convolution(%2715, %158, %159, %4158, %4159, %4160, %2866, %4161, %2871, %2872, %2873, %2874, %2875) # /home/fangzheng/miniconda3/envs/zl_nnunetv1/lib/python3.9/site-packages/torch/nn/modules/conv.py:1102:0
  %4162 : int[] = prim::Constant[value=[1, 0, 1, 0, 1, 0]]()
  %2884 : str = prim::Constant[value="constant"]() # /home/fangzheng/zoule/mednext/nnunet_mednext/network_architecture/mednextv1/blocks.py:194:0
  %2885 : NoneType = prim::Constant()
  %2886 : Float(1, 64, 32, 32, 32, strides=[2097152, 32768, 1024, 32, 1], requires_grad=1, device=cuda:0) = aten::pad(%2876, %4162, %2884, %2885) # /home/fangzheng/zoule/mednext/nnunet_mednext/network_architecture/mednextv1/blocks.py:194:0
  %2887 : int = prim::Constant[value=1]() # /home/fangzheng/zoule/mednext/nnunet_mednext/network_architecture/mednextv1/blocks.py:195:0
  %2888 : Float(1, 64, 32, 32, 32, strides=[2097152, 32768, 1024, 32, 1], requires_grad=1, device=cuda:0) = aten::add(%2853, %2886, %2887) # /home/fangzheng/zoule/mednext/nnunet_mednext/network_architecture/mednextv1/blocks.py:195:0
  %2889 : int = prim::Constant[value=1]() # /home/fangzheng/zoule/mednext/nnunet_mednext/network_architecture/mednextv1/MedNextV1.py:358:0
  %input.143 : Float(1, 64, 32, 32, 32, strides=[2097152, 32768, 1024, 32, 1], requires_grad=1, device=cuda:0) = aten::add(%input.67, %2888, %2889) # /home/fangzheng/zoule/mednext/nnunet_mednext/network_architecture/mednextv1/MedNextV1.py:358:0
  %4163 : int[] = prim::Constant[value=[1, 1, 1]]()
  %4164 : int[] = prim::Constant[value=[1, 1, 1]]()
  %4165 : int[] = prim::Constant[value=[1, 1, 1]]()
  %2903 : bool = prim::Constant[value=0]() # /home/fangzheng/miniconda3/envs/zl_nnunetv1/lib/python3.9/site-packages/torch/nn/modules/conv.py:602:0
  %4166 : int[] = prim::Constant[value=[0, 0, 0]]()
  %2908 : int = prim::Constant[value=64]() # /home/fangzheng/miniconda3/envs/zl_nnunetv1/lib/python3.9/site-packages/torch/nn/modules/conv.py:602:0
  %2909 : bool = prim::Constant[value=1]() # /home/fangzheng/miniconda3/envs/zl_nnunetv1/lib/python3.9/site-packages/torch/nn/modules/conv.py:602:0
  %2910 : bool = prim::Constant[value=0]() # /home/fangzheng/miniconda3/envs/zl_nnunetv1/lib/python3.9/site-packages/torch/nn/modules/conv.py:602:0
  %2911 : bool = prim::Constant[value=1]() # /home/fangzheng/miniconda3/envs/zl_nnunetv1/lib/python3.9/site-packages/torch/nn/modules/conv.py:602:0
  %2912 : bool = prim::Constant[value=1]() # /home/fangzheng/miniconda3/envs/zl_nnunetv1/lib/python3.9/site-packages/torch/nn/modules/conv.py:602:0
  %input.145 : Float(1, 64, 32, 32, 32, strides=[2097152, 32768, 1024, 32, 1], requires_grad=0, device=cuda:0) = aten::_convolution(%input.143, %160, %161, %4163, %4164, %4165, %2903, %4166, %2908, %2909, %2910, %2911, %2912) # /home/fangzheng/miniconda3/envs/zl_nnunetv1/lib/python3.9/site-packages/torch/nn/modules/conv.py:602:0
  %2944 : int = prim::Constant[value=64]() # /home/fangzheng/miniconda3/envs/zl_nnunetv1/lib/python3.9/site-packages/torch/nn/functional.py:2516:0
  %2945 : float = prim::Constant[value=1.0000000000000001e-05]() # /home/fangzheng/miniconda3/envs/zl_nnunetv1/lib/python3.9/site-packages/torch/nn/functional.py:2516:0
  %2946 : bool = prim::Constant[value=1]() # /home/fangzheng/miniconda3/envs/zl_nnunetv1/lib/python3.9/site-packages/torch/nn/functional.py:2516:0
  %input.147 : Float(1, 64, 32, 32, 32, strides=[2097152, 32768, 1024, 32, 1], requires_grad=1, device=cuda:0) = aten::group_norm(%input.145, %2944, %162, %163, %2945, %2946) # /home/fangzheng/miniconda3/envs/zl_nnunetv1/lib/python3.9/site-packages/torch/nn/functional.py:2516:0
  %4167 : int[] = prim::Constant[value=[1, 1, 1]]()
  %4168 : int[] = prim::Constant[value=[0, 0, 0]]()
  %4169 : int[] = prim::Constant[value=[1, 1, 1]]()
  %2960 : bool = prim::Constant[value=0]() # /home/fangzheng/miniconda3/envs/zl_nnunetv1/lib/python3.9/site-packages/torch/nn/modules/conv.py:602:0
  %4170 : int[] = prim::Constant[value=[0, 0, 0]]()
  %2965 : int = prim::Constant[value=1]() # /home/fangzheng/miniconda3/envs/zl_nnunetv1/lib/python3.9/site-packages/torch/nn/modules/conv.py:602:0
  %2966 : bool = prim::Constant[value=1]() # /home/fangzheng/miniconda3/envs/zl_nnunetv1/lib/python3.9/site-packages/torch/nn/modules/conv.py:602:0
  %2967 : bool = prim::Constant[value=0]() # /home/fangzheng/miniconda3/envs/zl_nnunetv1/lib/python3.9/site-packages/torch/nn/modules/conv.py:602:0
  %2968 : bool = prim::Constant[value=1]() # /home/fangzheng/miniconda3/envs/zl_nnunetv1/lib/python3.9/site-packages/torch/nn/modules/conv.py:602:0
  %2969 : bool = prim::Constant[value=1]() # /home/fangzheng/miniconda3/envs/zl_nnunetv1/lib/python3.9/site-packages/torch/nn/modules/conv.py:602:0
  %2970 : Float(1, 128, 32, 32, 32, strides=[4194304, 32768, 1024, 32, 1], requires_grad=0, device=cuda:0) = aten::_convolution(%input.147, %164, %165, %4167, %4168, %4169, %2960, %4170, %2965, %2966, %2967, %2968, %2969) # /home/fangzheng/miniconda3/envs/zl_nnunetv1/lib/python3.9/site-packages/torch/nn/modules/conv.py:602:0
  %2971 : str = prim::Constant[value="none"]() # /home/fangzheng/miniconda3/envs/zl_nnunetv1/lib/python3.9/site-packages/torch/nn/modules/activation.py:681:0
  %input.149 : Float(1, 128, 32, 32, 32, strides=[4194304, 32768, 1024, 32, 1], requires_grad=1, device=cuda:0) = aten::gelu(%2970, %2971) # /home/fangzheng/miniconda3/envs/zl_nnunetv1/lib/python3.9/site-packages/torch/nn/modules/activation.py:681:0
  %4171 : int[] = prim::Constant[value=[1, 1, 1]]()
  %4172 : int[] = prim::Constant[value=[0, 0, 0]]()
  %4173 : int[] = prim::Constant[value=[1, 1, 1]]()
  %2985 : bool = prim::Constant[value=0]() # /home/fangzheng/miniconda3/envs/zl_nnunetv1/lib/python3.9/site-packages/torch/nn/modules/conv.py:602:0
  %4174 : int[] = prim::Constant[value=[0, 0, 0]]()
  %2990 : int = prim::Constant[value=1]() # /home/fangzheng/miniconda3/envs/zl_nnunetv1/lib/python3.9/site-packages/torch/nn/modules/conv.py:602:0
  %2991 : bool = prim::Constant[value=1]() # /home/fangzheng/miniconda3/envs/zl_nnunetv1/lib/python3.9/site-packages/torch/nn/modules/conv.py:602:0
  %2992 : bool = prim::Constant[value=0]() # /home/fangzheng/miniconda3/envs/zl_nnunetv1/lib/python3.9/site-packages/torch/nn/modules/conv.py:602:0
  %2993 : bool = prim::Constant[value=1]() # /home/fangzheng/miniconda3/envs/zl_nnunetv1/lib/python3.9/site-packages/torch/nn/modules/conv.py:602:0
  %2994 : bool = prim::Constant[value=1]() # /home/fangzheng/miniconda3/envs/zl_nnunetv1/lib/python3.9/site-packages/torch/nn/modules/conv.py:602:0
  %2995 : Float(1, 64, 32, 32, 32, strides=[2097152, 32768, 1024, 32, 1], requires_grad=0, device=cuda:0) = aten::_convolution(%input.149, %166, %167, %4171, %4172, %4173, %2985, %4174, %2990, %2991, %2992, %2993, %2994) # /home/fangzheng/miniconda3/envs/zl_nnunetv1/lib/python3.9/site-packages/torch/nn/modules/conv.py:602:0
  %2996 : int = prim::Constant[value=1]() # /home/fangzheng/zoule/mednext/nnunet_mednext/network_architecture/mednextv1/blocks.py:100:0
  %input.151 : Float(1, 64, 32, 32, 32, strides=[2097152, 32768, 1024, 32, 1], requires_grad=1, device=cuda:0) = aten::add(%input.143, %2995, %2996) # /home/fangzheng/zoule/mednext/nnunet_mednext/network_architecture/mednextv1/blocks.py:100:0
  %4175 : int[] = prim::Constant[value=[1, 1, 1]]()
  %4176 : int[] = prim::Constant[value=[1, 1, 1]]()
  %4177 : int[] = prim::Constant[value=[1, 1, 1]]()
  %3010 : bool = prim::Constant[value=0]() # /home/fangzheng/miniconda3/envs/zl_nnunetv1/lib/python3.9/site-packages/torch/nn/modules/conv.py:602:0
  %4178 : int[] = prim::Constant[value=[0, 0, 0]]()
  %3015 : int = prim::Constant[value=64]() # /home/fangzheng/miniconda3/envs/zl_nnunetv1/lib/python3.9/site-packages/torch/nn/modules/conv.py:602:0
  %3016 : bool = prim::Constant[value=1]() # /home/fangzheng/miniconda3/envs/zl_nnunetv1/lib/python3.9/site-packages/torch/nn/modules/conv.py:602:0
  %3017 : bool = prim::Constant[value=0]() # /home/fangzheng/miniconda3/envs/zl_nnunetv1/lib/python3.9/site-packages/torch/nn/modules/conv.py:602:0
  %3018 : bool = prim::Constant[value=1]() # /home/fangzheng/miniconda3/envs/zl_nnunetv1/lib/python3.9/site-packages/torch/nn/modules/conv.py:602:0
  %3019 : bool = prim::Constant[value=1]() # /home/fangzheng/miniconda3/envs/zl_nnunetv1/lib/python3.9/site-packages/torch/nn/modules/conv.py:602:0
  %input.153 : Float(1, 64, 32, 32, 32, strides=[2097152, 32768, 1024, 32, 1], requires_grad=0, device=cuda:0) = aten::_convolution(%input.151, %168, %169, %4175, %4176, %4177, %3010, %4178, %3015, %3016, %3017, %3018, %3019) # /home/fangzheng/miniconda3/envs/zl_nnunetv1/lib/python3.9/site-packages/torch/nn/modules/conv.py:602:0
  %3051 : int = prim::Constant[value=64]() # /home/fangzheng/miniconda3/envs/zl_nnunetv1/lib/python3.9/site-packages/torch/nn/functional.py:2516:0
  %3052 : float = prim::Constant[value=1.0000000000000001e-05]() # /home/fangzheng/miniconda3/envs/zl_nnunetv1/lib/python3.9/site-packages/torch/nn/functional.py:2516:0
  %3053 : bool = prim::Constant[value=1]() # /home/fangzheng/miniconda3/envs/zl_nnunetv1/lib/python3.9/site-packages/torch/nn/functional.py:2516:0
  %input.155 : Float(1, 64, 32, 32, 32, strides=[2097152, 32768, 1024, 32, 1], requires_grad=1, device=cuda:0) = aten::group_norm(%input.153, %3051, %170, %171, %3052, %3053) # /home/fangzheng/miniconda3/envs/zl_nnunetv1/lib/python3.9/site-packages/torch/nn/functional.py:2516:0
  %4179 : int[] = prim::Constant[value=[1, 1, 1]]()
  %4180 : int[] = prim::Constant[value=[0, 0, 0]]()
  %4181 : int[] = prim::Constant[value=[1, 1, 1]]()
  %3067 : bool = prim::Constant[value=0]() # /home/fangzheng/miniconda3/envs/zl_nnunetv1/lib/python3.9/site-packages/torch/nn/modules/conv.py:602:0
  %4182 : int[] = prim::Constant[value=[0, 0, 0]]()
…
  %3228 : bool = prim::Constant[value=1]() # /home/fangzheng/miniconda3/envs/zl_nnunetv1/lib/python3.9/site-packages/torch/nn/modules/conv.py:602:0
  %3229 : bool = prim::Constant[value=0]() # /home/fangzheng/miniconda3/envs/zl_nnunetv1/lib/python3.9/site-packages/torch/nn/modules/conv.py:602:0
  %3230 : bool = prim::Constant[value=1]() # /home/fangzheng/miniconda3/envs/zl_nnunetv1/lib/python3.9/site-packages/torch/nn/modules/conv.py:602:0
  %3231 : bool = prim::Constant[value=1]() # /home/fangzheng/miniconda3/envs/zl_nnunetv1/lib/python3.9/site-packages/torch/nn/modules/conv.py:602:0
  %3232 : Float(1, 32, 63, 63, 63, strides=[8001504, 250047, 3969, 63, 1], requires_grad=0, device=cuda:0) = aten::_convolution(%input.163, %182, %183, %4199, %4200, %4201, %3222, %4202, %3227, %3228, %3229, %3230, %3231) # /home/fangzheng/miniconda3/envs/zl_nnunetv1/lib/python3.9/site-packages/torch/nn/modules/conv.py:602:0
  %4203 : int[] = prim::Constant[value=[1, 0, 1, 0, 1, 0]]()
  %3240 : str = prim::Constant[value="constant"]() # /home/fangzheng/zoule/mednext/nnunet_mednext/network_architecture/mednextv1/blocks.py:187:0
  %3241 : NoneType = prim::Constant()
  %3242 : Float(1, 32, 64, 64, 64, strides=[8388608, 262144, 4096, 64, 1], requires_grad=1, device=cuda:0) = aten::pad(%3232, %4203, %3240, %3241) # /home/fangzheng/zoule/mednext/nnunet_mednext/network_architecture/mednextv1/blocks.py:187:0
  %4204 : int[] = prim::Constant[value=[2, 2, 2]]()
  %4205 : int[] = prim::Constant[value=[0, 0, 0]]()
  %4206 : int[] = prim::Constant[value=[1, 1, 1]]()
  %3255 : bool = prim::Constant[value=1]() # /home/fangzheng/miniconda3/envs/zl_nnunetv1/lib/python3.9/site-packages/torch/nn/modules/conv.py:1102:0
  %4207 : int[] = prim::Constant[value=[0, 0, 0]]()
  %3260 : int = prim::Constant[value=1]() # /home/fangzheng/miniconda3/envs/zl_nnunetv1/lib/python3.9/site-packages/torch/nn/modules/conv.py:1102:0
  %3261 : bool = prim::Constant[value=1]() # /home/fangzheng/miniconda3/envs/zl_nnunetv1/lib/python3.9/site-packages/torch/nn/modules/conv.py:1102:0
  %3262 : bool = prim::Constant[value=0]() # /home/fangzheng/miniconda3/envs/zl_nnunetv1/lib/python3.9/site-packages/torch/nn/modules/conv.py:1102:0
  %3263 : bool = prim::Constant[value=1]() # /home/fangzheng/miniconda3/envs/zl_nnunetv1/lib/python3.9/site-packages/torch/nn/modules/conv.py:1102:0
  %3264 : bool = prim::Constant[value=1]() # /home/fangzheng/miniconda3/envs/zl_nnunetv1/lib/python3.9/site-packages/torch/nn/modules/conv.py:1102:0
  %3265 : Float(1, 32, 63, 63, 63, strides=[8001504, 250047, 3969, 63, 1], requires_grad=0, device=cuda:0) = aten::_convolution(%3104, %184, %185, %4204, %4205, %4206, %3255, %4207, %3260, %3261, %3262, %3263, %3264) # /home/fangzheng/miniconda3/envs/zl_nnunetv1/lib/python3.9/site-packages/torch/nn/modules/conv.py:1102:0
  %4208 : int[] = prim::Constant[value=[1, 0, 1, 0, 1, 0]]()
  %3273 : str = prim::Constant[value="constant"]() # /home/fangzheng/zoule/mednext/nnunet_mednext/network_architecture/mednextv1/blocks.py:194:0
  %3274 : NoneType = prim::Constant()
  %3275 : Float(1, 32, 64, 64, 64, strides=[8388608, 262144, 4096, 64, 1], requires_grad=1, device=cuda:0) = aten::pad(%3265, %4208, %3273, %3274) # /home/fangzheng/zoule/mednext/nnunet_mednext/network_architecture/mednextv1/blocks.py:194:0
  %3276 : int = prim::Constant[value=1]() # /home/fangzheng/zoule/mednext/nnunet_mednext/network_architecture/mednextv1/blocks.py:195:0
  %3277 : Float(1, 32, 64, 64, 64, strides=[8388608, 262144, 4096, 64, 1], requires_grad=1, device=cuda:0) = aten::add(%3242, %3275, %3276) # /home/fangzheng/zoule/mednext/nnunet_mednext/network_architecture/mednextv1/blocks.py:195:0
  %3278 : int = prim::Constant[value=1]() # /home/fangzheng/zoule/mednext/nnunet_mednext/network_architecture/mednextv1/MedNextV1.py:365:0
  %input.165 : Float(1, 32, 64, 64, 64, strides=[8388608, 262144, 4096, 64, 1], requires_grad=1, device=cuda:0) = aten::add(%input.43, %3277, %3278) # /home/fangzheng/zoule/mednext/nnunet_mednext/network_architecture/mednextv1/MedNextV1.py:365:0
  %4209 : int[] = prim::Constant[value=[1, 1, 1]]()
  %4210 : int[] = prim::Constant[value=[1, 1, 1]]()
  %4211 : int[] = prim::Constant[value=[1, 1, 1]]()
  %3292 : bool = prim::Constant[value=0]() # /home/fangzheng/miniconda3/envs/zl_nnunetv1/lib/python3.9/site-packages/torch/nn/modules/conv.py:602:0
  %4212 : int[] = prim::Constant[value=[0, 0, 0]]()
  %3297 : int = prim::Constant[value=32]() # /home/fangzheng/miniconda3/envs/zl_nnunetv1/lib/python3.9/site-packages/torch/nn/modules/conv.py:602:0
  %3298 : bool = prim::Constant[value=1]() # /home/fangzheng/miniconda3/envs/zl_nnunetv1/lib/python3.9/site-packages/torch/nn/modules/conv.py:602:0
  %3299 : bool = prim::Constant[value=0]() # /home/fangzheng/miniconda3/envs/zl_nnunetv1/lib/python3.9/site-packages/torch/nn/modules/conv.py:602:0
  %3300 : bool = prim::Constant[value=1]() # /home/fangzheng/miniconda3/envs/zl_nnunetv1/lib/python3.9/site-packages/torch/nn/modules/conv.py:602:0
  %3301 : bool = prim::Constant[value=1]() # /home/fangzheng/miniconda3/envs/zl_nnunetv1/lib/python3.9/site-packages/torch/nn/modules/conv.py:602:0
  %input.167 : Float(1, 32, 64, 64, 64, strides=[8388608, 262144, 4096, 64, 1], requires_grad=0, device=cuda:0) = aten::_convolution(%input.165, %186, %187, %4209, %4210, %4211, %3292, %4212, %3297, %3298, %3299, %3300, %3301) # /home/fangzheng/miniconda3/envs/zl_nnunetv1/lib/python3.9/site-packages/torch/nn/modules/conv.py:602:0
  %3333 : int = prim::Constant[value=32]() # /home/fangzheng/miniconda3/envs/zl_nnunetv1/lib/python3.9/site-packages/torch/nn/functional.py:2516:0
  %3334 : float = prim::Constant[value=1.0000000000000001e-05]() # /home/fangzheng/miniconda3/envs/zl_nnunetv1/lib/python3.9/site-packages/torch/nn/functional.py:2516:0
  %3335 : bool = prim::Constant[value=1]() # /home/fangzheng/miniconda3/envs/zl_nnunetv1/lib/python3.9/site-packages/torch/nn/functional.py:2516:0
  %input.169 : Float(1, 32, 64, 64, 64, strides=[8388608, 262144, 4096, 64, 1], requires_grad=1, device=cuda:0) = aten::group_norm(%input.167, %3333, %188, %189, %3334, %3335) # /home/fangzheng/miniconda3/envs/zl_nnunetv1/lib/python3.9/site-packages/torch/nn/functional.py:2516:0
  %4213 : int[] = prim::Constant[value=[1, 1, 1]]()
  %4214 : int[] = prim::Constant[value=[0, 0, 0]]()
  %4215 : int[] = prim::Constant[value=[1, 1, 1]]()
  %3349 : bool = prim::Constant[value=0]() # /home/fangzheng/miniconda3/envs/zl_nnunetv1/lib/python3.9/site-packages/torch/nn/modules/conv.py:602:0
  %4216 : int[] = prim::Constant[value=[0, 0, 0]]()
  %3354 : int = prim::Constant[value=1]() # /home/fangzheng/miniconda3/envs/zl_nnunetv1/lib/python3.9/site-packages/torch/nn/modules/conv.py:602:0
  %3355 : bool = prim::Constant[value=1]() # /home/fangzheng/miniconda3/envs/zl_nnunetv1/lib/python3.9/site-packages/torch/nn/modules/conv.py:602:0
  %3356 : bool = prim::Constant[value=0]() # /home/fangzheng/miniconda3/envs/zl_nnunetv1/lib/python3.9/site-packages/torch/nn/modules/conv.py:602:0
  %3357 : bool = prim::Constant[value=1]() # /home/fangzheng/miniconda3/envs/zl_nnunetv1/lib/python3.9/site-packages/torch/nn/modules/conv.py:602:0
  %3358 : bool = prim::Constant[value=1]() # /home/fangzheng/miniconda3/envs/zl_nnunetv1/lib/python3.9/site-packages/torch/nn/modules/conv.py:602:0
  %3359 : Float(1, 64, 64, 64, 64, strides=[16777216, 262144, 4096, 64, 1], requires_grad=0, device=cuda:0) = aten::_convolution(%input.169, %190, %191, %4213, %4214, %4215, %3349, %4216, %3354, %3355, %3356, %3357, %3358) # /home/fangzheng/miniconda3/envs/zl_nnunetv1/lib/python3.9/site-packages/torch/nn/modules/conv.py:602:0
  %3360 : str = prim::Constant[value="none"]() # /home/fangzheng/miniconda3/envs/zl_nnunetv1/lib/python3.9/site-packages/torch/nn/modules/activation.py:681:0
  %input.171 : Float(1, 64, 64, 64, 64, strides=[16777216, 262144, 4096, 64, 1], requires_grad=1, device=cuda:0) = aten::gelu(%3359, %3360) # /home/fangzheng/miniconda3/envs/zl_nnunetv1/lib/python3.9/site-packages/torch/nn/modules/activation.py:681:0
  %4217 : int[] = prim::Constant[value=[1, 1, 1]]()
  %4218 : int[] = prim::Constant[value=[0, 0, 0]]()
  %4219 : int[] = prim::Constant[value=[1, 1, 1]]()
  %3374 : bool = prim::Constant[value=0]() # /home/fangzheng/miniconda3/envs/zl_nnunetv1/lib/python3.9/site-packages/torch/nn/modules/conv.py:602:0
  %4220 : int[] = prim::Constant[value=[0, 0, 0]]()
  %3379 : int = prim::Constant[value=1]() # /home/fangzheng/miniconda3/envs/zl_nnunetv1/lib/python3.9/site-packages/torch/nn/modules/conv.py:602:0
  %3380 : bool = prim::Constant[value=1]() # /home/fangzheng/miniconda3/envs/zl_nnunetv1/lib/python3.9/site-packages/torch/nn/modules/conv.py:602:0
  %3381 : bool = prim::Constant[value=0]() # /home/fangzheng/miniconda3/envs/zl_nnunetv1/lib/python3.9/site-packages/torch/nn/modules/conv.py:602:0
  %3382 : bool = prim::Constant[value=1]() # /home/fangzheng/miniconda3/envs/zl_nnunetv1/lib/python3.9/site-packages/torch/nn/modules/conv.py:602:0
  %3383 : bool = prim::Constant[value=1]() # /home/fangzheng/miniconda3/envs/zl_nnunetv1/lib/python3.9/site-packages/torch/nn/modules/conv.py:602:0
  %3384 : Float(1, 32, 64, 64, 64, strides=[8388608, 262144, 4096, 64, 1], requires_grad=0, device=cuda:0) = aten::_convolution(%input.171, %192, %193, %4217, %4218, %4219, %3374, %4220, %3379, %3380, %3381, %3382, %3383) # /home/fangzheng/miniconda3/envs/zl_nnunetv1/lib/python3.9/site-packages/torch/nn/modules/conv.py:602:0
  %3385 : int = prim::Constant[value=1]() # /home/fangzheng/zoule/mednext/nnunet_mednext/network_architecture/mednextv1/blocks.py:100:0
  %input.173 : Float(1, 32, 64, 64, 64, strides=[8388608, 262144, 4096, 64, 1], requires_grad=1, device=cuda:0) = aten::add(%input.165, %3384, %3385) # /home/fangzheng/zoule/mednext/nnunet_mednext/network_architecture/mednextv1/blocks.py:100:0
  %4221 : int[] = prim::Constant[value=[1, 1, 1]]()
  %4222 : int[] = prim::Constant[value=[1, 1, 1]]()
  %4223 : int[] = prim::Constant[value=[1, 1, 1]]()
  %3399 : bool = prim::Constant[value=0]() # /home/fangzheng/miniconda3/envs/zl_nnunetv1/lib/python3.9/site-packages/torch/nn/modules/conv.py:602:0
  %4224 : int[] = prim::Constant[value=[0, 0, 0]]()
  %3404 : int = prim::Constant[value=32]() # /home/fangzheng/miniconda3/envs/zl_nnunetv1/lib/python3.9/site-packages/torch/nn/modules/conv.py:602:0
  %3405 : bool = prim::Constant[value=1]() # /home/fangzheng/miniconda3/envs/zl_nnunetv1/lib/python3.9/site-packages/torch/nn/modules/conv.py:602:0
  %3406 : bool = prim::Constant[value=0]() # /home/fangzheng/miniconda3/envs/zl_nnunetv1/lib/python3.9/site-packages/torch/nn/modules/conv.py:602:0
  %3407 : bool = prim::Constant[value=1]() # /home/fangzheng/miniconda3/envs/zl_nnunetv1/lib/python3.9/site-packages/torch/nn/modules/conv.py:602:0
  %3408 : bool = prim::Constant[value=1]() # /home/fangzheng/miniconda3/envs/zl_nnunetv1/lib/python3.9/site-packages/torch/nn/modules/conv.py:602:0
  %input.175 : Float(1, 32, 64, 64, 64, strides=[8388608, 262144, 4096, 64, 1], requires_grad=0, device=cuda:0) = aten::_convolution(%input.173, %194, %195, %4221, %4222, %4223, %3399, %4224, %3404, %3405, %3406, %3407, %3408) # /home/fangzheng/miniconda3/envs/zl_nnunetv1/lib/python3.9/site-packages/torch/nn/modules/conv.py:602:0
  %3440 : int = prim::Constant[value=32]() # /home/fangzheng/miniconda3/envs/zl_nnunetv1/lib/python3.9/site-packages/torch/nn/functional.py:2516:0
  %3441 : float = prim::Constant[value=1.0000000000000001e-05]() # /home/fangzheng/miniconda3/envs/zl_nnunetv1/lib/python3.9/site-packages/torch/nn/functional.py:2516:0
  %3442 : bool = prim::Constant[value=1]() # /home/fangzheng/miniconda3/envs/zl_nnunetv1/lib/python3.9/site-packages/torch/nn/functional.py:2516:0
  %input.177 : Float(1, 32, 64, 64, 64, strides=[8388608, 262144, 4096, 64, 1], requires_grad=1, device=cuda:0) = aten::group_norm(%input.175, %3440, %196, %197, %3441, %3442) # /home/fangzheng/miniconda3/envs/zl_nnunetv1/lib/python3.9/site-packages/torch/nn/functional.py:2516:0
  %4225 : int[] = prim::Constant[value=[1, 1, 1]]()
  %4226 : int[] = prim::Constant[value=[0, 0, 0]]()
  %4227 : int[] = prim::Constant[value=[1, 1, 1]]()
  %3456 : bool = prim::Constant[value=0]() # /home/fangzheng/miniconda3/envs/zl_nnunetv1/lib/python3.9/site-packages/torch/nn/modules/conv.py:602:0
  %4228 : int[] = prim::Constant[value=[0, 0, 0]]()
  %3461 : int = prim::Constant[value=1]() # /home/fangzheng/miniconda3/envs/zl_nnunetv1/lib/python3.9/site-packages/torch/nn/modules/conv.py:602:0
  %3462 : bool = prim::Constant[value=1]() # /home/fangzheng/miniconda3/envs/zl_nnunetv1/lib/python3.9/site-packages/torch/nn/modules/conv.py:602:0
  %3463 : bool = prim::Constant[value=0]() # /home/fangzheng/miniconda3/envs/zl_nnunetv1/lib/python3.9/site-packages/torch/nn/modules/conv.py:602:0
  %3464 : bool = prim::Constant[value=1]() # /home/fangzheng/miniconda3/envs/zl_nnunetv1/lib/python3.9/site-packages/torch/nn/modules/conv.py:602:0
  %3465 : bool = prim::Constant[value=1]() # /home/fangzheng/miniconda3/envs/zl_nnunetv1/lib/python3.9/site-packages/torch/nn/modules/conv.py:602:0
  %3466 : Float(1, 64, 64, 64, 64, strides=[16777216, 262144, 4096, 64, 1], requires_grad=0, device=cuda:0) = aten::_convolution(%input.177, %198, %199, %4225, %4226, %4227, %3456, %4228, %3461, %3462, %3463, %3464, %3465) # /home/fangzheng/miniconda3/envs/zl_nnunetv1/lib/python3.9/site-packages/torch/nn/modules/conv.py:602:0
  %3467 : str = prim::Constant[value="none"]() # /home/fangzheng/miniconda3/envs/zl_nnunetv1/lib/python3.9/site-packages/torch/nn/modules/activation.py:681:0
  %input.179 : Float(1, 64, 64, 64, 64, strides=[16777216, 262144, 4096, 64, 1], requires_grad=1, device=cuda:0) = aten::gelu(%3466, %3467) # /home/fangzheng/miniconda3/envs/zl_nnunetv1/lib/python3.9/site-packages/torch/nn/modules/activation.py:681:0
  %4229 : int[] = prim::Constant[value=[1, 1, 1]]()
  %4230 : int[] = prim::Constant[value=[0, 0, 0]]()
  %4231 : int[] = prim::Constant[value=[1, 1, 1]]()
  %3481 : bool = prim::Constant[value=0]() # /home/fangzheng/miniconda3/envs/zl_nnunetv1/lib/python3.9/site-packages/torch/nn/modules/conv.py:602:0
  %4232 : int[] = prim::Constant[value=[0, 0, 0]]()
  %3486 : int = prim::Constant[value=1]() # /home/fangzheng/miniconda3/envs/zl_nnunetv1/lib/python3.9/site-packages/torch/nn/modules/conv.py:602:0
  %3487 : bool = prim::Constant[value=1]() # /home/fangzheng/miniconda3/envs/zl_nnunetv1/lib/python3.9/site-packages/torch/nn/modules/conv.py:602:0
  %3488 : bool = prim::Constant[value=0]() # /home/fangzheng/miniconda3/envs/zl_nnunetv1/lib/python3.9/site-packages/torch/nn/modules/conv.py:602:0
  %3489 : bool = prim::Constant[value=1]() # /home/fangzheng/miniconda3/envs/zl_nnunetv1/lib/python3.9/site-packages/torch/nn/modules/conv.py:602:0
  %3490 : bool = prim::Constant[value=1]() # /home/fangzheng/miniconda3/envs/zl_nnunetv1/lib/python3.9/site-packages/torch/nn/modules/conv.py:602:0
  %3491 : Float(1, 32, 64, 64, 64, strides=[8388608, 262144, 4096, 64, 1], requires_grad=0, device=cuda:0) = aten::_convolution(%input.179, %200, %201, %4229, %4230, %4231, %3481, %4232, %3486, %3487, %3488, %3489, %3490) # /home/fangzheng/miniconda3/envs/zl_nnunetv1/lib/python3.9/site-packages/torch/nn/modules/conv.py:602:0
  %3492 : int = prim::Constant[value=1]() # /home/fangzheng/zoule/mednext/nnunet_mednext/network_architecture/mednextv1/blocks.py:100:0
  %3493 : Float(1, 32, 64, 64, 64, strides=[8388608, 262144, 4096, 64, 1], requires_grad=1, device=cuda:0) = aten::add(%input.173, %3491, %3492) # /home/fangzheng/zoule/mednext/nnunet_mednext/network_architecture/mednextv1/blocks.py:100:0
  %4233 : int[] = prim::Constant[value=[1, 1, 1]]()
  %4234 : int[] = prim::Constant[value=[0, 0, 0]]()
  %4235 : int[] = prim::Constant[value=[1, 1, 1]]()
  %3506 : bool = prim::Constant[value=1]() # /home/fangzheng/miniconda3/envs/zl_nnunetv1/lib/python3.9/site-packages/torch/nn/modules/conv.py:1102:0
  %4236 : int[] = prim::Constant[value=[0, 0, 0]]()
  %3511 : int = prim::Constant[value=1]() # /home/fangzheng/miniconda3/envs/zl_nnunetv1/lib/python3.9/site-packages/torch/nn/modules/conv.py:1102:0
  %3512 : bool = prim::Constant[value=1]() # /home/fangzheng/miniconda3/envs/zl_nnunetv1/lib/python3.9/site-packages/torch/nn/modules/conv.py:1102:0
  %3513 : bool = prim::Constant[value=0]() # /home/fangzheng/miniconda3/envs/zl_nnunetv1/lib/python3.9/site-packages/torch/nn/modules/conv.py:1102:0
  %3514 : bool = prim::Constant[value=1]() # /home/fangzheng/miniconda3/envs/zl_nnunetv1/lib/python3.9/site-packages/torch/nn/modules/conv.py:1102:0
  %3515 : bool = prim::Constant[value=1]() # /home/fangzheng/miniconda3/envs/zl_nnunetv1/lib/python3.9/site-packages/torch/nn/modules/conv.py:1102:0
  %3516 : Float(1, 2, 64, 64, 64, strides=[524288, 262144, 4096, 64, 1], requires_grad=0, device=cuda:0) = aten::_convolution(%3493, %230, %231, %4233, %4234, %4235, %3506, %4236, %3511, %3512, %3513, %3514, %3515) # /home/fangzheng/miniconda3/envs/zl_nnunetv1/lib/python3.9/site-packages/torch/nn/modules/conv.py:1102:0
  %4237 : int[] = prim::Constant[value=[2, 2, 2]]()
  %4238 : int[] = prim::Constant[value=[1, 1, 1]]()
  %4239 : int[] = prim::Constant[value=[1, 1, 1]]()
  %3529 : bool = prim::Constant[value=1]() # /home/fangzheng/miniconda3/envs/zl_nnunetv1/lib/python3.9/site-packages/torch/nn/modules/conv.py:1102:0
  %4240 : int[] = prim::Constant[value=[0, 0, 0]]()
  %3534 : int = prim::Constant[value=32]() # /home/fangzheng/miniconda3/envs/zl_nnunetv1/lib/python3.9/site-packages/torch/nn/modules/conv.py:1102:0
  %3535 : bool = prim::Constant[value=1]() # /home/fangzheng/miniconda3/envs/zl_nnunetv1/lib/python3.9/site-packages/torch/nn/modules/conv.py:1102:0
  %3536 : bool = prim::Constant[value=0]() # /home/fangzheng/miniconda3/envs/zl_nnunetv1/lib/python3.9/site-packages/torch/nn/modules/conv.py:1102:0
  %3537 : bool = prim::Constant[value=1]() # /home/fangzheng/miniconda3/envs/zl_nnunetv1/lib/python3.9/site-packages/torch/nn/modules/conv.py:1102:0
  %3538 : bool = prim::Constant[value=1]() # /home/fangzheng/miniconda3/envs/zl_nnunetv1/lib/python3.9/site-packages/torch/nn/modules/conv.py:1102:0
  %input.181 : Float(1, 32, 127, 127, 127, strides=[65548256, 2048383, 16129, 127, 1], requires_grad=0, device=cuda:0) = aten::_convolution(%3493, %202, %203, %4237, %4238, %4239, %3529, %4240, %3534, %3535, %3536, %3537, %3538) # /home/fangzheng/miniconda3/envs/zl_nnunetv1/lib/python3.9/site-packages/torch/nn/modules/conv.py:1102:0
  %3570 : int = prim::Constant[value=32]() # /home/fangzheng/miniconda3/envs/zl_nnunetv1/lib/python3.9/site-packages/torch/nn/functional.py:2516:0
  %3571 : float = prim::Constant[value=1.0000000000000001e-05]() # /home/fangzheng/miniconda3/envs/zl_nnunetv1/lib/python3.9/site-packages/torch/nn/functional.py:2516:0
  %3572 : bool = prim::Constant[value=1]() # /home/fangzheng/miniconda3/envs/zl_nnunetv1/lib/python3.9/site-packages/torch/nn/functional.py:2516:0
  %input.183 : Float(1, 32, 127, 127, 127, strides=[65548256, 2048383, 16129, 127, 1], requires_grad=1, device=cuda:0) = aten::group_norm(%input.181, %3570, %204, %205, %3571, %3572) # /home/fangzheng/miniconda3/envs/zl_nnunetv1/lib/python3.9/site-packages/torch/nn/functional.py:2516:0
  %4241 : int[] = prim::Constant[value=[1, 1, 1]]()
  %4242 : int[] = prim::Constant[value=[0, 0, 0]]()
  %4243 : int[] = prim::Constant[value=[1, 1, 1]]()
  %3586 : bool = prim::Constant[value=0]() # /home/fangzheng/miniconda3/envs/zl_nnunetv1/lib/python3.9/site-packages/torch/nn/modules/conv.py:602:0
  %4244 : int[] = prim::Constant[value=[0, 0, 0]]()
  %3591 : int = prim::Constant[value=1]() # /home/fangzheng/miniconda3/envs/zl_nnunetv1/lib/python3.9/site-packages/torch/nn/modules/conv.py:602:0
  %3592 : bool = prim::Constant[value=1]() # /home/fangzheng/miniconda3/envs/zl_nnunetv1/lib/python3.9/site-packages/torch/nn/modules/conv.py:602:0
  %3593 : bool = prim::Constant[value=0]() # /home/fangzheng/miniconda3/envs/zl_nnunetv1/lib/python3.9/site-packages/torch/nn/modules/conv.py:602:0
  %3594 : bool = prim::Constant[value=1]() # /home/fangzheng/miniconda3/envs/zl_nnunetv1/lib/python3.9/site-packages/torch/nn/modules/conv.py:602:0
  %3595 : bool = prim::Constant[value=1]() # /home/fangzheng/miniconda3/envs/zl_nnunetv1/lib/python3.9/site-packages/torch/nn/modules/conv.py:602:0
  %3596 : Float(1, 64, 127, 127, 127, strides=[131096512, 2048383, 16129, 127, 1], requires_grad=0, device=cuda:0) = aten::_convolution(%input.183, %206, %207, %4241, %4242, %4243, %3586, %4244, %3591, %3592, %3593, %3594, %3595) # /home/fangzheng/miniconda3/envs/zl_nnunetv1/lib/python3.9/site-packages/torch/nn/modules/conv.py:602:0
  %3597 : str = prim::Constant[value="none"]() # /home/fangzheng/miniconda3/envs/zl_nnunetv1/lib/python3.9/site-packages/torch/nn/modules/activation.py:681:0
  %input.185 : Float(1, 64, 127, 127, 127, strides=[131096512, 2048383, 16129, 127, 1], requires_grad=1, device=cuda:0) = aten::gelu(%3596, %3597) # /home/fangzheng/miniconda3/envs/zl_nnunetv1/lib/python3.9/site-packages/torch/nn/modules/activation.py:681:0
  %4245 : int[] = prim::Constant[value=[1, 1, 1]]()
  %4246 : int[] = prim::Constant[value=[0, 0, 0]]()
  %4247 : int[] = prim::Constant[value=[1, 1, 1]]()
  %3611 : bool = prim::Constant[value=0]() # /home/fangzheng/miniconda3/envs/zl_nnunetv1/lib/python3.9/site-packages/torch/nn/modules/conv.py:602:0
  %4248 : int[] = prim::Constant[value=[0, 0, 0]]()
  %3616 : int = prim::Constant[value=1]() # /home/fangzheng/miniconda3/envs/zl_nnunetv1/lib/python3.9/site-packages/torch/nn/modules/conv.py:602:0
  %3617 : bool = prim::Constant[value=1]() # /home/fangzheng/miniconda3/envs/zl_nnunetv1/lib/python3.9/site-packages/torch/nn/modules/conv.py:602:0
  %3618 : bool = prim::Constant[value=0]() # /home/fangzheng/miniconda3/envs/zl_nnunetv1/lib/python3.9/site-packages/torch/nn/modules/conv.py:602:0
  %3619 : bool = prim::Constant[value=1]() # /home/fangzheng/miniconda3/envs/zl_nnunetv1/lib/python3.9/site-packages/torch/nn/modules/conv.py:602:0
  %3620 : bool = prim::Constant[value=1]() # /home/fangzheng/miniconda3/envs/zl_nnunetv1/lib/python3.9/site-packages/torch/nn/modules/conv.py:602:0
  %3621 : Float(1, 16, 127, 127, 127, strides=[32774128, 2048383, 16129, 127, 1], requires_grad=0, device=cuda:0) = aten::_convolution(%input.185, %208, %209, %4245, %4246, %4247, %3611, %4248, %3616, %3617, %3618, %3619, %3620) # /home/fangzheng/miniconda3/envs/zl_nnunetv1/lib/python3.9/site-packages/torch/nn/modules/conv.py:602:0
  %4249 : int[] = prim::Constant[value=[1, 0, 1, 0, 1, 0]]()
  %3629 : str = prim::Constant[value="constant"]() # /home/fangzheng/zoule/mednext/nnunet_mednext/network_architecture/mednextv1/blocks.py:187:0
  %3630 : NoneType = prim::Constant()
  %3631 : Float(1, 16, 128, 128, 128, strides=[33554432, 2097152, 16384, 128, 1], requires_grad=1, device=cuda:0) = aten::pad(%3621, %4249, %3629, %3630) # /home/fangzheng/zoule/mednext/nnunet_mednext/network_architecture/mednextv1/blocks.py:187:0
  %4250 : int[] = prim::Constant[value=[2, 2, 2]]()
  %4251 : int[] = prim::Constant[value=[0, 0, 0]]()
  %4252 : int[] = prim::Constant[value=[1, 1, 1]]()
  %3644 : bool = prim::Constant[value=1]() # /home/fangzheng/miniconda3/envs/zl_nnunetv1/lib/python3.9/site-packages/torch/nn/modules/conv.py:1102:0
  %4253 : int[] = prim::Constant[value=[0, 0, 0]]()
  %3649 : int = prim::Constant[value=1]() # /home/fangzheng/miniconda3/envs/zl_nnunetv1/lib/python3.9/site-packages/torch/nn/modules/conv.py:1102:0
  %3650 : bool = prim::Constant[value=1]() # /home/fangzheng/miniconda3/envs/zl_nnunetv1/lib/python3.9/site-packages/torch/nn/modules/conv.py:1102:0
  %3651 : bool = prim::Constant[value=0]() # /home/fangzheng/miniconda3/envs/zl_nnunetv1/lib/python3.9/site-packages/torch/nn/modules/conv.py:1102:0
  %3652 : bool = prim::Constant[value=1]() # /home/fangzheng/miniconda3/envs/zl_nnunetv1/lib/python3.9/site-packages/torch/nn/modules/conv.py:1102:0
  %3653 : bool = prim::Constant[value=1]() # /home/fangzheng/miniconda3/envs/zl_nnunetv1/lib/python3.9/site-packages/torch/nn/modules/conv.py:1102:0
  %3654 : Float(1, 16, 127, 127, 127, strides=[32774128, 2048383, 16129, 127, 1], requires_grad=0, device=cuda:0) = aten::_convolution(%3493, %210, %211, %4250, %4251, %4252, %3644, %4253, %3649, %3650, %3651, %3652, %3653) # /home/fangzheng/miniconda3/envs/zl_nnunetv1/lib/python3.9/site-packages/torch/nn/modules/conv.py:1102:0
  %4254 : int[] = prim::Constant[value=[1, 0, 1, 0, 1, 0]]()
  %3662 : str = prim::Constant[value="constant"]() # /home/fangzheng/zoule/mednext/nnunet_mednext/network_architecture/mednextv1/blocks.py:194:0
  %3663 : NoneType = prim::Constant()
  %3664 : Float(1, 16, 128, 128, 128, strides=[33554432, 2097152, 16384, 128, 1], requires_grad=1, device=cuda:0) = aten::pad(%3654, %4254, %3662, %3663) # /home/fangzheng/zoule/mednext/nnunet_mednext/network_architecture/mednextv1/blocks.py:194:0
  %3665 : int = prim::Constant[value=1]() # /home/fangzheng/zoule/mednext/nnunet_mednext/network_architecture/mednextv1/blocks.py:195:0
  %3666 : Float(1, 16, 128, 128, 128, strides=[33554432, 2097152, 16384, 128, 1], requires_grad=1, device=cuda:0) = aten::add(%3631, %3664, %3665) # /home/fangzheng/zoule/mednext/nnunet_mednext/network_architecture/mednextv1/blocks.py:195:0
  %3667 : int = prim::Constant[value=1]() # /home/fangzheng/zoule/mednext/nnunet_mednext/network_architecture/mednextv1/MedNextV1.py:372:0
  %input.187 : Float(1, 16, 128, 128, 128, strides=[33554432, 2097152, 16384, 128, 1], requires_grad=1, device=cuda:0) = aten::add(%input.19, %3666, %3667) # /home/fangzheng/zoule/mednext/nnunet_mednext/network_architecture/mednextv1/MedNextV1.py:372:0
  %4255 : int[] = prim::Constant[value=[1, 1, 1]]()
  %4256 : int[] = prim::Constant[value=[1, 1, 1]]()
  %4257 : int[] = prim::Constant[value=[1, 1, 1]]()
  %3681 : bool = prim::Constant[value=0]() # /home/fangzheng/miniconda3/envs/zl_nnunetv1/lib/python3.9/site-packages/torch/nn/modules/conv.py:602:0
  %4258 : int[] = prim::Constant[value=[0, 0, 0]]()
  %3686 : int = prim::Constant[value=16]() # /home/fangzheng/miniconda3/envs/zl_nnunetv1/lib/python3.9/site-packages/torch/nn/modules/conv.py:602:0
  %3687 : bool = prim::Constant[value=1]() # /home/fangzheng/miniconda3/envs/zl_nnunetv1/lib/python3.9/site-packages/torch/nn/modules/conv.py:602:0
  %3688 : bool = prim::Constant[value=0]() # /home/fangzheng/miniconda3/envs/zl_nnunetv1/lib/python3.9/site-packages/torch/nn/modules/conv.py:602:0
  %3689 : bool = prim::Constant[value=1]() # /home/fangzheng/miniconda3/envs/zl_nnunetv1/lib/python3.9/site-packages/torch/nn/modules/conv.py:602:0
  %3690 : bool = prim::Constant[value=1]() # /home/fangzheng/miniconda3/envs/zl_nnunetv1/lib/python3.9/site-packages/torch/nn/modules/conv.py:602:0
  %input.189 : Float(1, 16, 128, 128, 128, strides=[33554432, 2097152, 16384, 128, 1], requires_grad=0, device=cuda:0) = aten::_convolution(%input.187, %212, %213, %4255, %4256, %4257, %3681, %4258, %3686, %3687, %3688, %3689, %3690) # /home/fangzheng/miniconda3/envs/zl_nnunetv1/lib/python3.9/site-packages/torch/nn/modules/conv.py:602:0
  %3722 : int = prim::Constant[value=16]() # /home/fangzheng/miniconda3/envs/zl_nnunetv1/lib/python3.9/site-packages/torch/nn/functional.py:2516:0
  %3723 : float = prim::Constant[value=1.0000000000000001e-05]() # /home/fangzheng/miniconda3/envs/zl_nnunetv1/lib/python3.9/site-packages/torch/nn/functional.py:2516:0
  %3724 : bool = prim::Constant[value=1]() # /home/fangzheng/miniconda3/envs/zl_nnunetv1/lib/python3.9/site-packages/torch/nn/functional.py:2516:0
  %input.191 : Float(1, 16, 128, 128, 128, strides=[33554432, 2097152, 16384, 128, 1], requires_grad=1, device=cuda:0) = aten::group_norm(%input.189, %3722, %214, %215, %3723, %3724) # /home/fangzheng/miniconda3/envs/zl_nnunetv1/lib/python3.9/site-packages/torch/nn/functional.py:2516:0
  %4259 : int[] = prim::Constant[value=[1, 1, 1]]()
  %4260 : int[] = prim::Constant[value=[0, 0, 0]]()
  %4261 : int[] = prim::Constant[value=[1, 1, 1]]()
  %3738 : bool = prim::Constant[value=0]() # /home/fangzheng/miniconda3/envs/zl_nnunetv1/lib/python3.9/site-packages/torch/nn/modules/conv.py:602:0
  %4262 : int[] = prim::Constant[value=[0, 0, 0]]()
  %3743 : int = prim::Constant[value=1]() # /home/fangzheng/miniconda3/envs/zl_nnunetv1/lib/python3.9/site-packages/torch/nn/modules/conv.py:602:0
  %3744 : bool = prim::Constant[value=1]() # /home/fangzheng/miniconda3/envs/zl_nnunetv1/lib/python3.9/site-packages/torch/nn/modules/conv.py:602:0
  %3745 : bool = prim::Constant[value=0]() # /home/fangzheng/miniconda3/envs/zl_nnunetv1/lib/python3.9/site-packages/torch/nn/modules/conv.py:602:0
  %3746 : bool = prim::Constant[value=1]() # /home/fangzheng/miniconda3/envs/zl_nnunetv1/lib/python3.9/site-packages/torch/nn/modules/conv.py:602:0
  %3747 : bool = prim::Constant[value=1]() # /home/fangzheng/miniconda3/envs/zl_nnunetv1/lib/python3.9/site-packages/torch/nn/modules/conv.py:602:0
  %3748 : Float(1, 32, 128, 128, 128, strides=[67108864, 2097152, 16384, 128, 1], requires_grad=0, device=cuda:0) = aten::_convolution(%input.191, %216, %217, %4259, %4260, %4261, %3738, %4262, %3743, %3744, %3745, %3746, %3747) # /home/fangzheng/miniconda3/envs/zl_nnunetv1/lib/python3.9/site-packages/torch/nn/modules/conv.py:602:0
  %3749 : str = prim::Constant[value="none"]() # /home/fangzheng/miniconda3/envs/zl_nnunetv1/lib/python3.9/site-packages/torch/nn/modules/activation.py:681:0
  %input.193 : Float(1, 32, 128, 128, 128, strides=[67108864, 2097152, 16384, 128, 1], requires_grad=1, device=cuda:0) = aten::gelu(%3748, %3749) # /home/fangzheng/miniconda3/envs/zl_nnunetv1/lib/python3.9/site-packages/torch/nn/modules/activation.py:681:0
  %4263 : int[] = prim::Constant[value=[1, 1, 1]]()
  %4264 : int[] = prim::Constant[value=[0, 0, 0]]()
  %4265 : int[] = prim::Constant[value=[1, 1, 1]]()
  %3763 : bool = prim::Constant[value=0]() # /home/fangzheng/miniconda3/envs/zl_nnunetv1/lib/python3.9/site-packages/torch/nn/modules/conv.py:602:0
  %4266 : int[] = prim::Constant[value=[0, 0, 0]]()
  %3768 : int = prim::Constant[value=1]() # /home/fangzheng/miniconda3/envs/zl_nnunetv1/lib/python3.9/site-packages/torch/nn/modules/conv.py:602:0
  %3769 : bool = prim::Constant[value=1]() # /home/fangzheng/miniconda3/envs/zl_nnunetv1/lib/python3.9/site-packages/torch/nn/modules/conv.py:602:0
  %3770 : bool = prim::Constant[value=0]() # /home/fangzheng/miniconda3/envs/zl_nnunetv1/lib/python3.9/site-packages/torch/nn/modules/conv.py:602:0
  %3771 : bool = prim::Constant[value=1]() # /home/fangzheng/miniconda3/envs/zl_nnunetv1/lib/python3.9/site-packages/torch/nn/modules/conv.py:602:0
  %3772 : bool = prim::Constant[value=1]() # /home/fangzheng/miniconda3/envs/zl_nnunetv1/lib/python3.9/site-packages/torch/nn/modules/conv.py:602:0
  %3773 : Float(1, 16, 128, 128, 128, strides=[33554432, 2097152, 16384, 128, 1], requires_grad=0, device=cuda:0) = aten::_convolution(%input.193, %218, %219, %4263, %4264, %4265, %3763, %4266, %3768, %3769, %3770, %3771, %3772) # /home/fangzheng/miniconda3/envs/zl_nnunetv1/lib/python3.9/site-packages/torch/nn/modules/conv.py:602:0
  %3774 : int = prim::Constant[value=1]() # /home/fangzheng/zoule/mednext/nnunet_mednext/network_architecture/mednextv1/blocks.py:100:0
  %input.195 : Float(1, 16, 128, 128, 128, strides=[33554432, 2097152, 16384, 128, 1], requires_grad=1, device=cuda:0) = aten::add(%input.187, %3773, %3774) # /home/fangzheng/zoule/mednext/nnunet_mednext/network_architecture/mednextv1/blocks.py:100:0
  %4267 : int[] = prim::Constant[value=[1, 1, 1]]()
  %4268 : int[] = prim::Constant[value=[1, 1, 1]]()
  %4269 : int[] = prim::Constant[value=[1, 1, 1]]()
  %3788 : bool = prim::Constant[value=0]() # /home/fangzheng/miniconda3/envs/zl_nnunetv1/lib/python3.9/site-packages/torch/nn/modules/conv.py:602:0
  %4270 : int[] = prim::Constant[value=[0, 0, 0]]()
  %3793 : int = prim::Constant[value=16]() # /home/fangzheng/miniconda3/envs/zl_nnunetv1/lib/python3.9/site-packages/torch/nn/modules/conv.py:602:0
  %3794 : bool = prim::Constant[value=1]() # /home/fangzheng/miniconda3/envs/zl_nnunetv1/lib/python3.9/site-packages/torch/nn/modules/conv.py:602:0
  %3795 : bool = prim::Constant[value=0]() # /home/fangzheng/miniconda3/envs/zl_nnunetv1/lib/python3.9/site-packages/torch/nn/modules/conv.py:602:0
  %3796 : bool = prim::Constant[value=1]() # /home/fangzheng/miniconda3/envs/zl_nnunetv1/lib/python3.9/site-packages/torch/nn/modules/conv.py:602:0
  %3797 : bool = prim::Constant[value=1]() # /home/fangzheng/miniconda3/envs/zl_nnunetv1/lib/python3.9/site-packages/torch/nn/modules/conv.py:602:0
  %input.197 : Float(1, 16, 128, 128, 128, strides=[33554432, 2097152, 16384, 128, 1], requires_grad=0, device=cuda:0) = aten::_convolution(%input.195, %220, %221, %4267, %4268, %4269, %3788, %4270, %3793, %3794, %3795, %3796, %3797) # /home/fangzheng/miniconda3/envs/zl_nnunetv1/lib/python3.9/site-packages/torch/nn/modules/conv.py:602:0
  %3829 : int = prim::Constant[value=16]() # /home/fangzheng/miniconda3/envs/zl_nnunetv1/lib/python3.9/site-packages/torch/nn/functional.py:2516:0
  %3830 : float = prim::Constant[value=1.0000000000000001e-05]() # /home/fangzheng/miniconda3/envs/zl_nnunetv1/lib/python3.9/site-packages/torch/nn/functional.py:2516:0
  %3831 : bool = prim::Constant[value=1]() # /home/fangzheng/miniconda3/envs/zl_nnunetv1/lib/python3.9/site-packages/torch/nn/functional.py:2516:0
  %input.199 : Float(1, 16, 128, 128, 128, strides=[33554432, 2097152, 16384, 128, 1], requires_grad=1, device=cuda:0) = aten::group_norm(%input.197, %3829, %222, %223, %3830, %3831) # /home/fangzheng/miniconda3/envs/zl_nnunetv1/lib/python3.9/site-packages/torch/nn/functional.py:2516:0
  %4271 : int[] = prim::Constant[value=[1, 1, 1]]()
  %4272 : int[] = prim::Constant[value=[0, 0, 0]]()
  %4273 : int[] = prim::Constant[value=[1, 1, 1]]()
  %3845 : bool = prim::Constant[value=0]() # /home/fangzheng/miniconda3/envs/zl_nnunetv1/lib/python3.9/site-packages/torch/nn/modules/conv.py:602:0
  %4274 : int[] = prim::Constant[value=[0, 0, 0]]()
  %3850 : int = prim::Constant[value=1]() # /home/fangzheng/miniconda3/envs/zl_nnunetv1/lib/python3.9/site-packages/torch/nn/modules/conv.py:602:0
  %3851 : bool = prim::Constant[value=1]() # /home/fangzheng/miniconda3/envs/zl_nnunetv1/lib/python3.9/site-packages/torch/nn/modules/conv.py:602:0
  %3852 : bool = prim::Constant[value=0]() # /home/fangzheng/miniconda3/envs/zl_nnunetv1/lib/python3.9/site-packages/torch/nn/modules/conv.py:602:0
  %3853 : bool = prim::Constant[value=1]() # /home/fangzheng/miniconda3/envs/zl_nnunetv1/lib/python3.9/site-packages/torch/nn/modules/conv.py:602:0
  %3854 : bool = prim::Constant[value=1]() # /home/fangzheng/miniconda3/envs/zl_nnunetv1/lib/python3.9/site-packages/torch/nn/modules/conv.py:602:0
  %3855 : Float(1, 32, 128, 128, 128, strides=[67108864, 2097152, 16384, 128, 1], requires_grad=0, device=cuda:0) = aten::_convolution(%input.199, %224, %225, %4271, %4272, %4273, %3845, %4274, %3850, %3851, %3852, %3853, %3854) # /home/fangzheng/miniconda3/envs/zl_nnunetv1/lib/python3.9/site-packages/torch/nn/modules/conv.py:602:0
  %3856 : str = prim::Constant[value="none"]() # /home/fangzheng/miniconda3/envs/zl_nnunetv1/lib/python3.9/site-packages/torch/nn/modules/activation.py:681:0
  %input : Float(1, 32, 128, 128, 128, strides=[67108864, 2097152, 16384, 128, 1], requires_grad=1, device=cuda:0) = aten::gelu(%3855, %3856) # /home/fangzheng/miniconda3/envs/zl_nnunetv1/lib/python3.9/site-packages/torch/nn/modules/activation.py:681:0
  %4275 : int[] = prim::Constant[value=[1, 1, 1]]()
  %4276 : int[] = prim::Constant[value=[0, 0, 0]]()
  %4277 : int[] = prim::Constant[value=[1, 1, 1]]()
  %3870 : bool = prim::Constant[value=0]() # /home/fangzheng/miniconda3/envs/zl_nnunetv1/lib/python3.9/site-packages/torch/nn/modules/conv.py:602:0
  %4278 : int[] = prim::Constant[value=[0, 0, 0]]()
  %3875 : int = prim::Constant[value=1]() # /home/fangzheng/miniconda3/envs/zl_nnunetv1/lib/python3.9/site-packages/torch/nn/modules/conv.py:602:0
  %3876 : bool = prim::Constant[value=1]() # /home/fangzheng/miniconda3/envs/zl_nnunetv1/lib/python3.9/site-packages/torch/nn/modules/conv.py:602:0
  %3877 : bool = prim::Constant[value=0]() # /home/fangzheng/miniconda3/envs/zl_nnunetv1/lib/python3.9/site-packages/torch/nn/modules/conv.py:602:0
  %3878 : bool = prim::Constant[value=1]() # /home/fangzheng/miniconda3/envs/zl_nnunetv1/lib/python3.9/site-packages/torch/nn/modules/conv.py:602:0
  %3879 : bool = prim::Constant[value=1]() # /home/fangzheng/miniconda3/envs/zl_nnunetv1/lib/python3.9/site-packages/torch/nn/modules/conv.py:602:0
  %3880 : Float(1, 16, 128, 128, 128, strides=[33554432, 2097152, 16384, 128, 1], requires_grad=0, device=cuda:0) = aten::_convolution(%input, %226, %227, %4275, %4276, %4277, %3870, %4278, %3875, %3876, %3877, %3878, %3879) # /home/fangzheng/miniconda3/envs/zl_nnunetv1/lib/python3.9/site-packages/torch/nn/modules/conv.py:602:0
  %3881 : int = prim::Constant[value=1]() # /home/fangzheng/zoule/mednext/nnunet_mednext/network_architecture/mednextv1/blocks.py:100:0
  %3882 : Float(1, 16, 128, 128, 128, strides=[33554432, 2097152, 16384, 128, 1], requires_grad=1, device=cuda:0) = aten::add(%input.195, %3880, %3881) # /home/fangzheng/zoule/mednext/nnunet_mednext/network_architecture/mednextv1/blocks.py:100:0
  %4279 : int[] = prim::Constant[value=[1, 1, 1]]()
  %4280 : int[] = prim::Constant[value=[0, 0, 0]]()
  %4281 : int[] = prim::Constant[value=[1, 1, 1]]()
  %3895 : bool = prim::Constant[value=1]() # /home/fangzheng/miniconda3/envs/zl_nnunetv1/lib/python3.9/site-packages/torch/nn/modules/conv.py:1102:0
  %4282 : int[] = prim::Constant[value=[0, 0, 0]]()
  %3900 : int = prim::Constant[value=1]() # /home/fangzheng/miniconda3/envs/zl_nnunetv1/lib/python3.9/site-packages/torch/nn/modules/conv.py:1102:0
  %3901 : bool = prim::Constant[value=1]() # /home/fangzheng/miniconda3/envs/zl_nnunetv1/lib/python3.9/site-packages/torch/nn/modules/conv.py:1102:0
  %3902 : bool = prim::Constant[value=0]() # /home/fangzheng/miniconda3/envs/zl_nnunetv1/lib/python3.9/site-packages/torch/nn/modules/conv.py:1102:0
  %3903 : bool = prim::Constant[value=1]() # /home/fangzheng/miniconda3/envs/zl_nnunetv1/lib/python3.9/site-packages/torch/nn/modules/conv.py:1102:0
  %3904 : bool = prim::Constant[value=1]() # /home/fangzheng/miniconda3/envs/zl_nnunetv1/lib/python3.9/site-packages/torch/nn/modules/conv.py:1102:0
  %3905 : Float(1, 2, 128, 128, 128, strides=[4194304, 2097152, 16384, 128, 1], requires_grad=0, device=cuda:0) = aten::_convolution(%3882, %228, %229, %4279, %4280, %4281, %3895, %4282, %3900, %3901, %3902, %3903, %3904) # /home/fangzheng/miniconda3/envs/zl_nnunetv1/lib/python3.9/site-packages/torch/nn/modules/conv.py:1102:0
  return (%3905, %3516, %3127, %2738, %2349)
, None, False
2026-03-09 22:08:30.677280: 
printing the network instead:

2026-03-09 22:08:30.677351: MedNeXt(
  (stem): Conv3d(1, 16, kernel_size=(1, 1, 1), stride=(1, 1, 1))
  (enc_block_0): Sequential(
    (0): MedNeXtBlock(
      (conv1): Conv3d(16, 16, kernel_size=(3, 3, 3), stride=(1, 1, 1), padding=(1, 1, 1), groups=16)
      (norm): GroupNorm(16, 16, eps=1e-05, affine=True)
      (conv2): Conv3d(16, 32, kernel_size=(1, 1, 1), stride=(1, 1, 1))
      (act): GELU(approximate=none)
      (conv3): Conv3d(32, 16, kernel_size=(1, 1, 1), stride=(1, 1, 1))
    )
    (1): MedNeXtBlock(
      (conv1): Conv3d(16, 16, kernel_size=(3, 3, 3), stride=(1, 1, 1), padding=(1, 1, 1), groups=16)
      (norm): GroupNorm(16, 16, eps=1e-05, affine=True)
      (conv2): Conv3d(16, 32, kernel_size=(1, 1, 1), stride=(1, 1, 1))
      (act): GELU(approximate=none)
      (conv3): Conv3d(32, 16, kernel_size=(1, 1, 1), stride=(1, 1, 1))
    )
  )
  (down_0): MedNeXtDownBlock(
    (conv1): Conv3d(16, 16, kernel_size=(3, 3, 3), stride=(2, 2, 2), padding=(1, 1, 1), groups=16)
    (norm): GroupNorm(16, 16, eps=1e-05, affine=True)
    (conv2): Conv3d(16, 32, kernel_size=(1, 1, 1), stride=(1, 1, 1))
    (act): GELU(approximate=none)
    (conv3): Conv3d(32, 32, kernel_size=(1, 1, 1), stride=(1, 1, 1))
    (res_conv): Conv3d(16, 32, kernel_size=(1, 1, 1), stride=(2, 2, 2))
  )
  (enc_block_1): Sequential(
    (0): MedNeXtBlock(
      (conv1): Conv3d(32, 32, kernel_size=(3, 3, 3), stride=(1, 1, 1), padding=(1, 1, 1), groups=32)
      (norm): GroupNorm(32, 32, eps=1e-05, affine=True)
      (conv2): Conv3d(32, 64, kernel_size=(1, 1, 1), stride=(1, 1, 1))
      (act): GELU(approximate=none)
      (conv3): Conv3d(64, 32, kernel_size=(1, 1, 1), stride=(1, 1, 1))
    )
    (1): MedNeXtBlock(
      (conv1): Conv3d(32, 32, kernel_size=(3, 3, 3), stride=(1, 1, 1), padding=(1, 1, 1), groups=32)
      (norm): GroupNorm(32, 32, eps=1e-05, affine=True)
      (conv2): Conv3d(32, 64, kernel_size=(1, 1, 1), stride=(1, 1, 1))
      (act): GELU(approximate=none)
      (conv3): Conv3d(64, 32, kernel_size=(1, 1, 1), stride=(1, 1, 1))
    )
  )
  (down_1): MedNeXtDownBlock(
    (conv1): Conv3d(32, 32, kernel_size=(3, 3, 3), stride=(2, 2, 2), padding=(1, 1, 1), groups=32)
    (norm): GroupNorm(32, 32, eps=1e-05, affine=True)
    (conv2): Conv3d(32, 64, kernel_size=(1, 1, 1), stride=(1, 1, 1))
    (act): GELU(approximate=none)
    (conv3): Conv3d(64, 64, kernel_size=(1, 1, 1), stride=(1, 1, 1))
    (res_conv): Conv3d(32, 64, kernel_size=(1, 1, 1), stride=(2, 2, 2))
  )
  (enc_block_2): Sequential(
    (0): MedNeXtBlock(
      (conv1): Conv3d(64, 64, kernel_size=(3, 3, 3), stride=(1, 1, 1), padding=(1, 1, 1), groups=64)
      (norm): GroupNorm(64, 64, eps=1e-05, affine=True)
      (conv2): Conv3d(64, 128, kernel_size=(1, 1, 1), stride=(1, 1, 1))
      (act): GELU(approximate=none)
      (conv3): Conv3d(128, 64, kernel_size=(1, 1, 1), stride=(1, 1, 1))
    )
    (1): MedNeXtBlock(
      (conv1): Conv3d(64, 64, kernel_size=(3, 3, 3), stride=(1, 1, 1), padding=(1, 1, 1), groups=64)
      (norm): GroupNorm(64, 64, eps=1e-05, affine=True)
      (conv2): Conv3d(64, 128, kernel_size=(1, 1, 1), stride=(1, 1, 1))
      (act): GELU(approximate=none)
      (conv3): Conv3d(128, 64, kernel_size=(1, 1, 1), stride=(1, 1, 1))
    )
  )
  (down_2): MedNeXtDownBlock(
    (conv1): Conv3d(64, 64, kernel_size=(3, 3, 3), stride=(2, 2, 2), padding=(1, 1, 1), groups=64)
    (norm): GroupNorm(64, 64, eps=1e-05, affine=True)
    (conv2): Conv3d(64, 128, kernel_size=(1, 1, 1), stride=(1, 1, 1))
    (act): GELU(approximate=none)
    (conv3): Conv3d(128, 128, kernel_size=(1, 1, 1), stride=(1, 1, 1))
    (res_conv): Conv3d(64, 128, kernel_size=(1, 1, 1), stride=(2, 2, 2))
  )
  (enc_block_3): Sequential(
    (0): MedNeXtBlock(
      (conv1): Conv3d(128, 128, kernel_size=(3, 3, 3), stride=(1, 1, 1), padding=(1, 1, 1), groups=128)
      (norm): GroupNorm(128, 128, eps=1e-05, affine=True)
      (conv2): Conv3d(128, 256, kernel_size=(1, 1, 1), stride=(1, 1, 1))
      (act): GELU(approximate=none)
      (conv3): Conv3d(256, 128, kernel_size=(1, 1, 1), stride=(1, 1, 1))
    )
    (1): MedNeXtBlock(
      (conv1): Conv3d(128, 128, kernel_size=(3, 3, 3), stride=(1, 1, 1), padding=(1, 1, 1), groups=128)
      (norm): GroupNorm(128, 128, eps=1e-05, affine=True)
      (conv2): Conv3d(128, 256, kernel_size=(1, 1, 1), stride=(1, 1, 1))
      (act): GELU(approximate=none)
      (conv3): Conv3d(256, 128, kernel_size=(1, 1, 1), stride=(1, 1, 1))
    )
  )
  (down_3): MedNeXtDownBlock(
    (conv1): Conv3d(128, 128, kernel_size=(3, 3, 3), stride=(2, 2, 2), padding=(1, 1, 1), groups=128)
    (norm): GroupNorm(128, 128, eps=1e-05, affine=True)
    (conv2): Conv3d(128, 256, kernel_size=(1, 1, 1), stride=(1, 1, 1))
    (act): GELU(approximate=none)
    (conv3): Conv3d(256, 256, kernel_size=(1, 1, 1), stride=(1, 1, 1))
    (res_conv): Conv3d(128, 256, kernel_size=(1, 1, 1), stride=(2, 2, 2))
  )
  (bottleneck): Sequential(
    (0): MedNeXtBlock(
      (conv1): Conv3d(256, 256, kernel_size=(3, 3, 3), stride=(1, 1, 1), padding=(1, 1, 1), groups=256)
      (norm): GroupNorm(256, 256, eps=1e-05, affine=True)
      (conv2): Conv3d(256, 512, kernel_size=(1, 1, 1), stride=(1, 1, 1))
      (act): GELU(approximate=none)
      (conv3): Conv3d(512, 256, kernel_size=(1, 1, 1), stride=(1, 1, 1))
    )
    (1): MedNeXtBlock(
      (conv1): Conv3d(256, 256, kernel_size=(3, 3, 3), stride=(1, 1, 1), padding=(1, 1, 1), groups=256)
      (norm): GroupNorm(256, 256, eps=1e-05, affine=True)
      (conv2): Conv3d(256, 512, kernel_size=(1, 1, 1), stride=(1, 1, 1))
      (act): GELU(approximate=none)
      (conv3): Conv3d(512, 256, kernel_size=(1, 1, 1), stride=(1, 1, 1))
    )
  )
  (up_3): MedNeXtUpBlock(
    (conv1): ConvTranspose3d(256, 256, kernel_size=(3, 3, 3), stride=(2, 2, 2), padding=(1, 1, 1), groups=256)
    (norm): GroupNorm(256, 256, eps=1e-05, affine=True)
    (conv2): Conv3d(256, 512, kernel_size=(1, 1, 1), stride=(1, 1, 1))
    (act): GELU(approximate=none)
    (conv3): Conv3d(512, 128, kernel_size=(1, 1, 1), stride=(1, 1, 1))
    (res_conv): ConvTranspose3d(256, 128, kernel_size=(1, 1, 1), stride=(2, 2, 2))
  )
  (dec_block_3): Sequential(
    (0): MedNeXtBlock(
      (conv1): Conv3d(128, 128, kernel_size=(3, 3, 3), stride=(1, 1, 1), padding=(1, 1, 1), groups=128)
      (norm): GroupNorm(128, 128, eps=1e-05, affine=True)
      (conv2): Conv3d(128, 256, kernel_size=(1, 1, 1), stride=(1, 1, 1))
      (act): GELU(approximate=none)
      (conv3): Conv3d(256, 128, kernel_size=(1, 1, 1), stride=(1, 1, 1))
    )
    (1): MedNeXtBlock(
      (conv1): Conv3d(128, 128, kernel_size=(3, 3, 3), stride=(1, 1, 1), padding=(1, 1, 1), groups=128)
      (norm): GroupNorm(128, 128, eps=1e-05, affine=True)
      (conv2): Conv3d(128, 256, kernel_size=(1, 1, 1), stride=(1, 1, 1))
      (act): GELU(approximate=none)
      (conv3): Conv3d(256, 128, kernel_size=(1, 1, 1), stride=(1, 1, 1))
    )
  )
  (up_2): MedNeXtUpBlock(
    (conv1): ConvTranspose3d(128, 128, kernel_size=(3, 3, 3), stride=(2, 2, 2), padding=(1, 1, 1), groups=128)
    (norm): GroupNorm(128, 128, eps=1e-05, affine=True)
    (conv2): Conv3d(128, 256, kernel_size=(1, 1, 1), stride=(1, 1, 1))
    (act): GELU(approximate=none)
    (conv3): Conv3d(256, 64, kernel_size=(1, 1, 1), stride=(1, 1, 1))
    (res_conv): ConvTranspose3d(128, 64, kernel_size=(1, 1, 1), stride=(2, 2, 2))
  )
  (dec_block_2): Sequential(
    (0): MedNeXtBlock(
      (conv1): Conv3d(64, 64, kernel_size=(3, 3, 3), stride=(1, 1, 1), padding=(1, 1, 1), groups=64)
      (norm): GroupNorm(64, 64, eps=1e-05, affine=True)
      (conv2): Conv3d(64, 128, kernel_size=(1, 1, 1), stride=(1, 1, 1))
      (act): GELU(approximate=none)
      (conv3): Conv3d(128, 64, kernel_size=(1, 1, 1), stride=(1, 1, 1))
    )
    (1): MedNeXtBlock(
      (conv1): Conv3d(64, 64, kernel_size=(3, 3, 3), stride=(1, 1, 1), padding=(1, 1, 1), groups=64)
      (norm): GroupNorm(64, 64, eps=1e-05, affine=True)
      (conv2): Conv3d(64, 128, kernel_size=(1, 1, 1), stride=(1, 1, 1))
      (act): GELU(approximate=none)
      (conv3): Conv3d(128, 64, kernel_size=(1, 1, 1), stride=(1, 1, 1))
    )
  )
  (up_1): MedNeXtUpBlock(
    (conv1): ConvTranspose3d(64, 64, kernel_size=(3, 3, 3), stride=(2, 2, 2), padding=(1, 1, 1), groups=64)
    (norm): GroupNorm(64, 64, eps=1e-05, affine=True)
    (conv2): Conv3d(64, 128, kernel_size=(1, 1, 1), stride=(1, 1, 1))
    (act): GELU(approximate=none)
    (conv3): Conv3d(128, 32, kernel_size=(1, 1, 1), stride=(1, 1, 1))
    (res_conv): ConvTranspose3d(64, 32, kernel_size=(1, 1, 1), stride=(2, 2, 2))
  )
  (dec_block_1): Sequential(
    (0): MedNeXtBlock(
      (conv1): Conv3d(32, 32, kernel_size=(3, 3, 3), stride=(1, 1, 1), padding=(1, 1, 1), groups=32)
      (norm): GroupNorm(32, 32, eps=1e-05, affine=True)
      (conv2): Conv3d(32, 64, kernel_size=(1, 1, 1), stride=(1, 1, 1))
      (act): GELU(approximate=none)
      (conv3): Conv3d(64, 32, kernel_size=(1, 1, 1), stride=(1, 1, 1))
    )
    (1): MedNeXtBlock(
      (conv1): Conv3d(32, 32, kernel_size=(3, 3, 3), stride=(1, 1, 1), padding=(1, 1, 1), groups=32)
      (norm): GroupNorm(32, 32, eps=1e-05, affine=True)
      (conv2): Conv3d(32, 64, kernel_size=(1, 1, 1), stride=(1, 1, 1))
      (act): GELU(approximate=none)
      (conv3): Conv3d(64, 32, kernel_size=(1, 1, 1), stride=(1, 1, 1))
    )
  )
  (up_0): MedNeXtUpBlock(
    (conv1): ConvTranspose3d(32, 32, kernel_size=(3, 3, 3), stride=(2, 2, 2), padding=(1, 1, 1), groups=32)
    (norm): GroupNorm(32, 32, eps=1e-05, affine=True)
    (conv2): Conv3d(32, 64, kernel_size=(1, 1, 1), stride=(1, 1, 1))
    (act): GELU(approximate=none)
    (conv3): Conv3d(64, 16, kernel_size=(1, 1, 1), stride=(1, 1, 1))
    (res_conv): ConvTranspose3d(32, 16, kernel_size=(1, 1, 1), stride=(2, 2, 2))
  )
  (dec_block_0): Sequential(
    (0): MedNeXtBlock(
      (conv1): Conv3d(16, 16, kernel_size=(3, 3, 3), stride=(1, 1, 1), padding=(1, 1, 1), groups=16)
      (norm): GroupNorm(16, 16, eps=1e-05, affine=True)
      (conv2): Conv3d(16, 32, kernel_size=(1, 1, 1), stride=(1, 1, 1))
      (act): GELU(approximate=none)
      (conv3): Conv3d(32, 16, kernel_size=(1, 1, 1), stride=(1, 1, 1))
    )
    (1): MedNeXtBlock(
      (conv1): Conv3d(16, 16, kernel_size=(3, 3, 3), stride=(1, 1, 1), padding=(1, 1, 1), groups=16)
      (norm): GroupNorm(16, 16, eps=1e-05, affine=True)
      (conv2): Conv3d(16, 32, kernel_size=(1, 1, 1), stride=(1, 1, 1))
      (act): GELU(approximate=none)
      (conv3): Conv3d(32, 16, kernel_size=(1, 1, 1), stride=(1, 1, 1))
    )
  )
  (out_0): OutBlock(
    (conv_out): ConvTranspose3d(16, 2, kernel_size=(1, 1, 1), stride=(1, 1, 1))
  )
  (out_1): OutBlock(
    (conv_out): ConvTranspose3d(32, 2, kernel_size=(1, 1, 1), stride=(1, 1, 1))
  )
  (out_2): OutBlock(
    (conv_out): ConvTranspose3d(64, 2, kernel_size=(1, 1, 1), stride=(1, 1, 1))
  )
  (out_3): OutBlock(
    (conv_out): ConvTranspose3d(128, 2, kernel_size=(1, 1, 1), stride=(1, 1, 1))
  )
  (out_4): OutBlock(
    (conv_out): ConvTranspose3d(256, 2, kernel_size=(1, 1, 1), stride=(1, 1, 1))
  )
)