nohup: 忽略输入
/home/fangzheng/miniconda3/envs/zl_nnunetv1/lib/python3.9/site-packages/torch/utils/cpp_extension.py:25: UserWarning: pkg_resources is deprecated as an API. See https://setuptools.pypa.io/en/latest/pkg_resources.html. The pkg_resources package is slated for removal as early as 2025-11-30. Refrain from using this package or pin to Setuptools<81.
  from pkg_resources import packaging  # type: ignore[attr-defined]
Using /home/fangzheng/.cache/torch_extensions/py39_cu113 as PyTorch extensions root...
Detected CUDA files, patching ldflags
Emitting ninja build file /home/fangzheng/.cache/torch_extensions/py39_cu113/wkv/build.ninja...
Building extension module wkv...
Allowing ninja to set a default number of workers... (overridable by setting the environment variable MAX_JOBS=N)
ninja: no work to do.
Loading extension module wkv...
###############################################
I am running the following nnUNet: 3d_fullres
My trainer class is:  <class 'nnunet_mednext.training.network_training.nnUNetTrainerV2_Double_CCA_UPSam_RWKV_MedNeXt.nnUNetTrainerV2_Double_CCA_UPSam_RWKV_MedNeXt'>
For that I will be using the following configuration:
num_classes:  1
modalities:  {0: 'CT'}
use_mask_for_norm OrderedDict([(0, False)])
keep_only_largest_region None
min_region_size_per_class None
min_size_per_class None
normalization_schemes OrderedDict([(0, 'CT')])
stages...

stage:  0
{'batch_size': 4, 'num_pool_per_axis': [5, 5, 5], 'patch_size': [64, 64, 64], 'median_patient_size_in_voxels': array([128, 128, 128]), 'current_spacing': array([1., 1., 1.]), 'original_spacing': array([1., 1., 1.]), 'do_dummy_2D_data_aug': False, 'pool_op_kernel_sizes': [[2, 2, 2], [2, 2, 2], [2, 2, 2], [2, 2, 2], [2, 2, 2]], 'conv_kernel_sizes': [[3, 3, 3], [3, 3, 3], [3, 3, 3], [3, 3, 3], [3, 3, 3], [3, 3, 3]]}

I am using stage 0 from these plans
I am using sample dice + CE loss

I am using data from this folder:  /home/fangzheng/zoule/ESO_nnUNet_dataset/nnUNet_preprocessed/Task530_EsoTJ_30pct/nnUNetData_plans_v2.1_trgSp_1x1x1
###############################################
loading dataset
loading all case properties
2026-03-08 19:18:44.229869: Using splits from existing split file: /home/fangzheng/zoule/ESO_nnUNet_dataset/nnUNet_preprocessed/Task530_EsoTJ_30pct/splits_final.pkl
2026-03-08 19:18:44.230011: The split file contains 5 splits.
2026-03-08 19:18:44.230028: Desired fold for training: 1
2026-03-08 19:18:44.230040: This split has 28 training and 7 validation cases.
unpacking dataset
done
2026-03-08 19:18:44.920194: lr: 0.001
using pin_memory on device 0
/home/fangzheng/miniconda3/envs/zl_nnunetv1/lib/python3.9/site-packages/torch/nn/functional.py:2515: UserWarning: __floordiv__ is deprecated, and its behavior will change in a future version of pytorch. It currently rounds toward 0 (like the 'trunc' function NOT 'floor'). This results in incorrect rounding for negative values. To keep the current behavior, use torch.div(a, b, rounding_mode='trunc'), or for actual floor division, use torch.div(a, b, rounding_mode='floor').
  _verify_batch_size([input.size(0) * input.size(1) // num_groups, num_groups] + list(input.size()[2:]))
/home/fangzheng/zoule/mednext/nnunet_mednext/network_architecture/le_networks/GLSP3D_RWKV.py:162: TracerWarning: Converting a tensor to a Python integer might cause the trace to be incorrect. We can't record the data flow of Python values, so this value will be treated as a constant in the future. This means that the trace might not generalize to other inputs!
  g = int(C * gamma)
/home/fangzheng/zoule/mednext/nnunet_mednext/network_architecture/le_networks/GLSP3D_RWKV.py:98: TracerWarning: Converting a tensor to a Python boolean might cause the trace to be incorrect. We can't record the data flow of Python values, so this value will be treated as a constant in the future. This means that the trace might not generalize to other inputs!
  assert T <= T_MAX
/home/fangzheng/zoule/mednext/nnunet_mednext/network_architecture/le_networks/GLSP3D_RWKV.py:99: TracerWarning: Converting a tensor to a Python boolean might cause the trace to be incorrect. We can't record the data flow of Python values, so this value will be treated as a constant in the future. This means that the trace might not generalize to other inputs!
  assert B * C % min(C, 1024) == 0
/home/fangzheng/zoule/mednext/nnunet_mednext/network_architecture/le_networks/LRDU.py:14: UserWarning: __floordiv__ is deprecated, and its behavior will change in a future version of pytorch. It currently rounds toward 0 (like the 'trunc' function NOT 'floor'). This results in incorrect rounding for negative values. To keep the current behavior, use torch.div(a, b, rounding_mode='trunc'), or for actual floor division, use torch.div(a, b, rounding_mode='floor').
  out_c = c // (r ** 3)
Warning: ONNX Preprocess - Removing mutation from node aten::add_ on block input: '287'. This changes graph semantics.
Warning: ONNX Preprocess - Removing mutation from node aten::add_ on block input: '309'. This changes graph semantics.
Warning: ONNX Preprocess - Removing mutation from node aten::add_ on block input: '331'. This changes graph semantics.
Warning: ONNX Preprocess - Removing mutation from node aten::add_ on block input: '337'. This changes graph semantics.
Warning: ONNX Preprocess - Removing mutation from node aten::add_ on block input: '343'. This changes graph semantics.
Warning: ONNX Preprocess - Removing mutation from node aten::add_ on block input: '351'. This changes graph semantics.
Warning: ONNX Preprocess - Removing mutation from node aten::add_ on block input: '385'. This changes graph semantics.
Warning: ONNX Preprocess - Removing mutation from node aten::add_ on block input: '419'. This changes graph semantics.
Warning: ONNX Preprocess - Removing mutation from node aten::add_ on block input: '453'. This changes graph semantics.
using pin_memory on device 0
2026-03-08 19:18:47.770193: Unable to plot network architecture:
2026-03-08 19:18:47.770341: _jit_pass_onnx_unpack_quantized_weights(): incompatible function arguments. The following argument types are supported:
    1. (arg0: torch::jit::Graph, arg1: Dict[str, IValue], arg2: bool) -> Dict[str, IValue]

Invoked with: graph(%input.1 : Float(1, 1, 64, 64, 64, strides=[262144, 262144, 4096, 64, 1], requires_grad=0, device=cuda:0),
      %1 : Float(1, strides=[1], requires_grad=1, device=cuda:0),
      %2 : Float(16, 1, 1, 1, 1, strides=[1, 1, 1, 1, 1], requires_grad=1, device=cuda:0),
      %3 : Float(16, strides=[1], requires_grad=1, device=cuda:0),
      %4 : Float(1, 32, 1, 1, 1, strides=[32, 1, 1, 1, 1], requires_grad=1, device=cuda:0),
      %5 : Float(1, 32, 1, 1, 1, strides=[32, 1, 1, 1, 1], requires_grad=1, device=cuda:0),
      %6 : Float(16, 1, 3, 3, 3, strides=[27, 27, 9, 3, 1], requires_grad=1, device=cuda:0),
      %7 : Float(16, strides=[1], requires_grad=1, device=cuda:0),
      %8 : Float(16, strides=[1], requires_grad=1, device=cuda:0),
      %9 : Float(16, strides=[1], requires_grad=1, device=cuda:0),
      %10 : Float(32, 16, 1, 1, 1, strides=[16, 1, 1, 1, 1], requires_grad=1, device=cuda:0),
      %11 : Float(32, strides=[1], requires_grad=1, device=cuda:0),
      %12 : Float(16, 32, 1, 1, 1, strides=[32, 1, 1, 1, 1], requires_grad=1, device=cuda:0),
      %13 : Float(16, strides=[1], requires_grad=1, device=cuda:0),
      %14 : Float(1, 32, 1, 1, 1, strides=[32, 1, 1, 1, 1], requires_grad=1, device=cuda:0),
      %15 : Float(1, 32, 1, 1, 1, strides=[32, 1, 1, 1, 1], requires_grad=1, device=cuda:0),
      %16 : Float(16, 1, 3, 3, 3, strides=[27, 27, 9, 3, 1], requires_grad=1, device=cuda:0),
      %17 : Float(16, strides=[1], requires_grad=1, device=cuda:0),
      %18 : Float(16, strides=[1], requires_grad=1, device=cuda:0),
      %19 : Float(16, strides=[1], requires_grad=1, device=cuda:0),
      %20 : Float(32, 16, 1, 1, 1, strides=[16, 1, 1, 1, 1], requires_grad=1, device=cuda:0),
      %21 : Float(32, strides=[1], requires_grad=1, device=cuda:0),
      %22 : Float(16, 32, 1, 1, 1, strides=[32, 1, 1, 1, 1], requires_grad=1, device=cuda:0),
      %23 : Float(16, strides=[1], requires_grad=1, device=cuda:0),
      %24 : Float(16, 1, 3, 3, 3, strides=[27, 27, 9, 3, 1], requires_grad=1, device=cuda:0),
      %25 : Float(16, strides=[1], requires_grad=1, device=cuda:0),
      %26 : Float(16, strides=[1], requires_grad=1, device=cuda:0),
      %27 : Float(16, strides=[1], requires_grad=1, device=cuda:0),
      %28 : Float(32, 16, 1, 1, 1, strides=[16, 1, 1, 1, 1], requires_grad=1, device=cuda:0),
      %29 : Float(32, strides=[1], requires_grad=1, device=cuda:0),
      %30 : Float(32, 32, 1, 1, 1, strides=[32, 1, 1, 1, 1], requires_grad=1, device=cuda:0),
      %31 : Float(32, strides=[1], requires_grad=1, device=cuda:0),
      %32 : Float(32, 16, 1, 1, 1, strides=[16, 1, 1, 1, 1], requires_grad=1, device=cuda:0),
      %33 : Float(32, strides=[1], requires_grad=1, device=cuda:0),
      %34 : Float(1, 64, 1, 1, 1, strides=[64, 1, 1, 1, 1], requires_grad=1, device=cuda:0),
      %35 : Float(1, 64, 1, 1, 1, strides=[64, 1, 1, 1, 1], requires_grad=1, device=cuda:0),
      %36 : Float(32, 1, 3, 3, 3, strides=[27, 27, 9, 3, 1], requires_grad=1, device=cuda:0),
      %37 : Float(32, strides=[1], requires_grad=1, device=cuda:0),
      %38 : Float(32, strides=[1], requires_grad=1, device=cuda:0),
      %39 : Float(32, strides=[1], requires_grad=1, device=cuda:0),
      %40 : Float(64, 32, 1, 1, 1, strides=[32, 1, 1, 1, 1], requires_grad=1, device=cuda:0),
      %41 : Float(64, strides=[1], requires_grad=1, device=cuda:0),
      %42 : Float(32, 64, 1, 1, 1, strides=[64, 1, 1, 1, 1], requires_grad=1, device=cuda:0),
      %43 : Float(32, strides=[1], requires_grad=1, device=cuda:0),
      %44 : Float(1, 64, 1, 1, 1, strides=[64, 1, 1, 1, 1], requires_grad=1, device=cuda:0),
      %45 : Float(1, 64, 1, 1, 1, strides=[64, 1, 1, 1, 1], requires_grad=1, device=cuda:0),
      %46 : Float(32, 1, 3, 3, 3, strides=[27, 27, 9, 3, 1], requires_grad=1, device=cuda:0),
      %47 : Float(32, strides=[1], requires_grad=1, device=cuda:0),
      %48 : Float(32, strides=[1], requires_grad=1, device=cuda:0),
      %49 : Float(32, strides=[1], requires_grad=1, device=cuda:0),
      %50 : Float(64, 32, 1, 1, 1, strides=[32, 1, 1, 1, 1], requires_grad=1, device=cuda:0),
      %51 : Float(64, strides=[1], requires_grad=1, device=cuda:0),
      %52 : Float(32, 64, 1, 1, 1, strides=[64, 1, 1, 1, 1], requires_grad=1, device=cuda:0),
      %53 : Float(32, strides=[1], requires_grad=1, device=cuda:0),
      %54 : Float(1, 64, 1, 1, 1, strides=[64, 1, 1, 1, 1], requires_grad=1, device=cuda:0),
      %55 : Float(1, 64, 1, 1, 1, strides=[64, 1, 1, 1, 1], requires_grad=1, device=cuda:0),
      %56 : Float(32, 1, 3, 3, 3, strides=[27, 27, 9, 3, 1], requires_grad=1, device=cuda:0),
      %57 : Float(32, strides=[1], requires_grad=1, device=cuda:0),
      %58 : Float(32, strides=[1], requires_grad=1, device=cuda:0),
      %59 : Float(32, strides=[1], requires_grad=1, device=cuda:0),
      %60 : Float(64, 32, 1, 1, 1, strides=[32, 1, 1, 1, 1], requires_grad=1, device=cuda:0),
      %61 : Float(64, strides=[1], requires_grad=1, device=cuda:0),
      %62 : Float(64, 64, 1, 1, 1, strides=[64, 1, 1, 1, 1], requires_grad=1, device=cuda:0),
      %63 : Float(64, strides=[1], requires_grad=1, device=cuda:0),
      %64 : Float(64, 32, 1, 1, 1, strides=[32, 1, 1, 1, 1], requires_grad=1, device=cuda:0),
      %65 : Float(64, strides=[1], requires_grad=1, device=cuda:0),
      %66 : Float(1, 128, 1, 1, 1, strides=[128, 1, 1, 1, 1], requires_grad=1, device=cuda:0),
      %67 : Float(1, 128, 1, 1, 1, strides=[128, 1, 1, 1, 1], requires_grad=1, device=cuda:0),
      %68 : Float(64, 1, 3, 3, 3, strides=[27, 27, 9, 3, 1], requires_grad=1, device=cuda:0),
      %69 : Float(64, strides=[1], requires_grad=1, device=cuda:0),
      %70 : Float(64, strides=[1], requires_grad=1, device=cuda:0),
      %71 : Float(64, strides=[1], requires_grad=1, device=cuda:0),
      %72 : Float(128, 64, 1, 1, 1, strides=[64, 1, 1, 1, 1], requires_grad=1, device=cuda:0),
      %73 : Float(128, strides=[1], requires_grad=1, device=cuda:0),
      %74 : Float(64, 128, 1, 1, 1, strides=[128, 1, 1, 1, 1], requires_grad=1, device=cuda:0),
      %75 : Float(64, strides=[1], requires_grad=1, device=cuda:0),
      %76 : Float(1, 128, 1, 1, 1, strides=[128, 1, 1, 1, 1], requires_grad=1, device=cuda:0),
      %77 : Float(1, 128, 1, 1, 1, strides=[128, 1, 1, 1, 1], requires_grad=1, device=cuda:0),
      %78 : Float(64, 1, 3, 3, 3, strides=[27, 27, 9, 3, 1], requires_grad=1, device=cuda:0),
      %79 : Float(64, strides=[1], requires_grad=1, device=cuda:0),
      %80 : Float(64, strides=[1], requires_grad=1, device=cuda:0),
      %81 : Float(64, strides=[1], requires_grad=1, device=cuda:0),
      %82 : Float(128, 64, 1, 1, 1, strides=[64, 1, 1, 1, 1], requires_grad=1, device=cuda:0),
      %83 : Float(128, strides=[1], requires_grad=1, device=cuda:0),
      %84 : Float(64, 128, 1, 1, 1, strides=[128, 1, 1, 1, 1], requires_grad=1, device=cuda:0),
      %85 : Float(64, strides=[1], requires_grad=1, device=cuda:0),
      %86 : Float(1, 128, 1, 1, 1, strides=[128, 1, 1, 1, 1], requires_grad=1, device=cuda:0),
      %87 : Float(1, 128, 1, 1, 1, strides=[128, 1, 1, 1, 1], requires_grad=1, device=cuda:0),
      %88 : Float(64, 1, 3, 3, 3, strides=[27, 27, 9, 3, 1], requires_grad=1, device=cuda:0),
      %89 : Float(64, strides=[1], requires_grad=1, device=cuda:0),
      %90 : Float(64, strides=[1], requires_grad=1, device=cuda:0),
      %91 : Float(64, strides=[1], requires_grad=1, device=cuda:0),
      %92 : Float(128, 64, 1, 1, 1, strides=[64, 1, 1, 1, 1], requires_grad=1, device=cuda:0),
      %93 : Float(128, strides=[1], requires_grad=1, device=cuda:0),
      %94 : Float(128, 128, 1, 1, 1, strides=[128, 1, 1, 1, 1], requires_grad=1, device=cuda:0),
      %95 : Float(128, strides=[1], requires_grad=1, device=cuda:0),
      %96 : Float(128, 64, 1, 1, 1, strides=[64, 1, 1, 1, 1], requires_grad=1, device=cuda:0),
      %97 : Float(128, strides=[1], requires_grad=1, device=cuda:0),
      %98 : Float(1, 256, 1, 1, 1, strides=[256, 1, 1, 1, 1], requires_grad=1, device=cuda:0),
      %99 : Float(1, 256, 1, 1, 1, strides=[256, 1, 1, 1, 1], requires_grad=1, device=cuda:0),
      %100 : Float(128, 1, 3, 3, 3, strides=[27, 27, 9, 3, 1], requires_grad=1, device=cuda:0),
      %101 : Float(128, strides=[1], requires_grad=1, device=cuda:0),
      %102 : Float(128, strides=[1], requires_grad=1, device=cuda:0),
      %103 : Float(128, strides=[1], requires_grad=1, device=cuda:0),
      %104 : Float(256, 128, 1, 1, 1, strides=[128, 1, 1, 1, 1], requires_grad=1, device=cuda:0),
      %105 : Float(256, strides=[1], requires_grad=1, device=cuda:0),
      %106 : Float(128, 256, 1, 1, 1, strides=[256, 1, 1, 1, 1], requires_grad=1, device=cuda:0),
      %107 : Float(128, strides=[1], requires_grad=1, device=cuda:0),
      %108 : Float(1, 256, 1, 1, 1, strides=[256, 1, 1, 1, 1], requires_grad=1, device=cuda:0),
      %109 : Float(1, 256, 1, 1, 1, strides=[256, 1, 1, 1, 1], requires_grad=1, device=cuda:0),
      %110 : Float(128, 1, 3, 3, 3, strides=[27, 27, 9, 3, 1], requires_grad=1, device=cuda:0),
      %111 : Float(128, strides=[1], requires_grad=1, device=cuda:0),
      %112 : Float(128, strides=[1], requires_grad=1, device=cuda:0),
      %113 : Float(128, strides=[1], requires_grad=1, device=cuda:0),
      %114 : Float(256, 128, 1, 1, 1, strides=[128, 1, 1, 1, 1], requires_grad=1, device=cuda:0),
      %115 : Float(256, strides=[1], requires_grad=1, device=cuda:0),
      %116 : Float(128, 256, 1, 1, 1, strides=[256, 1, 1, 1, 1], requires_grad=1, device=cuda:0),
      %117 : Float(128, strides=[1], requires_grad=1, device=cuda:0),
      %118 : Float(1, 256, 1, 1, 1, strides=[256, 1, 1, 1, 1], requires_grad=1, device=cuda:0),
      %119 : Float(1, 256, 1, 1, 1, strides=[256, 1, 1, 1, 1], requires_grad=1, device=cuda:0),
      %120 : Float(128, 1, 3, 3, 3, strides=[27, 27, 9, 3, 1], requires_grad=1, device=cuda:0),
      %121 : Float(128, strides=[1], requires_grad=1, device=cuda:0),
      %122 : Float(128, strides=[1], requires_grad=1, device=cuda:0),
      %123 : Float(128, strides=[1], requires_grad=1, device=cuda:0),
      %124 : Float(256, 128, 1, 1, 1, strides=[128, 1, 1, 1, 1], requires_grad=1, device=cuda:0),
      %125 : Float(256, strides=[1], requires_grad=1, device=cuda:0),
      %126 : Float(256, 256, 1, 1, 1, strides=[256, 1, 1, 1, 1], requires_grad=1, device=cuda:0),
      %127 : Float(256, strides=[1], requires_grad=1, device=cuda:0),
      %128 : Float(256, 128, 1, 1, 1, strides=[128, 1, 1, 1, 1], requires_grad=1, device=cuda:0),
      %129 : Float(256, strides=[1], requires_grad=1, device=cuda:0),
      %130 : Float(1, 512, 1, 1, 1, strides=[512, 1, 1, 1, 1], requires_grad=1, device=cuda:0),
      %131 : Float(1, 512, 1, 1, 1, strides=[512, 1, 1, 1, 1], requires_grad=1, device=cuda:0),
      %132 : Float(256, 1, 3, 3, 3, strides=[27, 27, 9, 3, 1], requires_grad=1, device=cuda:0),
      %133 : Float(256, strides=[1], requires_grad=1, device=cuda:0),
      %134 : Float(256, strides=[1], requires_grad=1, device=cuda:0),
      %135 : Float(256, strides=[1], requires_grad=1, device=cuda:0),
      %136 : Float(512, 256, 1, 1, 1, strides=[256, 1, 1, 1, 1], requires_grad=1, device=cuda:0),
      %137 : Float(512, strides=[1], requires_grad=1, device=cuda:0),
      %138 : Float(256, 512, 1, 1, 1, strides=[512, 1, 1, 1, 1], requires_grad=1, device=cuda:0),
      %139 : Float(256, strides=[1], requires_grad=1, device=cuda:0),
      %140 : Float(1, 512, 1, 1, 1, strides=[512, 1, 1, 1, 1], requires_grad=1, device=cuda:0),
      %141 : Float(1, 512, 1, 1, 1, strides=[512, 1, 1, 1, 1], requires_grad=1, device=cuda:0),
      %142 : Float(256, 1, 3, 3, 3, strides=[27, 27, 9, 3, 1], requires_grad=1, device=cuda:0),
      %143 : Float(256, strides=[1], requires_grad=1, device=cuda:0),
      %144 : Float(256, strides=[1], requires_grad=1, device=cuda:0),
      %145 : Float(256, strides=[1], requires_grad=1, device=cuda:0),
      %146 : Float(512, 256, 1, 1, 1, strides=[256, 1, 1, 1, 1], requires_grad=1, device=cuda:0),
      %147 : Float(512, strides=[1], requires_grad=1, device=cuda:0),
      %148 : Float(256, 512, 1, 1, 1, strides=[512, 1, 1, 1, 1], requires_grad=1, device=cuda:0),
      %149 : Float(256, strides=[1], requires_grad=1, device=cuda:0),
      %150 : Float(1, 512, 1, 1, 1, strides=[512, 1, 1, 1, 1], requires_grad=1, device=cuda:0),
      %151 : Float(1, 512, 1, 1, 1, strides=[512, 1, 1, 1, 1], requires_grad=1, device=cuda:0),
      %152 : Float(256, 1, 3, 3, 3, strides=[27, 27, 9, 3, 1], requires_grad=1, device=cuda:0),
      %153 : Float(256, strides=[1], requires_grad=1, device=cuda:0),
      %154 : Float(256, strides=[1], requires_grad=1, device=cuda:0),
      %155 : Float(256, strides=[1], requires_grad=1, device=cuda:0),
      %156 : Float(512, 256, 1, 1, 1, strides=[256, 1, 1, 1, 1], requires_grad=1, device=cuda:0),
      %157 : Float(512, strides=[1], requires_grad=1, device=cuda:0),
      %158 : Float(128, 512, 1, 1, 1, strides=[512, 1, 1, 1, 1], requires_grad=1, device=cuda:0),
      %159 : Float(128, strides=[1], requires_grad=1, device=cuda:0),
      %160 : Float(256, 128, 1, 1, 1, strides=[128, 1, 1, 1, 1], requires_grad=1, device=cuda:0),
      %161 : Float(128, strides=[1], requires_grad=1, device=cuda:0),
      %162 : Float(1, 256, 1, 1, 1, strides=[256, 1, 1, 1, 1], requires_grad=1, device=cuda:0),
      %163 : Float(1, 256, 1, 1, 1, strides=[256, 1, 1, 1, 1], requires_grad=1, device=cuda:0),
      %164 : Float(128, 1, 3, 3, 3, strides=[27, 27, 9, 3, 1], requires_grad=1, device=cuda:0),
      %165 : Float(128, strides=[1], requires_grad=1, device=cuda:0),
      %166 : Float(128, strides=[1], requires_grad=1, device=cuda:0),
      %167 : Float(128, strides=[1], requires_grad=1, device=cuda:0),
      %168 : Float(256, 128, 1, 1, 1, strides=[128, 1, 1, 1, 1], requires_grad=1, device=cuda:0),
      %169 : Float(256, strides=[1], requires_grad=1, device=cuda:0),
      %170 : Float(128, 256, 1, 1, 1, strides=[256, 1, 1, 1, 1], requires_grad=1, device=cuda:0),
      %171 : Float(128, strides=[1], requires_grad=1, device=cuda:0),
      %172 : Float(1, 256, 1, 1, 1, strides=[256, 1, 1, 1, 1], requires_grad=1, device=cuda:0),
      %173 : Float(1, 256, 1, 1, 1, strides=[256, 1, 1, 1, 1], requires_grad=1, device=cuda:0),
      %174 : Float(128, 1, 3, 3, 3, strides=[27, 27, 9, 3, 1], requires_grad=1, device=cuda:0),
      %175 : Float(128, strides=[1], requires_grad=1, device=cuda:0),
      %176 : Float(128, strides=[1], requires_grad=1, device=cuda:0),
      %177 : Float(128, strides=[1], requires_grad=1, device=cuda:0),
      %178 : Float(256, 128, 1, 1, 1, strides=[128, 1, 1, 1, 1], requires_grad=1, device=cuda:0),
      %179 : Float(256, strides=[1], requires_grad=1, device=cuda:0),
      %180 : Float(128, 256, 1, 1, 1, strides=[256, 1, 1, 1, 1], requires_grad=1, device=cuda:0),
      %181 : Float(128, strides=[1], requires_grad=1, device=cuda:0),
      %182 : Float(1, 256, 1, 1, 1, strides=[256, 1, 1, 1, 1], requires_grad=1, device=cuda:0),
      %183 : Float(1, 256, 1, 1, 1, strides=[256, 1, 1, 1, 1], requires_grad=1, device=cuda:0),
      %184 : Float(128, 1, 3, 3, 3, strides=[27, 27, 9, 3, 1], requires_grad=1, device=cuda:0),
      %185 : Float(128, strides=[1], requires_grad=1, device=cuda:0),
      %186 : Float(128, strides=[1], requires_grad=1, device=cuda:0),
      %187 : Float(128, strides=[1], requires_grad=1, device=cuda:0),
      %188 : Float(256, 128, 1, 1, 1, strides=[128, 1, 1, 1, 1], requires_grad=1, device=cuda:0),
      %189 : Float(256, strides=[1], requires_grad=1, device=cuda:0),
      %190 : Float(64, 256, 1, 1, 1, strides=[256, 1, 1, 1, 1], requires_grad=1, device=cuda:0),
      %191 : Float(64, strides=[1], requires_grad=1, device=cuda:0),
      %192 : Float(128, 64, 1, 1, 1, strides=[64, 1, 1, 1, 1], requires_grad=1, device=cuda:0),
      %193 : Float(64, strides=[1], requires_grad=1, device=cuda:0),
      %194 : Float(1, 128, 1, 1, 1, strides=[128, 1, 1, 1, 1], requires_grad=1, device=cuda:0),
      %195 : Float(1, 128, 1, 1, 1, strides=[128, 1, 1, 1, 1], requires_grad=1, device=cuda:0),
      %196 : Float(64, 1, 3, 3, 3, strides=[27, 27, 9, 3, 1], requires_grad=1, device=cuda:0),
      %197 : Float(64, strides=[1], requires_grad=1, device=cuda:0),
      %198 : Float(64, strides=[1], requires_grad=1, device=cuda:0),
      %199 : Float(64, strides=[1], requires_grad=1, device=cuda:0),
      %200 : Float(128, 64, 1, 1, 1, strides=[64, 1, 1, 1, 1], requires_grad=1, device=cuda:0),
      %201 : Float(128, strides=[1], requires_grad=1, device=cuda:0),
      %202 : Float(64, 128, 1, 1, 1, strides=[128, 1, 1, 1, 1], requires_grad=1, device=cuda:0),
      %203 : Float(64, strides=[1], requires_grad=1, device=cuda:0),
      %204 : Float(1, 128, 1, 1, 1, strides=[128, 1, 1, 1, 1], requires_grad=1, device=cuda:0),
      %205 : Float(1, 128, 1, 1, 1, strides=[128, 1, 1, 1, 1], requires_grad=1, device=cuda:0),
      %206 : Float(64, 1, 3, 3, 3, strides=[27, 27, 9, 3, 1], requires_grad=1, device=cuda:0),
      %207 : Float(64, strides=[1], requires_grad=1, device=cuda:0),
      %208 : Float(64, strides=[1], requires_grad=1, device=cuda:0),
      %209 : Float(64, strides=[1], requires_grad=1, device=cuda:0),
      %210 : Float(128, 64, 1, 1, 1, strides=[64, 1, 1, 1, 1], requires_grad=1, device=cuda:0),
      %211 : Float(128, strides=[1], requires_grad=1, device=cuda:0),
      %212 : Float(64, 128, 1, 1, 1, strides=[128, 1, 1, 1, 1], requires_grad=1, device=cuda:0),
      %213 : Float(64, strides=[1], requires_grad=1, device=cuda:0),
      %214 : Float(1, 128, 1, 1, 1, strides=[128, 1, 1, 1, 1], requires_grad=1, device=cuda:0),
      %215 : Float(1, 128, 1, 1, 1, strides=[128, 1, 1, 1, 1], requires_grad=1, device=cuda:0),
      %216 : Float(64, 1, 3, 3, 3, strides=[27, 27, 9, 3, 1], requires_grad=1, device=cuda:0),
      %217 : Float(64, strides=[1], requires_grad=1, device=cuda:0),
      %218 : Float(64, strides=[1], requires_grad=1, device=cuda:0),
      %219 : Float(64, strides=[1], requires_grad=1, device=cuda:0),
      %220 : Float(128, 64, 1, 1, 1, strides=[64, 1, 1, 1, 1], requires_grad=1, device=cuda:0),
      %221 : Float(128, strides=[1], requires_grad=1, device=cuda:0),
      %222 : Float(32, 128, 1, 1, 1, strides=[128, 1, 1, 1, 1], requires_grad=1, device=cuda:0),
      %223 : Float(32, strides=[1], requires_grad=1, device=cuda:0),
      %224 : Float(64, 32, 1, 1, 1, strides=[32, 1, 1, 1, 1], requires_grad=1, device=cuda:0),
      %225 : Float(32, strides=[1], requires_grad=1, device=cuda:0),
      %226 : Float(1, 64, 1, 1, 1, strides=[64, 1, 1, 1, 1], requires_grad=1, device=cuda:0),
      %227 : Float(1, 64, 1, 1, 1, strides=[64, 1, 1, 1, 1], requires_grad=1, device=cuda:0),
      %228 : Float(32, 1, 3, 3, 3, strides=[27, 27, 9, 3, 1], requires_grad=1, device=cuda:0),
      %229 : Float(32, strides=[1], requires_grad=1, device=cuda:0),
      %230 : Float(32, strides=[1], requires_grad=1, device=cuda:0),
      %231 : Float(32, strides=[1], requires_grad=1, device=cuda:0),
      %232 : Float(64, 32, 1, 1, 1, strides=[32, 1, 1, 1, 1], requires_grad=1, device=cuda:0),
      %233 : Float(64, strides=[1], requires_grad=1, device=cuda:0),
      %234 : Float(32, 64, 1, 1, 1, strides=[64, 1, 1, 1, 1], requires_grad=1, device=cuda:0),
      %235 : Float(32, strides=[1], requires_grad=1, device=cuda:0),
      %236 : Float(1, 64, 1, 1, 1, strides=[64, 1, 1, 1, 1], requires_grad=1, device=cuda:0),
      %237 : Float(1, 64, 1, 1, 1, strides=[64, 1, 1, 1, 1], requires_grad=1, device=cuda:0),
      %238 : Float(32, 1, 3, 3, 3, strides=[27, 27, 9, 3, 1], requires_grad=1, device=cuda:0),
      %239 : Float(32, strides=[1], requires_grad=1, device=cuda:0),
      %240 : Float(32, strides=[1], requires_grad=1, device=cuda:0),
      %241 : Float(32, strides=[1], requires_grad=1, device=cuda:0),
      %242 : Float(64, 32, 1, 1, 1, strides=[32, 1, 1, 1, 1], requires_grad=1, device=cuda:0),
      %243 : Float(64, strides=[1], requires_grad=1, device=cuda:0),
      %244 : Float(32, 64, 1, 1, 1, strides=[64, 1, 1, 1, 1], requires_grad=1, device=cuda:0),
      %245 : Float(32, strides=[1], requires_grad=1, device=cuda:0),
      %246 : Float(1, 64, 1, 1, 1, strides=[64, 1, 1, 1, 1], requires_grad=1, device=cuda:0),
      %247 : Float(1, 64, 1, 1, 1, strides=[64, 1, 1, 1, 1], requires_grad=1, device=cuda:0),
      %248 : Float(32, 1, 3, 3, 3, strides=[27, 27, 9, 3, 1], requires_grad=1, device=cuda:0),
      %249 : Float(32, strides=[1], requires_grad=1, device=cuda:0),
      %250 : Float(32, strides=[1], requires_grad=1, device=cuda:0),
      %251 : Float(32, strides=[1], requires_grad=1, device=cuda:0),
      %252 : Float(64, 32, 1, 1, 1, strides=[32, 1, 1, 1, 1], requires_grad=1, device=cuda:0),
      %253 : Float(64, strides=[1], requires_grad=1, device=cuda:0),
      %254 : Float(16, 64, 1, 1, 1, strides=[64, 1, 1, 1, 1], requires_grad=1, device=cuda:0),
      %255 : Float(16, strides=[1], requires_grad=1, device=cuda:0),
      %256 : Float(32, 16, 1, 1, 1, strides=[16, 1, 1, 1, 1], requires_grad=1, device=cuda:0),
      %257 : Float(16, strides=[1], requires_grad=1, device=cuda:0),
      %258 : Float(1, 32, 1, 1, 1, strides=[32, 1, 1, 1, 1], requires_grad=1, device=cuda:0),
      %259 : Float(1, 32, 1, 1, 1, strides=[32, 1, 1, 1, 1], requires_grad=1, device=cuda:0),
      %260 : Float(16, 1, 3, 3, 3, strides=[27, 27, 9, 3, 1], requires_grad=1, device=cuda:0),
      %261 : Float(16, strides=[1], requires_grad=1, device=cuda:0),
      %262 : Float(16, strides=[1], requires_grad=1, device=cuda:0),
      %263 : Float(16, strides=[1], requires_grad=1, device=cuda:0),
      %264 : Float(32, 16, 1, 1, 1, strides=[16, 1, 1, 1, 1], requires_grad=1, device=cuda:0),
      %265 : Float(32, strides=[1], requires_grad=1, device=cuda:0),
      %266 : Float(16, 32, 1, 1, 1, strides=[32, 1, 1, 1, 1], requires_grad=1, device=cuda:0),
      %267 : Float(16, strides=[1], requires_grad=1, device=cuda:0),
      %268 : Float(1, 32, 1, 1, 1, strides=[32, 1, 1, 1, 1], requires_grad=1, device=cuda:0),
      %269 : Float(1, 32, 1, 1, 1, strides=[32, 1, 1, 1, 1], requires_grad=1, device=cuda:0),
      %270 : Float(16, 1, 3, 3, 3, strides=[27, 27, 9, 3, 1], requires_grad=1, device=cuda:0),
      %271 : Float(16, strides=[1], requires_grad=1, device=cuda:0),
      %272 : Float(16, strides=[1], requires_grad=1, device=cuda:0),
      %273 : Float(16, strides=[1], requires_grad=1, device=cuda:0),
      %274 : Float(32, 16, 1, 1, 1, strides=[16, 1, 1, 1, 1], requires_grad=1, device=cuda:0),
      %275 : Float(32, strides=[1], requires_grad=1, device=cuda:0),
      %276 : Float(16, 32, 1, 1, 1, strides=[32, 1, 1, 1, 1], requires_grad=1, device=cuda:0),
      %277 : Float(16, strides=[1], requires_grad=1, device=cuda:0),
      %278 : Float(16, 1, 1, 1, 1, strides=[1, 1, 1, 1, 1], requires_grad=1, device=cuda:0),
      %279 : Float(1, strides=[1], requires_grad=1, device=cuda:0),
      %280 : Float(64, 64, 1, 1, 1, strides=[64, 1, 1, 1, 1], requires_grad=1, device=cuda:0),
      %281 : Float(64, strides=[1], requires_grad=1, device=cuda:0),
      %282 : Float(64, 64, 1, 1, 1, strides=[64, 1, 1, 1, 1], requires_grad=1, device=cuda:0),
      %283 : Float(64, strides=[1], requires_grad=1, device=cuda:0),
      %284 : Float(64, strides=[1], requires_grad=1, device=cuda:0),
      %285 : Float(64, strides=[1], requires_grad=0, device=cuda:0),
      %286 : Float(64, strides=[1], requires_grad=0, device=cuda:0),
      %287 : Long(requires_grad=0, device=cuda:0),
      %288 : Float(64, strides=[1], requires_grad=1, device=cuda:0),
      %289 : Float(64, strides=[1], requires_grad=1, device=cuda:0),
      %290 : Float(1, 1, 64, strides=[64, 64, 1], requires_grad=1, device=cuda:0),
      %291 : Float(1, 1, 64, strides=[64, 64, 1], requires_grad=1, device=cuda:0),
      %292 : Float(1, 1, 64, strides=[64, 64, 1], requires_grad=1, device=cuda:0),
      %293 : Float(64, 64, strides=[64, 1], requires_grad=1, device=cuda:0),
      %294 : Float(64, 64, strides=[64, 1], requires_grad=1, device=cuda:0),
      %295 : Float(64, 64, strides=[64, 1], requires_grad=1, device=cuda:0),
      %296 : Float(64, strides=[1], requires_grad=1, device=cuda:0),
      %297 : Float(64, strides=[1], requires_grad=1, device=cuda:0),
      %298 : Float(64, 64, strides=[64, 1], requires_grad=1, device=cuda:0),
      %299 : Float(64, strides=[1], requires_grad=1, device=cuda:0),
      %300 : Float(64, strides=[1], requires_grad=1, device=cuda:0),
      %301 : Float(64, 64, 1, 1, 1, strides=[64, 1, 1, 1, 1], requires_grad=1, device=cuda:0),
      %302 : Float(128, 64, 3, 3, 3, strides=[1728, 27, 9, 3, 1], requires_grad=1, device=cuda:0),
      %303 : Float(128, strides=[1], requires_grad=1, device=cuda:0),
      %304 : Float(128, 128, 1, 1, 1, strides=[128, 1, 1, 1, 1], requires_grad=1, device=cuda:0),
      %305 : Float(128, strides=[1], requires_grad=1, device=cuda:0),
      %306 : Float(128, strides=[1], requires_grad=1, device=cuda:0),
      %307 : Float(128, strides=[1], requires_grad=0, device=cuda:0),
      %308 : Float(128, strides=[1], requires_grad=0, device=cuda:0),
      %309 : Long(requires_grad=0, device=cuda:0),
      %310 : Float(128, strides=[1], requires_grad=1, device=cuda:0),
      %311 : Float(128, strides=[1], requires_grad=1, device=cuda:0),
      %312 : Float(1, 1, 128, strides=[128, 128, 1], requires_grad=1, device=cuda:0),
      %313 : Float(1, 1, 128, strides=[128, 128, 1], requires_grad=1, device=cuda:0),
      %314 : Float(1, 1, 128, strides=[128, 128, 1], requires_grad=1, device=cuda:0),
      %315 : Float(128, 128, strides=[128, 1], requires_grad=1, device=cuda:0),
      %316 : Float(128, 128, strides=[128, 1], requires_grad=1, device=cuda:0),
      %317 : Float(128, 128, strides=[128, 1], requires_grad=1, device=cuda:0),
      %318 : Float(128, strides=[1], requires_grad=1, device=cuda:0),
      %319 : Float(128, strides=[1], requires_grad=1, device=cuda:0),
      %320 : Float(128, 128, strides=[128, 1], requires_grad=1, device=cuda:0),
      %321 : Float(128, strides=[1], requires_grad=1, device=cuda:0),
      %322 : Float(128, strides=[1], requires_grad=1, device=cuda:0),
      %323 : Float(128, 128, 1, 1, 1, strides=[128, 1, 1, 1, 1], requires_grad=1, device=cuda:0),
      %324 : Float(256, 128, 3, 3, 3, strides=[3456, 27, 9, 3, 1], requires_grad=1, device=cuda:0),
      %325 : Float(256, strides=[1], requires_grad=1, device=cuda:0),
      %326 : Float(64, 128, 1, 1, 1, strides=[128, 1, 1, 1, 1], requires_grad=1, device=cuda:0),
      %327 : Float(64, strides=[1], requires_grad=1, device=cuda:0),
      %328 : Float(64, strides=[1], requires_grad=1, device=cuda:0),
      %329 : Float(64, strides=[1], requires_grad=0, device=cuda:0),
      %330 : Float(64, strides=[1], requires_grad=0, device=cuda:0),
      %331 : Long(requires_grad=0, device=cuda:0),
      %332 : Float(128, 256, 1, 1, 1, strides=[256, 1, 1, 1, 1], requires_grad=1, device=cuda:0),
      %333 : Float(128, strides=[1], requires_grad=1, device=cuda:0),
      %334 : Float(128, strides=[1], requires_grad=1, device=cuda:0),
      %335 : Float(128, strides=[1], requires_grad=0, device=cuda:0),
      %336 : Float(128, strides=[1], requires_grad=0, device=cuda:0),
      %337 : Long(requires_grad=0, device=cuda:0),
      %338 : Float(256, 512, 1, 1, 1, strides=[512, 1, 1, 1, 1], requires_grad=1, device=cuda:0),
      %339 : Float(256, strides=[1], requires_grad=1, device=cuda:0),
      %340 : Float(256, strides=[1], requires_grad=1, device=cuda:0),
      %341 : Float(256, strides=[1], requires_grad=0, device=cuda:0),
      %342 : Float(256, strides=[1], requires_grad=0, device=cuda:0),
      %343 : Long(requires_grad=0, device=cuda:0),
      %344 : Float(256, 64, 1, 1, 7, strides=[448, 7, 7, 7, 1], requires_grad=1, device=cuda:0),
      %345 : Float(256, 64, 1, 7, 1, strides=[448, 7, 7, 1, 1], requires_grad=1, device=cuda:0),
      %346 : Float(256, 64, 7, 1, 1, strides=[448, 7, 1, 1, 1], requires_grad=1, device=cuda:0),
      %347 : Float(256, strides=[1], requires_grad=1, device=cuda:0),
      %348 : Float(256, strides=[1], requires_grad=1, device=cuda:0),
      %349 : Float(256, strides=[1], requires_grad=0, device=cuda:0),
      %350 : Float(256, strides=[1], requires_grad=0, device=cuda:0),
      %351 : Long(requires_grad=0, device=cuda:0),
      %352 : Float(2048, 256, 1, 1, 1, strides=[256, 1, 1, 1, 1], requires_grad=1, device=cuda:0),
      %353 : Float(128, 256, 1, 1, 1, strides=[256, 1, 1, 1, 1], requires_grad=1, device=cuda:0),
      %354 : Float(32, 128, 1, 1, 1, strides=[128, 1, 1, 1, 1], requires_grad=1, device=cuda:0),
      %355 : Float(32, strides=[1], requires_grad=1, device=cuda:0),
      %356 : Float(128, 32, 1, 1, 1, strides=[32, 1, 1, 1, 1], requires_grad=1, device=cuda:0),
      %357 : Float(128, strides=[1], requires_grad=1, device=cuda:0),
      %358 : Float(1, 256, 1, 1, 1, strides=[256, 1, 1, 1, 1], requires_grad=1, device=cuda:0),
      %359 : Float(1, 256, 1, 1, 1, strides=[256, 1, 1, 1, 1], requires_grad=1, device=cuda:0),
      %360 : Float(128, 1, 3, 3, 3, strides=[27, 27, 9, 3, 1], requires_grad=1, device=cuda:0),
      %361 : Float(128, strides=[1], requires_grad=1, device=cuda:0),
      %362 : Float(128, strides=[1], requires_grad=1, device=cuda:0),
      %363 : Float(128, strides=[1], requires_grad=1, device=cuda:0),
      %364 : Float(256, 128, 1, 1, 1, strides=[128, 1, 1, 1, 1], requires_grad=1, device=cuda:0),
      %365 : Float(256, strides=[1], requires_grad=1, device=cuda:0),
      %366 : Float(128, 256, 1, 1, 1, strides=[256, 1, 1, 1, 1], requires_grad=1, device=cuda:0),
      %367 : Float(128, strides=[1], requires_grad=1, device=cuda:0),
      %368 : Float(1, 256, 1, 1, 1, strides=[256, 1, 1, 1, 1], requires_grad=1, device=cuda:0),
      %369 : Float(1, 256, 1, 1, 1, strides=[256, 1, 1, 1, 1], requires_grad=1, device=cuda:0),
      %370 : Float(128, 1, 3, 3, 3, strides=[27, 27, 9, 3, 1], requires_grad=1, device=cuda:0),
      %371 : Float(128, strides=[1], requires_grad=1, device=cuda:0),
      %372 : Float(128, strides=[1], requires_grad=1, device=cuda:0),
      %373 : Float(128, strides=[1], requires_grad=1, device=cuda:0),
      %374 : Float(256, 128, 1, 1, 1, strides=[128, 1, 1, 1, 1], requires_grad=1, device=cuda:0),
      %375 : Float(256, strides=[1], requires_grad=1, device=cuda:0),
      %376 : Float(128, 256, 1, 1, 1, strides=[256, 1, 1, 1, 1], requires_grad=1, device=cuda:0),
      %377 : Float(128, strides=[1], requires_grad=1, device=cuda:0),
      %378 : Float(128, 32, 1, 1, 7, strides=[224, 7, 7, 7, 1], requires_grad=1, device=cuda:0),
      %379 : Float(128, 32, 1, 7, 1, strides=[224, 7, 7, 1, 1], requires_grad=1, device=cuda:0),
      %380 : Float(128, 32, 7, 1, 1, strides=[224, 7, 1, 1, 1], requires_grad=1, device=cuda:0),
      %381 : Float(128, strides=[1], requires_grad=1, device=cuda:0),
      %382 : Float(128, strides=[1], requires_grad=1, device=cuda:0),
      %383 : Float(128, strides=[1], requires_grad=0, device=cuda:0),
      %384 : Float(128, strides=[1], requires_grad=0, device=cuda:0),
      %385 : Long(requires_grad=0, device=cuda:0),
      %386 : Float(1024, 128, 1, 1, 1, strides=[128, 1, 1, 1, 1], requires_grad=1, device=cuda:0),
      %387 : Float(64, 128, 1, 1, 1, strides=[128, 1, 1, 1, 1], requires_grad=1, device=cuda:0),
      %388 : Float(16, 64, 1, 1, 1, strides=[64, 1, 1, 1, 1], requires_grad=1, device=cuda:0),
      %389 : Float(16, strides=[1], requires_grad=1, device=cuda:0),
      %390 : Float(64, 16, 1, 1, 1, strides=[16, 1, 1, 1, 1], requires_grad=1, device=cuda:0),
      %391 : Float(64, strides=[1], requires_grad=1, device=cuda:0),
      %392 : Float(1, 128, 1, 1, 1, strides=[128, 1, 1, 1, 1], requires_grad=1, device=cuda:0),
      %393 : Float(1, 128, 1, 1, 1, strides=[128, 1, 1, 1, 1], requires_grad=1, device=cuda:0),
      %394 : Float(64, 1, 3, 3, 3, strides=[27, 27, 9, 3, 1], requires_grad=1, device=cuda:0),
      %395 : Float(64, strides=[1], requires_grad=1, device=cuda:0),
      %396 : Float(64, strides=[1], requires_grad=1, device=cuda:0),
      %397 : Float(64, strides=[1], requires_grad=1, device=cuda:0),
      %398 : Float(128, 64, 1, 1, 1, strides=[64, 1, 1, 1, 1], requires_grad=1, device=cuda:0),
      %399 : Float(128, strides=[1], requires_grad=1, device=cuda:0),
      %400 : Float(64, 128, 1, 1, 1, strides=[128, 1, 1, 1, 1], requires_grad=1, device=cuda:0),
      %401 : Float(64, strides=[1], requires_grad=1, device=cuda:0),
      %402 : Float(1, 128, 1, 1, 1, strides=[128, 1, 1, 1, 1], requires_grad=1, device=cuda:0),
      %403 : Float(1, 128, 1, 1, 1, strides=[128, 1, 1, 1, 1], requires_grad=1, device=cuda:0),
      %404 : Float(64, 1, 3, 3, 3, strides=[27, 27, 9, 3, 1], requires_grad=1, device=cuda:0),
      %405 : Float(64, strides=[1], requires_grad=1, device=cuda:0),
      %406 : Float(64, strides=[1], requires_grad=1, device=cuda:0),
      %407 : Float(64, strides=[1], requires_grad=1, device=cuda:0),
      %408 : Float(128, 64, 1, 1, 1, strides=[64, 1, 1, 1, 1], requires_grad=1, device=cuda:0),
      %409 : Float(128, strides=[1], requires_grad=1, device=cuda:0),
      %410 : Float(64, 128, 1, 1, 1, strides=[128, 1, 1, 1, 1], requires_grad=1, device=cuda:0),
      %411 : Float(64, strides=[1], requires_grad=1, device=cuda:0),
      %412 : Float(64, 16, 1, 1, 7, strides=[112, 7, 7, 7, 1], requires_grad=1, device=cuda:0),
      %413 : Float(64, 16, 1, 7, 1, strides=[112, 7, 7, 1, 1], requires_grad=1, device=cuda:0),
      %414 : Float(64, 16, 7, 1, 1, strides=[112, 7, 1, 1, 1], requires_grad=1, device=cuda:0),
      %415 : Float(64, strides=[1], requires_grad=1, device=cuda:0),
      %416 : Float(64, strides=[1], requires_grad=1, device=cuda:0),
      %417 : Float(64, strides=[1], requires_grad=0, device=cuda:0),
      %418 : Float(64, strides=[1], requires_grad=0, device=cuda:0),
      %419 : Long(requires_grad=0, device=cuda:0),
      %420 : Float(512, 64, 1, 1, 1, strides=[64, 1, 1, 1, 1], requires_grad=1, device=cuda:0),
      %421 : Float(32, 64, 1, 1, 1, strides=[64, 1, 1, 1, 1], requires_grad=1, device=cuda:0),
      %422 : Float(8, 32, 1, 1, 1, strides=[32, 1, 1, 1, 1], requires_grad=1, device=cuda:0),
      %423 : Float(8, strides=[1], requires_grad=1, device=cuda:0),
      %424 : Float(32, 8, 1, 1, 1, strides=[8, 1, 1, 1, 1], requires_grad=1, device=cuda:0),
      %425 : Float(32, strides=[1], requires_grad=1, device=cuda:0),
      %426 : Float(1, 64, 1, 1, 1, strides=[64, 1, 1, 1, 1], requires_grad=1, device=cuda:0),
      %427 : Float(1, 64, 1, 1, 1, strides=[64, 1, 1, 1, 1], requires_grad=1, device=cuda:0),
      %428 : Float(32, 1, 3, 3, 3, strides=[27, 27, 9, 3, 1], requires_grad=1, device=cuda:0),
      %429 : Float(32, strides=[1], requires_grad=1, device=cuda:0),
      %430 : Float(32, strides=[1], requires_grad=1, device=cuda:0),
      %431 : Float(32, strides=[1], requires_grad=1, device=cuda:0),
      %432 : Float(64, 32, 1, 1, 1, strides=[32, 1, 1, 1, 1], requires_grad=1, device=cuda:0),
      %433 : Float(64, strides=[1], requires_grad=1, device=cuda:0),
      %434 : Float(32, 64, 1, 1, 1, strides=[64, 1, 1, 1, 1], requires_grad=1, device=cuda:0),
      %435 : Float(32, strides=[1], requires_grad=1, device=cuda:0),
      %436 : Float(1, 64, 1, 1, 1, strides=[64, 1, 1, 1, 1], requires_grad=1, device=cuda:0),
      %437 : Float(1, 64, 1, 1, 1, strides=[64, 1, 1, 1, 1], requires_grad=1, device=cuda:0),
      %438 : Float(32, 1, 3, 3, 3, strides=[27, 27, 9, 3, 1], requires_grad=1, device=cuda:0),
      %439 : Float(32, strides=[1], requires_grad=1, device=cuda:0),
      %440 : Float(32, strides=[1], requires_grad=1, device=cuda:0),
      %441 : Float(32, strides=[1], requires_grad=1, device=cuda:0),
      %442 : Float(64, 32, 1, 1, 1, strides=[32, 1, 1, 1, 1], requires_grad=1, device=cuda:0),
      %443 : Float(64, strides=[1], requires_grad=1, device=cuda:0),
      %444 : Float(32, 64, 1, 1, 1, strides=[64, 1, 1, 1, 1], requires_grad=1, device=cuda:0),
      %445 : Float(32, strides=[1], requires_grad=1, device=cuda:0),
      %446 : Float(32, 8, 1, 1, 7, strides=[56, 7, 7, 7, 1], requires_grad=1, device=cuda:0),
      %447 : Float(32, 8, 1, 7, 1, strides=[56, 7, 7, 1, 1], requires_grad=1, device=cuda:0),
      %448 : Float(32, 8, 7, 1, 1, strides=[56, 7, 1, 1, 1], requires_grad=1, device=cuda:0),
      %449 : Float(32, strides=[1], requires_grad=1, device=cuda:0),
      %450 : Float(32, strides=[1], requires_grad=1, device=cuda:0),
      %451 : Float(32, strides=[1], requires_grad=0, device=cuda:0),
      %452 : Float(32, strides=[1], requires_grad=0, device=cuda:0),
      %453 : Long(requires_grad=0, device=cuda:0),
      %454 : Float(256, 32, 1, 1, 1, strides=[32, 1, 1, 1, 1], requires_grad=1, device=cuda:0),
      %455 : Float(16, 32, 1, 1, 1, strides=[32, 1, 1, 1, 1], requires_grad=1, device=cuda:0),
      %456 : Float(4, 16, 1, 1, 1, strides=[16, 1, 1, 1, 1], requires_grad=1, device=cuda:0),
      %457 : Float(4, strides=[1], requires_grad=1, device=cuda:0),
      %458 : Float(16, 4, 1, 1, 1, strides=[4, 1, 1, 1, 1], requires_grad=1, device=cuda:0),
      %459 : Float(16, strides=[1], requires_grad=1, device=cuda:0),
      %460 : Float(1, 32, 1, 1, 1, strides=[32, 1, 1, 1, 1], requires_grad=1, device=cuda:0),
      %461 : Float(1, 32, 1, 1, 1, strides=[32, 1, 1, 1, 1], requires_grad=1, device=cuda:0),
      %462 : Float(16, 1, 3, 3, 3, strides=[27, 27, 9, 3, 1], requires_grad=1, device=cuda:0),
      %463 : Float(16, strides=[1], requires_grad=1, device=cuda:0),
      %464 : Float(16, strides=[1], requires_grad=1, device=cuda:0),
      %465 : Float(16, strides=[1], requires_grad=1, device=cuda:0),
      %466 : Float(32, 16, 1, 1, 1, strides=[16, 1, 1, 1, 1], requires_grad=1, device=cuda:0),
      %467 : Float(32, strides=[1], requires_grad=1, device=cuda:0),
      %468 : Float(16, 32, 1, 1, 1, strides=[32, 1, 1, 1, 1], requires_grad=1, device=cuda:0),
      %469 : Float(16, strides=[1], requires_grad=1, device=cuda:0),
      %470 : Float(1, 32, 1, 1, 1, strides=[32, 1, 1, 1, 1], requires_grad=1, device=cuda:0),
      %471 : Float(1, 32, 1, 1, 1, strides=[32, 1, 1, 1, 1], requires_grad=1, device=cuda:0),
      %472 : Float(16, 1, 3, 3, 3, strides=[27, 27, 9, 3, 1], requires_grad=1, device=cuda:0),
      %473 : Float(16, strides=[1], requires_grad=1, device=cuda:0),
      %474 : Float(16, strides=[1], requires_grad=1, device=cuda:0),
      %475 : Float(16, strides=[1], requires_grad=1, device=cuda:0),
      %476 : Float(32, 16, 1, 1, 1, strides=[16, 1, 1, 1, 1], requires_grad=1, device=cuda:0),
      %477 : Float(32, strides=[1], requires_grad=1, device=cuda:0),
      %478 : Float(16, 32, 1, 1, 1, strides=[32, 1, 1, 1, 1], requires_grad=1, device=cuda:0),
      %479 : Float(16, strides=[1], requires_grad=1, device=cuda:0),
      %480 : Float(16, 2, 1, 1, 1, strides=[2, 1, 1, 1, 1], requires_grad=1, device=cuda:0),
      %481 : Float(2, strides=[1], requires_grad=1, device=cuda:0),
      %482 : Float(32, 2, 1, 1, 1, strides=[2, 1, 1, 1, 1], requires_grad=1, device=cuda:0),
      %483 : Float(2, strides=[1], requires_grad=1, device=cuda:0),
      %484 : Float(64, 2, 1, 1, 1, strides=[2, 1, 1, 1, 1], requires_grad=1, device=cuda:0),
      %485 : Float(2, strides=[1], requires_grad=1, device=cuda:0),
      %486 : Float(128, 2, 1, 1, 1, strides=[2, 1, 1, 1, 1], requires_grad=1, device=cuda:0),
      %487 : Float(2, strides=[1], requires_grad=1, device=cuda:0),
      %488 : Float(256, 2, 1, 1, 1, strides=[2, 1, 1, 1, 1], requires_grad=1, device=cuda:0),
      %489 : Float(2, strides=[1], requires_grad=1, device=cuda:0)):
  %9027 : int[] = prim::Constant[value=[1, 1, 1]]()
  %9028 : int[] = prim::Constant[value=[0, 0, 0]]()
  %9029 : int[] = prim::Constant[value=[1, 1, 1]]()
  %1482 : bool = prim::Constant[value=0]() # /home/fangzheng/miniconda3/envs/zl_nnunetv1/lib/python3.9/site-packages/torch/nn/modules/conv.py:602:0
  %9030 : int[] = prim::Constant[value=[0, 0, 0]]()
  %1487 : int = prim::Constant[value=1]() # /home/fangzheng/miniconda3/envs/zl_nnunetv1/lib/python3.9/site-packages/torch/nn/modules/conv.py:602:0
  %1488 : bool = prim::Constant[value=1]() # /home/fangzheng/miniconda3/envs/zl_nnunetv1/lib/python3.9/site-packages/torch/nn/modules/conv.py:602:0
  %1489 : bool = prim::Constant[value=0]() # /home/fangzheng/miniconda3/envs/zl_nnunetv1/lib/python3.9/site-packages/torch/nn/modules/conv.py:602:0
  %1490 : bool = prim::Constant[value=1]() # /home/fangzheng/miniconda3/envs/zl_nnunetv1/lib/python3.9/site-packages/torch/nn/modules/conv.py:602:0
  %1491 : bool = prim::Constant[value=1]() # /home/fangzheng/miniconda3/envs/zl_nnunetv1/lib/python3.9/site-packages/torch/nn/modules/conv.py:602:0
  %input.3 : Float(1, 16, 64, 64, 64, strides=[4194304, 262144, 4096, 64, 1], requires_grad=0, device=cuda:0) = aten::_convolution(%input.1, %2, %3, %9027, %9028, %9029, %1482, %9030, %1487, %1488, %1489, %1490, %1491) # /home/fangzheng/miniconda3/envs/zl_nnunetv1/lib/python3.9/site-packages/torch/nn/modules/conv.py:602:0
  %9031 : int[] = prim::Constant[value=[1, 1, 1]]()
  %9032 : int[] = prim::Constant[value=[1, 1, 1]]()
  %9033 : int[] = prim::Constant[value=[1, 1, 1]]()
  %1505 : bool = prim::Constant[value=0]() # /home/fangzheng/miniconda3/envs/zl_nnunetv1/lib/python3.9/site-packages/torch/nn/modules/conv.py:602:0
  %9034 : int[] = prim::Constant[value=[0, 0, 0]]()
  %1510 : int = prim::Constant[value=16]() # /home/fangzheng/miniconda3/envs/zl_nnunetv1/lib/python3.9/site-packages/torch/nn/modules/conv.py:602:0
  %1511 : bool = prim::Constant[value=1]() # /home/fangzheng/miniconda3/envs/zl_nnunetv1/lib/python3.9/site-packages/torch/nn/modules/conv.py:602:0
  %1512 : bool = prim::Constant[value=0]() # /home/fangzheng/miniconda3/envs/zl_nnunetv1/lib/python3.9/site-packages/torch/nn/modules/conv.py:602:0
  %1513 : bool = prim::Constant[value=1]() # /home/fangzheng/miniconda3/envs/zl_nnunetv1/lib/python3.9/site-packages/torch/nn/modules/conv.py:602:0
  %1514 : bool = prim::Constant[value=1]() # /home/fangzheng/miniconda3/envs/zl_nnunetv1/lib/python3.9/site-packages/torch/nn/modules/conv.py:602:0
  %input.5 : Float(1, 16, 64, 64, 64, strides=[4194304, 262144, 4096, 64, 1], requires_grad=0, device=cuda:0) = aten::_convolution(%input.3, %6, %7, %9031, %9032, %9033, %1505, %9034, %1510, %1511, %1512, %1513, %1514) # /home/fangzheng/miniconda3/envs/zl_nnunetv1/lib/python3.9/site-packages/torch/nn/modules/conv.py:602:0
  %1546 : int = prim::Constant[value=16]() # /home/fangzheng/miniconda3/envs/zl_nnunetv1/lib/python3.9/site-packages/torch/nn/functional.py:2516:0
  %1547 : float = prim::Constant[value=1.0000000000000001e-05]() # /home/fangzheng/miniconda3/envs/zl_nnunetv1/lib/python3.9/site-packages/torch/nn/functional.py:2516:0
  %1548 : bool = prim::Constant[value=1]() # /home/fangzheng/miniconda3/envs/zl_nnunetv1/lib/python3.9/site-packages/torch/nn/functional.py:2516:0
  %input.7 : Float(1, 16, 64, 64, 64, strides=[4194304, 262144, 4096, 64, 1], requires_grad=1, device=cuda:0) = aten::group_norm(%input.5, %1546, %8, %9, %1547, %1548) # /home/fangzheng/miniconda3/envs/zl_nnunetv1/lib/python3.9/site-packages/torch/nn/functional.py:2516:0
  %9035 : int[] = prim::Constant[value=[1, 1, 1]]()
  %9036 : int[] = prim::Constant[value=[0, 0, 0]]()
  %9037 : int[] = prim::Constant[value=[1, 1, 1]]()
  %1562 : bool = prim::Constant[value=0]() # /home/fangzheng/miniconda3/envs/zl_nnunetv1/lib/python3.9/site-packages/torch/nn/modules/conv.py:602:0
  %9038 : int[] = prim::Constant[value=[0, 0, 0]]()
  %1567 : int = prim::Constant[value=1]() # /home/fangzheng/miniconda3/envs/zl_nnunetv1/lib/python3.9/site-packages/torch/nn/modules/conv.py:602:0
  %1568 : bool = prim::Constant[value=1]() # /home/fangzheng/miniconda3/envs/zl_nnunetv1/lib/python3.9/site-packages/torch/nn/modules/conv.py:602:0
  %1569 : bool = prim::Constant[value=0]() # /home/fangzheng/miniconda3/envs/zl_nnunetv1/lib/python3.9/site-packages/torch/nn/modules/conv.py:602:0
  %1570 : bool = prim::Constant[value=1]() # /home/fangzheng/miniconda3/envs/zl_nnunetv1/lib/python3.9/site-packages/torch/nn/modules/conv.py:602:0
  %1571 : bool = prim::Constant[value=1]() # /home/fangzheng/miniconda3/envs/zl_nnunetv1/lib/python3.9/site-packages/torch/nn/modules/conv.py:602:0
  %1572 : Float(1, 32, 64, 64, 64, strides=[8388608, 262144, 4096, 64, 1], requires_grad=0, device=cuda:0) = aten::_convolution(%input.7, %10, %11, %9035, %9036, %9037, %1562, %9038, %1567, %1568, %1569, %1570, %1571) # /home/fangzheng/miniconda3/envs/zl_nnunetv1/lib/python3.9/site-packages/torch/nn/modules/conv.py:602:0
  %1573 : str = prim::Constant[value="none"]() # /home/fangzheng/miniconda3/envs/zl_nnunetv1/lib/python3.9/site-packages/torch/nn/modules/activation.py:681:0
  %x1.1 : Float(1, 32, 64, 64, 64, strides=[8388608, 262144, 4096, 64, 1], requires_grad=1, device=cuda:0) = aten::gelu(%1572, %1573) # /home/fangzheng/miniconda3/envs/zl_nnunetv1/lib/python3.9/site-packages/torch/nn/modules/activation.py:681:0
  %1575 : int = prim::Constant[value=2]() # /home/fangzheng/miniconda3/envs/zl_nnunetv1/lib/python3.9/site-packages/torch/functional.py:1495:0
  %9039 : int[] = prim::Constant[value=[-3, -2, -1]]()
  %1580 : bool = prim::Constant[value=1]() # /home/fangzheng/miniconda3/envs/zl_nnunetv1/lib/python3.9/site-packages/torch/functional.py:1495:0
  %1581 : Float(1, 32, 1, 1, 1, strides=[32, 1, 1, 1, 1], requires_grad=1, device=cuda:0) = aten::norm(%x1.1, %1575, %9039, %1580) # /home/fangzheng/miniconda3/envs/zl_nnunetv1/lib/python3.9/site-packages/torch/functional.py:1495:0
  %9040 : int[] = prim::Constant[value=[1]]()
  %1584 : bool = prim::Constant[value=1]() # /home/fangzheng/zoule/mednext/nnunet_mednext/network_architecture/mednextv1/blocks.py:96:0
  %1585 : NoneType = prim::Constant()
  %1586 : Float(1, 1, 1, 1, 1, strides=[1, 1, 1, 1, 1], requires_grad=1, device=cuda:0) = aten::mean(%1581, %9040, %1584, %1585) # /home/fangzheng/zoule/mednext/nnunet_mednext/network_architecture/mednextv1/blocks.py:96:0
  %1588 : int = prim::Constant[value=1]() # /home/fangzheng/zoule/mednext/nnunet_mednext/network_architecture/mednextv1/blocks.py:96:0
  %9709 : float = prim::Constant[value=9.9999999999999995e-07]()
  %9710 : Float(1, 1, 1, 1, 1, strides=[1, 1, 1, 1, 1], requires_grad=1, device=cuda:0) = aten::add(%1586, %9709, %1588) # /home/fangzheng/zoule/mednext/nnunet_mednext/network_architecture/mednextv1/blocks.py:96:0
  %1590 : Float(1, 32, 1, 1, 1, strides=[32, 1, 1, 1, 1], requires_grad=1, device=cuda:0) = aten::div(%1581, %9710) # /home/fangzheng/zoule/mednext/nnunet_mednext/network_architecture/mednextv1/blocks.py:96:0
  %1591 : Float(1, 32, 64, 64, 64, strides=[8388608, 262144, 4096, 64, 1], requires_grad=1, device=cuda:0) = aten::mul(%x1.1, %1590) # /home/fangzheng/zoule/mednext/nnunet_mednext/network_architecture/mednextv1/blocks.py:97:0
  %1592 : Float(1, 32, 64, 64, 64, strides=[8388608, 262144, 4096, 64, 1], requires_grad=1, device=cuda:0) = aten::mul(%5, %1591) # /home/fangzheng/zoule/mednext/nnunet_mednext/network_architecture/mednextv1/blocks.py:97:0
  %1593 : int = prim::Constant[value=1]() # /home/fangzheng/zoule/mednext/nnunet_mednext/network_architecture/mednextv1/blocks.py:97:0
  %1594 : Float(1, 32, 64, 64, 64, strides=[8388608, 262144, 4096, 64, 1], requires_grad=1, device=cuda:0) = aten::add(%1592, %4, %1593) # /home/fangzheng/zoule/mednext/nnunet_mednext/network_architecture/mednextv1/blocks.py:97:0
  %1595 : int = prim::Constant[value=1]() # /home/fangzheng/zoule/mednext/nnunet_mednext/network_architecture/mednextv1/blocks.py:97:0
  %input.9 : Float(1, 32, 64, 64, 64, strides=[8388608, 262144, 4096, 64, 1], requires_grad=1, device=cuda:0) = aten::add(%1594, %x1.1, %1595) # /home/fangzheng/zoule/mednext/nnunet_mednext/network_architecture/mednextv1/blocks.py:97:0
  %9041 : int[] = prim::Constant[value=[1, 1, 1]]()
  %9042 : int[] = prim::Constant[value=[0, 0, 0]]()
  %9043 : int[] = prim::Constant[value=[1, 1, 1]]()
  %1609 : bool = prim::Constant[value=0]() # /home/fangzheng/miniconda3/envs/zl_nnunetv1/lib/python3.9/site-packages/torch/nn/modules/conv.py:602:0
  %9044 : int[] = prim::Constant[value=[0, 0, 0]]()
  %1614 : int = prim::Constant[value=1]() # /home/fangzheng/miniconda3/envs/zl_nnunetv1/lib/python3.9/site-packages/torch/nn/modules/conv.py:602:0
  %1615 : bool = prim::Constant[value=1]() # /home/fangzheng/miniconda3/envs/zl_nnunetv1/lib/python3.9/site-packages/torch/nn/modules/conv.py:602:0
  %1616 : bool = prim::Constant[value=0]() # /home/fangzheng/miniconda3/envs/zl_nnunetv1/lib/python3.9/site-packages/torch/nn/modules/conv.py:602:0
  %1617 : bool = prim::Constant[value=1]() # /home/fangzheng/miniconda3/envs/zl_nnunetv1/lib/python3.9/site-packages/torch/nn/modules/conv.py:602:0
  %1618 : bool = prim::Constant[value=1]() # /home/fangzheng/miniconda3/envs/zl_nnunetv1/lib/python3.9/site-packages/torch/nn/modules/conv.py:602:0
  %1619 : Float(1, 16, 64, 64, 64, strides=[4194304, 262144, 4096, 64, 1], requires_grad=0, device=cuda:0) = aten::_convolution(%input.9, %12, %13, %9041, %9042, %9043, %1609, %9044, %1614, %1615, %1616, %1617, %1618) # /home/fangzheng/miniconda3/envs/zl_nnunetv1/lib/python3.9/site-packages/torch/nn/modules/conv.py:602:0
  %1620 : int = prim::Constant[value=1]() # /home/fangzheng/zoule/mednext/nnunet_mednext/network_architecture/mednextv1/blocks.py:100:0
  %input.11 : Float(1, 16, 64, 64, 64, strides=[4194304, 262144, 4096, 64, 1], requires_grad=1, device=cuda:0) = aten::add(%input.3, %1619, %1620) # /home/fangzheng/zoule/mednext/nnunet_mednext/network_architecture/mednextv1/blocks.py:100:0
  %9045 : int[] = prim::Constant[value=[1, 1, 1]]()
  %9046 : int[] = prim::Constant[value=[1, 1, 1]]()
  %9047 : int[] = prim::Constant[value=[1, 1, 1]]()
  %1634 : bool = prim::Constant[value=0]() # /home/fangzheng/miniconda3/envs/zl_nnunetv1/lib/python3.9/site-packages/torch/nn/modules/conv.py:602:0
  %9048 : int[] = prim::Constant[value=[0, 0, 0]]()
  %1639 : int = prim::Constant[value=16]() # /home/fangzheng/miniconda3/envs/zl_nnunetv1/lib/python3.9/site-packages/torch/nn/modules/conv.py:602:0
  %1640 : bool = prim::Constant[value=1]() # /home/fangzheng/miniconda3/envs/zl_nnunetv1/lib/python3.9/site-packages/torch/nn/modules/conv.py:602:0
  %1641 : bool = prim::Constant[value=0]() # /home/fangzheng/miniconda3/envs/zl_nnunetv1/lib/python3.9/site-packages/torch/nn/modules/conv.py:602:0
  %1642 : bool = prim::Constant[value=1]() # /home/fangzheng/miniconda3/envs/zl_nnunetv1/lib/python3.9/site-packages/torch/nn/modules/conv.py:602:0
  %1643 : bool = prim::Constant[value=1]() # /home/fangzheng/miniconda3/envs/zl_nnunetv1/lib/python3.9/site-packages/torch/nn/modules/conv.py:602:0
  %input.13 : Float(1, 16, 64, 64, 64, strides=[4194304, 262144, 4096, 64, 1], requires_grad=0, device=cuda:0) = aten::_convolution(%input.11, %16, %17, %9045, %9046, %9047, %1634, %9048, %1639, %1640, %1641, %1642, %1643) # /home/fangzheng/miniconda3/envs/zl_nnunetv1/lib/python3.9/site-packages/torch/nn/modules/conv.py:602:0
  %1675 : int = prim::Constant[value=16]() # /home/fangzheng/miniconda3/envs/zl_nnunetv1/lib/python3.9/site-packages/torch/nn/functional.py:2516:0
  %1676 : float = prim::Constant[value=1.0000000000000001e-05]() # /home/fangzheng/miniconda3/envs/zl_nnunetv1/lib/python3.9/site-packages/torch/nn/functional.py:2516:0
  %1677 : bool = prim::Constant[value=1]() # /home/fangzheng/miniconda3/envs/zl_nnunetv1/lib/python3.9/site-packages/torch/nn/functional.py:2516:0
  %input.15 : Float(1, 16, 64, 64, 64, strides=[4194304, 262144, 4096, 64, 1], requires_grad=1, device=cuda:0) = aten::group_norm(%input.13, %1675, %18, %19, %1676, %1677) # /home/fangzheng/miniconda3/envs/zl_nnunetv1/lib/python3.9/site-packages/torch/nn/functional.py:2516:0
  %9049 : int[] = prim::Constant[value=[1, 1, 1]]()
  %9050 : int[] = prim::Constant[value=[0, 0, 0]]()
  %9051 : int[] = prim::Constant[value=[1, 1, 1]]()
  %1691 : bool = prim::Constant[value=0]() # /home/fangzheng/miniconda3/envs/zl_nnunetv1/lib/python3.9/site-packages/torch/nn/modules/conv.py:602:0
  %9052 : int[] = prim::Constant[value=[0, 0, 0]]()
  %1696 : int = prim::Constant[value=1]() # /home/fangzheng/miniconda3/envs/zl_nnunetv1/lib/python3.9/site-packages/torch/nn/modules/conv.py:602:0
  %1697 : bool = prim::Constant[value=1]() # /home/fangzheng/miniconda3/envs/zl_nnunetv1/lib/python3.9/site-packages/torch/nn/modules/conv.py:602:0
  %1698 : bool = prim::Constant[value=0]() # /home/fangzheng/miniconda3/envs/zl_nnunetv1/lib/python3.9/site-packages/torch/nn/modules/conv.py:602:0
  %1699 : bool = prim::Constant[value=1]() # /home/fangzheng/miniconda3/envs/zl_nnunetv1/lib/python3.9/site-packages/torch/nn/modules/conv.py:602:0
  %1700 : bool = prim::Constant[value=1]() # /home/fangzheng/miniconda3/envs/zl_nnunetv1/lib/python3.9/site-packages/torch/nn/modules/conv.py:602:0
  %1701 : Float(1, 32, 64, 64, 64, strides=[8388608, 262144, 4096, 64, 1], requires_grad=0, device=cuda:0) = aten::_convolution(%input.15, %20, %21, %9049, %9050, %9051, %1691, %9052, %1696, %1697, %1698, %1699, %1700) # /home/fangzheng/miniconda3/envs/zl_nnunetv1/lib/python3.9/site-packages/torch/nn/modules/conv.py:602:0
  %1702 : str = prim::Constant[value="none"]() # /home/fangzheng/miniconda3/envs/zl_nnunetv1/lib/python3.9/site-packages/torch/nn/modules/activation.py:681:0
  %x1.3 : Float(1, 32, 64, 64, 64, strides=[8388608, 262144, 4096, 64, 1], requires_grad=1, device=cuda:0) = aten::gelu(%1701, %1702) # /home/fangzheng/miniconda3/envs/zl_nnunetv1/lib/python3.9/site-packages/torch/nn/modules/activation.py:681:0
  %1704 : int = prim::Constant[value=2]() # /home/fangzheng/miniconda3/envs/zl_nnunetv1/lib/python3.9/site-packages/torch/functional.py:1495:0
  %9053 : int[] = prim::Constant[value=[-3, -2, -1]]()
  %1709 : bool = prim::Constant[value=1]() # /home/fangzheng/miniconda3/envs/zl_nnunetv1/lib/python3.9/site-packages/torch/functional.py:1495:0
  %1710 : Float(1, 32, 1, 1, 1, strides=[32, 1, 1, 1, 1], requires_grad=1, device=cuda:0) = aten::norm(%x1.3, %1704, %9053, %1709) # /home/fangzheng/miniconda3/envs/zl_nnunetv1/lib/python3.9/site-packages/torch/functional.py:1495:0
  %9054 : int[] = prim::Constant[value=[1]]()
  %1713 : bool = prim::Constant[value=1]() # /home/fangzheng/zoule/mednext/nnunet_mednext/network_architecture/mednextv1/blocks.py:96:0
  %1714 : NoneType = prim::Constant()
  %1715 : Float(1, 1, 1, 1, 1, strides=[1, 1, 1, 1, 1], requires_grad=1, device=cuda:0) = aten::mean(%1710, %9054, %1713, %1714) # /home/fangzheng/zoule/mednext/nnunet_mednext/network_architecture/mednextv1/blocks.py:96:0
  %1717 : int = prim::Constant[value=1]() # /home/fangzheng/zoule/mednext/nnunet_mednext/network_architecture/mednextv1/blocks.py:96:0
  %9711 : float = prim::Constant[value=9.9999999999999995e-07]()
  %9712 : Float(1, 1, 1, 1, 1, strides=[1, 1, 1, 1, 1], requires_grad=1, device=cuda:0) = aten::add(%1715, %9711, %1717) # /home/fangzheng/zoule/mednext/nnunet_mednext/network_architecture/mednextv1/blocks.py:96:0
  %1719 : Float(1, 32, 1, 1, 1, strides=[32, 1, 1, 1, 1], requires_grad=1, device=cuda:0) = aten::div(%1710, %9712) # /home/fangzheng/zoule/mednext/nnunet_mednext/network_architecture/mednextv1/blocks.py:96:0
  %1720 : Float(1, 32, 64, 64, 64, strides=[8388608, 262144, 4096, 64, 1], requires_grad=1, device=cuda:0) = aten::mul(%x1.3, %1719) # /home/fangzheng/zoule/mednext/nnunet_mednext/network_architecture/mednextv1/blocks.py:97:0
  %1721 : Float(1, 32, 64, 64, 64, strides=[8388608, 262144, 4096, 64, 1], requires_grad=1, device=cuda:0) = aten::mul(%15, %1720) # /home/fangzheng/zoule/mednext/nnunet_mednext/network_architecture/mednextv1/blocks.py:97:0
  %1722 : int = prim::Constant[value=1]() # /home/fangzheng/zoule/mednext/nnunet_mednext/network_architecture/mednextv1/blocks.py:97:0
  %1723 : Float(1, 32, 64, 64, 64, strides=[8388608, 262144, 4096, 64, 1], requires_grad=1, device=cuda:0) = aten::add(%1721, %14, %1722) # /home/fangzheng/zoule/mednext/nnunet_mednext/network_architecture/mednextv1/blocks.py:97:0
  %1724 : int = prim::Constant[value=1]() # /home/fangzheng/zoule/mednext/nnunet_mednext/network_architecture/mednextv1/blocks.py:97:0
  %input.17 : Float(1, 32, 64, 64, 64, strides=[8388608, 262144, 4096, 64, 1], requires_grad=1, device=cuda:0) = aten::add(%1723, %x1.3, %1724) # /home/fangzheng/zoule/mednext/nnunet_mednext/network_architecture/mednextv1/blocks.py:97:0
  %9055 : int[] = prim::Constant[value=[1, 1, 1]]()
  %9056 : int[] = prim::Constant[value=[0, 0, 0]]()
  %9057 : int[] = prim::Constant[value=[1, 1, 1]]()
  %1738 : bool = prim::Constant[value=0]() # /home/fangzheng/miniconda3/envs/zl_nnunetv1/lib/python3.9/site-packages/torch/nn/modules/conv.py:602:0
  %9058 : int[] = prim::Constant[value=[0, 0, 0]]()
  %1743 : int = prim::Constant[value=1]() # /home/fangzheng/miniconda3/envs/zl_nnunetv1/lib/python3.9/site-packages/torch/nn/modules/conv.py:602:0
  %1744 : bool = prim::Constant[value=1]() # /home/fangzheng/miniconda3/envs/zl_nnunetv1/lib/python3.9/site-packages/torch/nn/modules/conv.py:602:0
  %1745 : bool = prim::Constant[value=0]() # /home/fangzheng/miniconda3/envs/zl_nnunetv1/lib/python3.9/site-packages/torch/nn/modules/conv.py:602:0
  %1746 : bool = prim::Constant[value=1]() # /home/fangzheng/miniconda3/envs/zl_nnunetv1/lib/python3.9/site-packages/torch/nn/modules/conv.py:602:0
  %1747 : bool = prim::Constant[value=1]() # /home/fangzheng/miniconda3/envs/zl_nnunetv1/lib/python3.9/site-packages/torch/nn/modules/conv.py:602:0
  %1748 : Float(1, 16, 64, 64, 64, strides=[4194304, 262144, 4096, 64, 1], requires_grad=0, device=cuda:0) = aten::_convolution(%input.17, %22, %23, %9055, %9056, %9057, %1738, %9058, %1743, %1744, %1745, %1746, %1747) # /home/fangzheng/miniconda3/envs/zl_nnunetv1/lib/python3.9/site-packages/torch/nn/modules/conv.py:602:0
  %1749 : int = prim::Constant[value=1]() # /home/fangzheng/zoule/mednext/nnunet_mednext/network_architecture/mednextv1/blocks.py:100:0
  %input.19 : Float(1, 16, 64, 64, 64, strides=[4194304, 262144, 4096, 64, 1], requires_grad=1, device=cuda:0) = aten::add(%input.11, %1748, %1749) # /home/fangzheng/zoule/mednext/nnunet_mednext/network_architecture/mednextv1/blocks.py:100:0
  %9059 : int[] = prim::Constant[value=[2, 2, 2]]()
  %9060 : int[] = prim::Constant[value=[1, 1, 1]]()
  %9061 : int[] = prim::Constant[value=[1, 1, 1]]()
  %1763 : bool = prim::Constant[value=0]() # /home/fangzheng/miniconda3/envs/zl_nnunetv1/lib/python3.9/site-packages/torch/nn/modules/conv.py:602:0
  %9062 : int[] = prim::Constant[value=[0, 0, 0]]()
  %1768 : int = prim::Constant[value=16]() # /home/fangzheng/miniconda3/envs/zl_nnunetv1/lib/python3.9/site-packages/torch/nn/modules/conv.py:602:0
  %1769 : bool = prim::Constant[value=1]() # /home/fangzheng/miniconda3/envs/zl_nnunetv1/lib/python3.9/site-packages/torch/nn/modules/conv.py:602:0
  %1770 : bool = prim::Constant[value=0]() # /home/fangzheng/miniconda3/envs/zl_nnunetv1/lib/python3.9/site-packages/torch/nn/modules/conv.py:602:0
  %1771 : bool = prim::Constant[value=1]() # /home/fangzheng/miniconda3/envs/zl_nnunetv1/lib/python3.9/site-packages/torch/nn/modules/conv.py:602:0
  %1772 : bool = prim::Constant[value=1]() # /home/fangzheng/miniconda3/envs/zl_nnunetv1/lib/python3.9/site-packages/torch/nn/modules/conv.py:602:0
  %input.21 : Float(1, 16, 32, 32, 32, strides=[524288, 32768, 1024, 32, 1], requires_grad=0, device=cuda:0) = aten::_convolution(%input.19, %24, %25, %9059, %9060, %9061, %1763, %9062, %1768, %1769, %1770, %1771, %1772) # /home/fangzheng/miniconda3/envs/zl_nnunetv1/lib/python3.9/site-packages/torch/nn/modules/conv.py:602:0
  %1804 : int = prim::Constant[value=16]() # /home/fangzheng/miniconda3/envs/zl_nnunetv1/lib/python3.9/site-packages/torch/nn/functional.py:2516:0
  %1805 : float = prim::Constant[value=1.0000000000000001e-05]() # /home/fangzheng/miniconda3/envs/zl_nnunetv1/lib/python3.9/site-packages/torch/nn/functional.py:2516:0
  %1806 : bool = prim::Constant[value=1]() # /home/fangzheng/miniconda3/envs/zl_nnunetv1/lib/python3.9/site-packages/torch/nn/functional.py:2516:0
  %input.23 : Float(1, 16, 32, 32, 32, strides=[524288, 32768, 1024, 32, 1], requires_grad=1, device=cuda:0) = aten::group_norm(%input.21, %1804, %26, %27, %1805, %1806) # /home/fangzheng/miniconda3/envs/zl_nnunetv1/lib/python3.9/site-packages/torch/nn/functional.py:2516:0
  %9063 : int[] = prim::Constant[value=[1, 1, 1]]()
  %9064 : int[] = prim::Constant[value=[0, 0, 0]]()
  %9065 : int[] = prim::Constant[value=[1, 1, 1]]()
  %1820 : bool = prim::Constant[value=0]() # /home/fangzheng/miniconda3/envs/zl_nnunetv1/lib/python3.9/site-packages/torch/nn/modules/conv.py:602:0
  %9066 : int[] = prim::Constant[value=[0, 0, 0]]()
  %1825 : int = prim::Constant[value=1]() # /home/fangzheng/miniconda3/envs/zl_nnunetv1/lib/python3.9/site-packages/torch/nn/modules/conv.py:602:0
  %1826 : bool = prim::Constant[value=1]() # /home/fangzheng/miniconda3/envs/zl_nnunetv1/lib/python3.9/site-packages/torch/nn/modules/conv.py:602:0
  %1827 : bool = prim::Constant[value=0]() # /home/fangzheng/miniconda3/envs/zl_nnunetv1/lib/python3.9/site-packages/torch/nn/modules/conv.py:602:0
  %1828 : bool = prim::Constant[value=1]() # /home/fangzheng/miniconda3/envs/zl_nnunetv1/lib/python3.9/site-packages/torch/nn/modules/conv.py:602:0
  %1829 : bool = prim::Constant[value=1]() # /home/fangzheng/miniconda3/envs/zl_nnunetv1/lib/python3.9/site-packages/torch/nn/modules/conv.py:602:0
  %1830 : Float(1, 32, 32, 32, 32, strides=[1048576, 32768, 1024, 32, 1], requires_grad=0, device=cuda:0) = aten::_convolution(%input.23, %28, %29, %9063, %9064, %9065, %1820, %9066, %1825, %1826, %1827, %1828, %1829) # /home/fangzheng/miniconda3/envs/zl_nnunetv1/lib/python3.9/site-packages/torch/nn/modules/conv.py:602:0
  %1831 : str = prim::Constant[value="none"]() # /home/fangzheng/miniconda3/envs/zl_nnunetv1/lib/python3.9/site-packages/torch/nn/modules/activation.py:681:0
  %input.25 : Float(1, 32, 32, 32, 32, strides=[1048576, 32768, 1024, 32, 1], requires_grad=1, device=cuda:0) = aten::gelu(%1830, %1831) # /home/fangzheng/miniconda3/envs/zl_nnunetv1/lib/python3.9/site-packages/torch/nn/modules/activation.py:681:0
  %9067 : int[] = prim::Constant[value=[1, 1, 1]]()
  %9068 : int[] = prim::Constant[value=[0, 0, 0]]()
  %9069 : int[] = prim::Constant[value=[1, 1, 1]]()
  %1845 : bool = prim::Constant[value=0]() # /home/fangzheng/miniconda3/envs/zl_nnunetv1/lib/python3.9/site-packages/torch/nn/modules/conv.py:602:0
  %9070 : int[] = prim::Constant[value=[0, 0, 0]]()
  %1850 : int = prim::Constant[value=1]() # /home/fangzheng/miniconda3/envs/zl_nnunetv1/lib/python3.9/site-packages/torch/nn/modules/conv.py:602:0
  %1851 : bool = prim::Constant[value=1]() # /home/fangzheng/miniconda3/envs/zl_nnunetv1/lib/python3.9/site-packages/torch/nn/modules/conv.py:602:0
  %1852 : bool = prim::Constant[value=0]() # /home/fangzheng/miniconda3/envs/zl_nnunetv1/lib/python3.9/site-packages/torch/nn/modules/conv.py:602:0
  %1853 : bool = prim::Constant[value=1]() # /home/fangzheng/miniconda3/envs/zl_nnunetv1/lib/python3.9/site-packages/torch/nn/modules/conv.py:602:0
  %1854 : bool = prim::Constant[value=1]() # /home/fangzheng/miniconda3/envs/zl_nnunetv1/lib/python3.9/site-packages/torch/nn/modules/conv.py:602:0
  %1855 : Float(1, 32, 32, 32, 32, strides=[1048576, 32768, 1024, 32, 1], requires_grad=0, device=cuda:0) = aten::_convolution(%input.25, %30, %31, %9067, %9068, %9069, %1845, %9070, %1850, %1851, %1852, %1853, %1854) # /home/fangzheng/miniconda3/envs/zl_nnunetv1/lib/python3.9/site-packages/torch/nn/modules/conv.py:602:0
  %9071 : int[] = prim::Constant[value=[2, 2, 2]]()
  %9072 : int[] = prim::Constant[value=[0, 0, 0]]()
  %9073 : int[] = prim::Constant[value=[1, 1, 1]]()
  %1868 : bool = prim::Constant[value=0]() # /home/fangzheng/miniconda3/envs/zl_nnunetv1/lib/python3.9/site-packages/torch/nn/modules/conv.py:602:0
  %9074 : int[] = prim::Constant[value=[0, 0, 0]]()
  %1873 : int = prim::Constant[value=1]() # /home/fangzheng/miniconda3/envs/zl_nnunetv1/lib/python3.9/site-packages/torch/nn/modules/conv.py:602:0
  %1874 : bool = prim::Constant[value=1]() # /home/fangzheng/miniconda3/envs/zl_nnunetv1/lib/python3.9/site-packages/torch/nn/modules/conv.py:602:0
  %1875 : bool = prim::Constant[value=0]() # /home/fangzheng/miniconda3/envs/zl_nnunetv1/lib/python3.9/site-packages/torch/nn/modules/conv.py:602:0
  %1876 : bool = prim::Constant[value=1]() # /home/fangzheng/miniconda3/envs/zl_nnunetv1/lib/python3.9/site-packages/torch/nn/modules/conv.py:602:0
  %1877 : bool = prim::Constant[value=1]() # /home/fangzheng/miniconda3/envs/zl_nnunetv1/lib/python3.9/site-packages/torch/nn/modules/conv.py:602:0
  %1878 : Float(1, 32, 32, 32, 32, strides=[1048576, 32768, 1024, 32, 1], requires_grad=0, device=cuda:0) = aten::_convolution(%input.19, %32, %33, %9071, %9072, %9073, %1868, %9074, %1873, %1874, %1875, %1876, %1877) # /home/fangzheng/miniconda3/envs/zl_nnunetv1/lib/python3.9/site-packages/torch/nn/modules/conv.py:602:0
  %1879 : int = prim::Constant[value=1]() # /home/fangzheng/zoule/mednext/nnunet_mednext/network_architecture/mednextv1/blocks.py:141:0
  %input.27 : Float(1, 32, 32, 32, 32, strides=[1048576, 32768, 1024, 32, 1], requires_grad=1, device=cuda:0) = aten::add(%1855, %1878, %1879) # /home/fangzheng/zoule/mednext/nnunet_mednext/network_architecture/mednextv1/blocks.py:141:0
  %9075 : int[] = prim::Constant[value=[1, 1, 1]]()
  %9076 : int[] = prim::Constant[value=[1, 1, 1]]()
  %9077 : int[] = prim::Constant[value=[1, 1, 1]]()
  %1893 : bool = prim::Constant[value=0]() # /home/fangzheng/miniconda3/envs/zl_nnunetv1/lib/python3.9/site-packages/torch/nn/modules/conv.py:602:0
  %9078 : int[] = prim::Constant[value=[0, 0, 0]]()
  %1898 : int = prim::Constant[value=32]() # /home/fangzheng/miniconda3/envs/zl_nnunetv1/lib/python3.9/site-packages/torch/nn/modules/conv.py:602:0
  %1899 : bool = prim::Constant[value=1]() # /home/fangzheng/miniconda3/envs/zl_nnunetv1/lib/python3.9/site-packages/torch/nn/modules/conv.py:602:0
  %1900 : bool = prim::Constant[value=0]() # /home/fangzheng/miniconda3/envs/zl_nnunetv1/lib/python3.9/site-packages/torch/nn/modules/conv.py:602:0
  %1901 : bool = prim::Constant[value=1]() # /home/fangzheng/miniconda3/envs/zl_nnunetv1/lib/python3.9/site-packages/torch/nn/modules/conv.py:602:0
  %1902 : bool = prim::Constant[value=1]() # /home/fangzheng/miniconda3/envs/zl_nnunetv1/lib/python3.9/site-packages/torch/nn/modules/conv.py:602:0
  %input.29 : Float(1, 32, 32, 32, 32, strides=[1048576, 32768, 1024, 32, 1], requires_grad=0, device=cuda:0) = aten::_convolution(%input.27, %36, %37, %9075, %9076, %9077, %1893, %9078, %1898, %1899, %1900, %1901, %1902) # /home/fangzheng/miniconda3/envs/zl_nnunetv1/lib/python3.9/site-packages/torch/nn/modules/conv.py:602:0
  %1934 : int = prim::Constant[value=32]() # /home/fangzheng/miniconda3/envs/zl_nnunetv1/lib/python3.9/site-packages/torch/nn/functional.py:2516:0
  %1935 : float = prim::Constant[value=1.0000000000000001e-05]() # /home/fangzheng/miniconda3/envs/zl_nnunetv1/lib/python3.9/site-packages/torch/nn/functional.py:2516:0
  %1936 : bool = prim::Constant[value=1]() # /home/fangzheng/miniconda3/envs/zl_nnunetv1/lib/python3.9/site-packages/torch/nn/functional.py:2516:0
  %input.31 : Float(1, 32, 32, 32, 32, strides=[1048576, 32768, 1024, 32, 1], requires_grad=1, device=cuda:0) = aten::group_norm(%input.29, %1934, %38, %39, %1935, %1936) # /home/fangzheng/miniconda3/envs/zl_nnunetv1/lib/python3.9/site-packages/torch/nn/functional.py:2516:0
  %9079 : int[] = prim::Constant[value=[1, 1, 1]]()
  %9080 : int[] = prim::Constant[value=[0, 0, 0]]()
  %9081 : int[] = prim::Constant[value=[1, 1, 1]]()
  %1950 : bool = prim::Constant[value=0]() # /home/fangzheng/miniconda3/envs/zl_nnunetv1/lib/python3.9/site-packages/torch/nn/modules/conv.py:602:0
  %9082 : int[] = prim::Constant[value=[0, 0, 0]]()
  %1955 : int = prim::Constant[value=1]() # /home/fangzheng/miniconda3/envs/zl_nnunetv1/lib/python3.9/site-packages/torch/nn/modules/conv.py:602:0
  %1956 : bool = prim::Constant[value=1]() # /home/fangzheng/miniconda3/envs/zl_nnunetv1/lib/python3.9/site-packages/torch/nn/modules/conv.py:602:0
  %1957 : bool = prim::Constant[value=0]() # /home/fangzheng/miniconda3/envs/zl_nnunetv1/lib/python3.9/site-packages/torch/nn/modules/conv.py:602:0
  %1958 : bool = prim::Constant[value=1]() # /home/fangzheng/miniconda3/envs/zl_nnunetv1/lib/python3.9/site-packages/torch/nn/modules/conv.py:602:0
  %1959 : bool = prim::Constant[value=1]() # /home/fangzheng/miniconda3/envs/zl_nnunetv1/lib/python3.9/site-packages/torch/nn/modules/conv.py:602:0
  %1960 : Float(1, 64, 32, 32, 32, strides=[2097152, 32768, 1024, 32, 1], requires_grad=0, device=cuda:0) = aten::_convolution(%input.31, %40, %41, %9079, %9080, %9081, %1950, %9082, %1955, %1956, %1957, %1958, %1959) # /home/fangzheng/miniconda3/envs/zl_nnunetv1/lib/python3.9/site-packages/torch/nn/modules/conv.py:602:0
  %1961 : str = prim::Constant[value="none"]() # /home/fangzheng/miniconda3/envs/zl_nnunetv1/lib/python3.9/site-packages/torch/nn/modules/activation.py:681:0
  %x1.5 : Float(1, 64, 32, 32, 32, strides=[2097152, 32768, 1024, 32, 1], requires_grad=1, device=cuda:0) = aten::gelu(%1960, %1961) # /home/fangzheng/miniconda3/envs/zl_nnunetv1/lib/python3.9/site-packages/torch/nn/modules/activation.py:681:0
  %1963 : int = prim::Constant[value=2]() # /home/fangzheng/miniconda3/envs/zl_nnunetv1/lib/python3.9/site-packages/torch/functional.py:1495:0
  %9083 : int[] = prim::Constant[value=[-3, -2, -1]]()
  %1968 : bool = prim::Constant[value=1]() # /home/fangzheng/miniconda3/envs/zl_nnunetv1/lib/python3.9/site-packages/torch/functional.py:1495:0
  %1969 : Float(1, 64, 1, 1, 1, strides=[64, 1, 1, 1, 1], requires_grad=1, device=cuda:0) = aten::norm(%x1.5, %1963, %9083, %1968) # /home/fangzheng/miniconda3/envs/zl_nnunetv1/lib/python3.9/site-packages/torch/functional.py:1495:0
  %9084 : int[] = prim::Constant[value=[1]]()
  %1972 : bool = prim::Constant[value=1]() # /home/fangzheng/zoule/mednext/nnunet_mednext/network_architecture/mednextv1/blocks.py:96:0
  %1973 : NoneType = prim::Constant()
  %1974 : Float(1, 1, 1, 1, 1, strides=[1, 1, 1, 1, 1], requires_grad=1, device=cuda:0) = aten::mean(%1969, %9084, %1972, %1973) # /home/fangzheng/zoule/mednext/nnunet_mednext/network_architecture/mednextv1/blocks.py:96:0
  %1976 : int = prim::Constant[value=1]() # /home/fangzheng/zoule/mednext/nnunet_mednext/network_architecture/mednextv1/blocks.py:96:0
  %9713 : float = prim::Constant[value=9.9999999999999995e-07]()
  %9714 : Float(1, 1, 1, 1, 1, strides=[1, 1, 1, 1, 1], requires_grad=1, device=cuda:0) = aten::add(%1974, %9713, %1976) # /home/fangzheng/zoule/mednext/nnunet_mednext/network_architecture/mednextv1/blocks.py:96:0
  %1978 : Float(1, 64, 1, 1, 1, strides=[64, 1, 1, 1, 1], requires_grad=1, device=cuda:0) = aten::div(%1969, %9714) # /home/fangzheng/zoule/mednext/nnunet_mednext/network_architecture/mednextv1/blocks.py:96:0
  %1979 : Float(1, 64, 32, 32, 32, strides=[2097152, 32768, 1024, 32, 1], requires_grad=1, device=cuda:0) = aten::mul(%x1.5, %1978) # /home/fangzheng/zoule/mednext/nnunet_mednext/network_architecture/mednextv1/blocks.py:97:0
  %1980 : Float(1, 64, 32, 32, 32, strides=[2097152, 32768, 1024, 32, 1], requires_grad=1, device=cuda:0) = aten::mul(%35, %1979) # /home/fangzheng/zoule/mednext/nnunet_mednext/network_architecture/mednextv1/blocks.py:97:0
  %1981 : int = prim::Constant[value=1]() # /home/fangzheng/zoule/mednext/nnunet_mednext/network_architecture/mednextv1/blocks.py:97:0
  %1982 : Float(1, 64, 32, 32, 32, strides=[2097152, 32768, 1024, 32, 1], requires_grad=1, device=cuda:0) = aten::add(%1980, %34, %1981) # /home/fangzheng/zoule/mednext/nnunet_mednext/network_architecture/mednextv1/blocks.py:97:0
  %1983 : int = prim::Constant[value=1]() # /home/fangzheng/zoule/mednext/nnunet_mednext/network_architecture/mednextv1/blocks.py:97:0
  %input.33 : Float(1, 64, 32, 32, 32, strides=[2097152, 32768, 1024, 32, 1], requires_grad=1, device=cuda:0) = aten::add(%1982, %x1.5, %1983) # /home/fangzheng/zoule/mednext/nnunet_mednext/network_architecture/mednextv1/blocks.py:97:0
  %9085 : int[] = prim::Constant[value=[1, 1, 1]]()
  %9086 : int[] = prim::Constant[value=[0, 0, 0]]()
  %9087 : int[] = prim::Constant[value=[1, 1, 1]]()
  %1997 : bool = prim::Constant[value=0]() # /home/fangzheng/miniconda3/envs/zl_nnunetv1/lib/python3.9/site-packages/torch/nn/modules/conv.py:602:0
  %9088 : int[] = prim::Constant[value=[0, 0, 0]]()
  %2002 : int = prim::Constant[value=1]() # /home/fangzheng/miniconda3/envs/zl_nnunetv1/lib/python3.9/site-packages/torch/nn/modules/conv.py:602:0
  %2003 : bool = prim::Constant[value=1]() # /home/fangzheng/miniconda3/envs/zl_nnunetv1/lib/python3.9/site-packages/torch/nn/modules/conv.py:602:0
  %2004 : bool = prim::Constant[value=0]() # /home/fangzheng/miniconda3/envs/zl_nnunetv1/lib/python3.9/site-packages/torch/nn/modules/conv.py:602:0
  %2005 : bool = prim::Constant[value=1]() # /home/fangzheng/miniconda3/envs/zl_nnunetv1/lib/python3.9/site-packages/torch/nn/modules/conv.py:602:0
  %2006 : bool = prim::Constant[value=1]() # /home/fangzheng/miniconda3/envs/zl_nnunetv1/lib/python3.9/site-packages/torch/nn/modules/conv.py:602:0
  %2007 : Float(1, 32, 32, 32, 32, strides=[1048576, 32768, 1024, 32, 1], requires_grad=0, device=cuda:0) = aten::_convolution(%input.33, %42, %43, %9085, %9086, %9087, %1997, %9088, %2002, %2003, %2004, %2005, %2006) # /home/fangzheng/miniconda3/envs/zl_nnunetv1/lib/python3.9/site-packages/torch/nn/modules/conv.py:602:0
  %2008 : int = prim::Constant[value=1]() # /home/fangzheng/zoule/mednext/nnunet_mednext/network_architecture/mednextv1/blocks.py:100:0
  %input.35 : Float(1, 32, 32, 32, 32, strides=[1048576, 32768, 1024, 32, 1], requires_grad=1, device=cuda:0) = aten::add(%input.27, %2007, %2008) # /home/fangzheng/zoule/mednext/nnunet_mednext/network_architecture/mednextv1/blocks.py:100:0
  %9089 : int[] = prim::Constant[value=[1, 1, 1]]()
  %9090 : int[] = prim::Constant[value=[1, 1, 1]]()
  %9091 : int[] = prim::Constant[value=[1, 1, 1]]()
  %2022 : bool = prim::Constant[value=0]() # /home/fangzheng/miniconda3/envs/zl_nnunetv1/lib/python3.9/site-packages/torch/nn/modules/conv.py:602:0
  %9092 : int[] = prim::Constant[value=[0, 0, 0]]()
  %2027 : int = prim::Constant[value=32]() # /home/fangzheng/miniconda3/envs/zl_nnunetv1/lib/python3.9/site-packages/torch/nn/modules/conv.py:602:0
  %2028 : bool = prim::Constant[value=1]() # /home/fangzheng/miniconda3/envs/zl_nnunetv1/lib/python3.9/site-packages/torch/nn/modules/conv.py:602:0
  %2029 : bool = prim::Constant[value=0]() # /home/fangzheng/miniconda3/envs/zl_nnunetv1/lib/python3.9/site-packages/torch/nn/modules/conv.py:602:0
  %2030 : bool = prim::Constant[value=1]() # /home/fangzheng/miniconda3/envs/zl_nnunetv1/lib/python3.9/site-packages/torch/nn/modules/conv.py:602:0
  %2031 : bool = prim::Constant[value=1]() # /home/fangzheng/miniconda3/envs/zl_nnunetv1/lib/python3.9/site-packages/torch/nn/modules/conv.py:602:0
  %input.37 : Float(1, 32, 32, 32, 32, strides=[1048576, 32768, 1024, 32, 1], requires_grad=0, device=cuda:0) = aten::_convolution(%input.35, %46, %47, %9089, %9090, %9091, %2022, %9092, %2027, %2028, %2029, %2030, %2031) # /home/fangzheng/miniconda3/envs/zl_nnunetv1/lib/python3.9/site-packages/torch/nn/modules/conv.py:602:0
  %2063 : int = prim::Constant[value=32]() # /home/fangzheng/miniconda3/envs/zl_nnunetv1/lib/python3.9/site-packages/torch/nn/functional.py:2516:0
  %2064 : float = prim::Constant[value=1.0000000000000001e-05]() # /home/fangzheng/miniconda3/envs/zl_nnunetv1/lib/python3.9/site-packages/torch/nn/functional.py:2516:0
  %2065 : bool = prim::Constant[value=1]() # /home/fangzheng/miniconda3/envs/zl_nnunetv1/lib/python3.9/site-packages/torch/nn/functional.py:2516:0
  %input.39 : Float(1, 32, 32, 32, 32, strides=[1048576, 32768, 1024, 32, 1], requires_grad=1, device=cuda:0) = aten::group_norm(%input.37, %2063, %48, %49, %2064, %2065) # /home/fangzheng/miniconda3/envs/zl_nnunetv1/lib/python3.9/site-packages/torch/nn/functional.py:2516:0
  %9093 : int[] = prim::Constant[value=[1, 1, 1]]()
  %9094 : int[] = prim::Constant[value=[0, 0, 0]]()
  %9095 : int[] = prim::Constant[value=[1, 1, 1]]()
  %2079 : bool = prim::Constant[value=0]() # /home/fangzheng/miniconda3/envs/zl_nnunetv1/lib/python3.9/site-packages/torch/nn/modules/conv.py:602:0
  %9096 : int[] = prim::Constant[value=[0, 0, 0]]()
  %2084 : int = prim::Constant[value=1]() # /home/fangzheng/miniconda3/envs/zl_nnunetv1/lib/python3.9/site-packages/torch/nn/modules/conv.py:602:0
  %2085 : bool = prim::Constant[value=1]() # /home/fangzheng/miniconda3/envs/zl_nnunetv1/lib/python3.9/site-packages/torch/nn/modules/conv.py:602:0
  %2086 : bool = prim::Constant[value=0]() # /home/fangzheng/miniconda3/envs/zl_nnunetv1/lib/python3.9/site-packages/torch/nn/modules/conv.py:602:0
  %2087 : bool = prim::Constant[value=1]() # /home/fangzheng/miniconda3/envs/zl_nnunetv1/lib/python3.9/site-packages/torch/nn/modules/conv.py:602:0
  %2088 : bool = prim::Constant[value=1]() # /home/fangzheng/miniconda3/envs/zl_nnunetv1/lib/python3.9/site-packages/torch/nn/modules/conv.py:602:0
  %2089 : Float(1, 64, 32, 32, 32, strides=[2097152, 32768, 1024, 32, 1], requires_grad=0, device=cuda:0) = aten::_convolution(%input.39, %50, %51, %9093, %9094, %9095, %2079, %9096, %2084, %2085, %2086, %2087, %2088) # /home/fangzheng/miniconda3/envs/zl_nnunetv1/lib/python3.9/site-packages/torch/nn/modules/conv.py:602:0
  %2090 : str = prim::Constant[value="none"]() # /home/fangzheng/miniconda3/envs/zl_nnunetv1/lib/python3.9/site-packages/torch/nn/modules/activation.py:681:0
  %x1.7 : Float(1, 64, 32, 32, 32, strides=[2097152, 32768, 1024, 32, 1], requires_grad=1, device=cuda:0) = aten::gelu(%2089, %2090) # /home/fangzheng/miniconda3/envs/zl_nnunetv1/lib/python3.9/site-packages/torch/nn/modules/activation.py:681:0
  %2092 : int = prim::Constant[value=2]() # /home/fangzheng/miniconda3/envs/zl_nnunetv1/lib/python3.9/site-packages/torch/functional.py:1495:0
  %9097 : int[] = prim::Constant[value=[-3, -2, -1]]()
  %2097 : bool = prim::Constant[value=1]() # /home/fangzheng/miniconda3/envs/zl_nnunetv1/lib/python3.9/site-packages/torch/functional.py:1495:0
  %2098 : Float(1, 64, 1, 1, 1, strides=[64, 1, 1, 1, 1], requires_grad=1, device=cuda:0) = aten::norm(%x1.7, %2092, %9097, %2097) # /home/fangzheng/miniconda3/envs/zl_nnunetv1/lib/python3.9/site-packages/torch/functional.py:1495:0
  %9098 : int[] = prim::Constant[value=[1]]()
  %2101 : bool = prim::Constant[value=1]() # /home/fangzheng/zoule/mednext/nnunet_mednext/network_architecture/mednextv1/blocks.py:96:0
  %2102 : NoneType = prim::Constant()
  %2103 : Float(1, 1, 1, 1, 1, strides=[1, 1, 1, 1, 1], requires_grad=1, device=cuda:0) = aten::mean(%2098, %9098, %2101, %2102) # /home/fangzheng/zoule/mednext/nnunet_mednext/network_architecture/mednextv1/blocks.py:96:0
  %2105 : int = prim::Constant[value=1]() # /home/fangzheng/zoule/mednext/nnunet_mednext/network_architecture/mednextv1/blocks.py:96:0
  %9715 : float = prim::Constant[value=9.9999999999999995e-07]()
  %9716 : Float(1, 1, 1, 1, 1, strides=[1, 1, 1, 1, 1], requires_grad=1, device=cuda:0) = aten::add(%2103, %9715, %2105) # /home/fangzheng/zoule/mednext/nnunet_mednext/network_architecture/mednextv1/blocks.py:96:0
  %2107 : Float(1, 64, 1, 1, 1, strides=[64, 1, 1, 1, 1], requires_grad=1, device=cuda:0) = aten::div(%2098, %9716) # /home/fangzheng/zoule/mednext/nnunet_mednext/network_architecture/mednextv1/blocks.py:96:0
  %2108 : Float(1, 64, 32, 32, 32, strides=[2097152, 32768, 1024, 32, 1], requires_grad=1, device=cuda:0) = aten::mul(%x1.7, %2107) # /home/fangzheng/zoule/mednext/nnunet_mednext/network_architecture/mednextv1/blocks.py:97:0
  %2109 : Float(1, 64, 32, 32, 32, strides=[2097152, 32768, 1024, 32, 1], requires_grad=1, device=cuda:0) = aten::mul(%45, %2108) # /home/fangzheng/zoule/mednext/nnunet_mednext/network_architecture/mednextv1/blocks.py:97:0
  %2110 : int = prim::Constant[value=1]() # /home/fangzheng/zoule/mednext/nnunet_mednext/network_architecture/mednextv1/blocks.py:97:0
  %2111 : Float(1, 64, 32, 32, 32, strides=[2097152, 32768, 1024, 32, 1], requires_grad=1, device=cuda:0) = aten::add(%2109, %44, %2110) # /home/fangzheng/zoule/mednext/nnunet_mednext/network_architecture/mednextv1/blocks.py:97:0
  %2112 : int = prim::Constant[value=1]() # /home/fangzheng/zoule/mednext/nnunet_mednext/network_architecture/mednextv1/blocks.py:97:0
  %input.41 : Float(1, 64, 32, 32, 32, strides=[2097152, 32768, 1024, 32, 1], requires_grad=1, device=cuda:0) = aten::add(%2111, %x1.7, %2112) # /home/fangzheng/zoule/mednext/nnunet_mednext/network_architecture/mednextv1/blocks.py:97:0
  %9099 : int[] = prim::Constant[value=[1, 1, 1]]()
  %9100 : int[] = prim::Constant[value=[0, 0, 0]]()
  %9101 : int[] = prim::Constant[value=[1, 1, 1]]()
  %2126 : bool = prim::Constant[value=0]() # /home/fangzheng/miniconda3/envs/zl_nnunetv1/lib/python3.9/site-packages/torch/nn/modules/conv.py:602:0
  %9102 : int[] = prim::Constant[value=[0, 0, 0]]()
  %2131 : int = prim::Constant[value=1]() # /home/fangzheng/miniconda3/envs/zl_nnunetv1/lib/python3.9/site-packages/torch/nn/modules/conv.py:602:0
  %2132 : bool = prim::Constant[value=1]() # /home/fangzheng/miniconda3/envs/zl_nnunetv1/lib/python3.9/site-packages/torch/nn/modules/conv.py:602:0
  %2133 : bool = prim::Constant[value=0]() # /home/fangzheng/miniconda3/envs/zl_nnunetv1/lib/python3.9/site-packages/torch/nn/modules/conv.py:602:0
  %2134 : bool = prim::Constant[value=1]() # /home/fangzheng/miniconda3/envs/zl_nnunetv1/lib/python3.9/site-packages/torch/nn/modules/conv.py:602:0
  %2135 : bool = prim::Constant[value=1]() # /home/fangzheng/miniconda3/envs/zl_nnunetv1/lib/python3.9/site-packages/torch/nn/modules/conv.py:602:0
  %2136 : Float(1, 32, 32, 32, 32, strides=[1048576, 32768, 1024, 32, 1], requires_grad=0, device=cuda:0) = aten::_convolution(%input.41, %52, %53, %9099, %9100, %9101, %2126, %9102, %2131, %2132, %2133, %2134, %2135) # /home/fangzheng/miniconda3/envs/zl_nnunetv1/lib/python3.9/site-packages/torch/nn/modules/conv.py:602:0
  %2137 : int = prim::Constant[value=1]() # /home/fangzheng/zoule/mednext/nnunet_mednext/network_architecture/mednextv1/blocks.py:100:0
  %input.43 : Float(1, 32, 32, 32, 32, strides=[1048576, 32768, 1024, 32, 1], requires_grad=1, device=cuda:0) = aten::add(%input.35, %2136, %2137) # /home/fangzheng/zoule/mednext/nnunet_mednext/network_architecture/mednextv1/blocks.py:100:0
  %9103 : int[] = prim::Constant[value=[2, 2, 2]]()
  %9104 : int[] = prim::Constant[value=[1, 1, 1]]()
  %9105 : int[] = prim::Constant[value=[1, 1, 1]]()
  %2151 : bool = prim::Constant[value=0]() # /home/fangzheng/miniconda3/envs/zl_nnunetv1/lib/python3.9/site-packages/torch/nn/modules/conv.py:602:0
  %9106 : int[] = prim::Constant[value=[0, 0, 0]]()
  %2156 : int = prim::Constant[value=32]() # /home/fangzheng/miniconda3/envs/zl_nnunetv1/lib/python3.9/site-packages/torch/nn/modules/conv.py:602:0
  %2157 : bool = prim::Constant[value=1]() # /home/fangzheng/miniconda3/envs/zl_nnunetv1/lib/python3.9/site-packages/torch/nn/modules/conv.py:602:0
  %2158 : bool = prim::Constant[value=0]() # /home/fangzheng/miniconda3/envs/zl_nnunetv1/lib/python3.9/site-packages/torch/nn/modules/conv.py:602:0
  %2159 : bool = prim::Constant[value=1]() # /home/fangzheng/miniconda3/envs/zl_nnunetv1/lib/python3.9/site-packages/torch/nn/modules/conv.py:602:0
  %2160 : bool = prim::Constant[value=1]() # /home/fangzheng/miniconda3/envs/zl_nnunetv1/lib/python3.9/site-packages/torch/nn/modules/conv.py:602:0
  %input.45 : Float(1, 32, 16, 16, 16, strides=[131072, 4096, 256, 16, 1], requires_grad=0, device=cuda:0) = aten::_convolution(%input.43, %56, %57, %9103, %9104, %9105, %2151, %9106, %2156, %2157, %2158, %2159, %2160) # /home/fangzheng/miniconda3/envs/zl_nnunetv1/lib/python3.9/site-packages/torch/nn/modules/conv.py:602:0
  %2192 : int = prim::Constant[value=32]() # /home/fangzheng/miniconda3/envs/zl_nnunetv1/lib/python3.9/site-packages/torch/nn/functional.py:2516:0
  %2193 : float = prim::Constant[value=1.0000000000000001e-05]() # /home/fangzheng/miniconda3/envs/zl_nnunetv1/lib/python3.9/site-packages/torch/nn/functional.py:2516:0
  %2194 : bool = prim::Constant[value=1]() # /home/fangzheng/miniconda3/envs/zl_nnunetv1/lib/python3.9/site-packages/torch/nn/functional.py:2516:0
  %input.47 : Float(1, 32, 16, 16, 16, strides=[131072, 4096, 256, 16, 1], requires_grad=1, device=cuda:0) = aten::group_norm(%input.45, %2192, %58, %59, %2193, %2194) # /home/fangzheng/miniconda3/envs/zl_nnunetv1/lib/python3.9/site-packages/torch/nn/functional.py:2516:0
  %9107 : int[] = prim::Constant[value=[1, 1, 1]]()
  %9108 : int[] = prim::Constant[value=[0, 0, 0]]()
  %9109 : int[] = prim::Constant[value=[1, 1, 1]]()
  %2208 : bool = prim::Constant[value=0]() # /home/fangzheng/miniconda3/envs/zl_nnunetv1/lib/python3.9/site-packages/torch/nn/modules/conv.py:602:0
  %9110 : int[] = prim::Constant[value=[0, 0, 0]]()
  %2213 : int = prim::Constant[value=1]() # /home/fangzheng/miniconda3/envs/zl_nnunetv1/lib/python3.9/site-packages/torch/nn/modules/conv.py:602:0
  %2214 : bool = prim::Constant[value=1]() # /home/fangzheng/miniconda3/envs/zl_nnunetv1/lib/python3.9/site-packages/torch/nn/modules/conv.py:602:0
  %2215 : bool = prim::Constant[value=0]() # /home/fangzheng/miniconda3/envs/zl_nnunetv1/lib/python3.9/site-packages/torch/nn/modules/conv.py:602:0
  %2216 : bool = prim::Constant[value=1]() # /home/fangzheng/miniconda3/envs/zl_nnunetv1/lib/python3.9/site-packages/torch/nn/modules/conv.py:602:0
  %2217 : bool = prim::Constant[value=1]() # /home/fangzheng/miniconda3/envs/zl_nnunetv1/lib/python3.9/site-packages/torch/nn/modules/conv.py:602:0
  %2218 : Float(1, 64, 16, 16, 16, strides=[262144, 4096, 256, 16, 1], requires_grad=0, device=cuda:0) = aten::_convolution(%input.47, %60, %61, %9107, %9108, %9109, %2208, %9110, %2213, %2214, %2215, %2216, %2217) # /home/fangzheng/miniconda3/envs/zl_nnunetv1/lib/python3.9/site-packages/torch/nn/modules/conv.py:602:0
  %2219 : str = prim::Constant[value="none"]() # /home/fangzheng/miniconda3/envs/zl_nnunetv1/lib/python3.9/site-packages/torch/nn/modules/activation.py:681:0
  %x1.9 : Float(1, 64, 16, 16, 16, strides=[262144, 4096, 256, 16, 1], requires_grad=1, device=cuda:0) = aten::gelu(%2218, %2219) # /home/fangzheng/miniconda3/envs/zl_nnunetv1/lib/python3.9/site-packages/torch/nn/modules/activation.py:681:0
  %2221 : int = prim::Constant[value=2]() # /home/fangzheng/miniconda3/envs/zl_nnunetv1/lib/python3.9/site-packages/torch/functional.py:1495:0
  %9111 : int[] = prim::Constant[value=[-3, -2, -1]]()
  %2226 : bool = prim::Constant[value=1]() # /home/fangzheng/miniconda3/envs/zl_nnunetv1/lib/python3.9/site-packages/torch/functional.py:1495:0
  %2227 : Float(1, 64, 1, 1, 1, strides=[64, 1, 1, 1, 1], requires_grad=1, device=cuda:0) = aten::norm(%x1.9, %2221, %9111, %2226) # /home/fangzheng/miniconda3/envs/zl_nnunetv1/lib/python3.9/site-packages/torch/functional.py:1495:0
  %9112 : int[] = prim::Constant[value=[1]]()
  %2230 : bool = prim::Constant[value=1]() # /home/fangzheng/zoule/mednext/nnunet_mednext/network_architecture/mednextv1/blocks.py:96:0
  %2231 : NoneType = prim::Constant()
  %2232 : Float(1, 1, 1, 1, 1, strides=[1, 1, 1, 1, 1], requires_grad=1, device=cuda:0) = aten::mean(%2227, %9112, %2230, %2231) # /home/fangzheng/zoule/mednext/nnunet_mednext/network_architecture/mednextv1/blocks.py:96:0
  %2234 : int = prim::Constant[value=1]() # /home/fangzheng/zoule/mednext/nnunet_mednext/network_architecture/mednextv1/blocks.py:96:0
  %9717 : float = prim::Constant[value=9.9999999999999995e-07]()
  %9718 : Float(1, 1, 1, 1, 1, strides=[1, 1, 1, 1, 1], requires_grad=1, device=cuda:0) = aten::add(%2232, %9717, %2234) # /home/fangzheng/zoule/mednext/nnunet_mednext/network_architecture/mednextv1/blocks.py:96:0
  %2236 : Float(1, 64, 1, 1, 1, strides=[64, 1, 1, 1, 1], requires_grad=1, device=cuda:0) = aten::div(%2227, %9718) # /home/fangzheng/zoule/mednext/nnunet_mednext/network_architecture/mednextv1/blocks.py:96:0
  %2237 : Float(1, 64, 16, 16, 16, strides=[262144, 4096, 256, 16, 1], requires_grad=1, device=cuda:0) = aten::mul(%x1.9, %2236) # /home/fangzheng/zoule/mednext/nnunet_mednext/network_architecture/mednextv1/blocks.py:97:0
  %2238 : Float(1, 64, 16, 16, 16, strides=[262144, 4096, 256, 16, 1], requires_grad=1, device=cuda:0) = aten::mul(%55, %2237) # /home/fangzheng/zoule/mednext/nnunet_mednext/network_architecture/mednextv1/blocks.py:97:0
  %2239 : int = prim::Constant[value=1]() # /home/fangzheng/zoule/mednext/nnunet_mednext/network_architecture/mednextv1/blocks.py:97:0
  %2240 : Float(1, 64, 16, 16, 16, strides=[262144, 4096, 256, 16, 1], requires_grad=1, device=cuda:0) = aten::add(%2238, %54, %2239) # /home/fangzheng/zoule/mednext/nnunet_mednext/network_architecture/mednextv1/blocks.py:97:0
  %2241 : int = prim::Constant[value=1]() # /home/fangzheng/zoule/mednext/nnunet_mednext/network_architecture/mednextv1/blocks.py:97:0
  %input.49 : Float(1, 64, 16, 16, 16, strides=[262144, 4096, 256, 16, 1], requires_grad=1, device=cuda:0) = aten::add(%2240, %x1.9, %2241) # /home/fangzheng/zoule/mednext/nnunet_mednext/network_architecture/mednextv1/blocks.py:97:0
  %9113 : int[] = prim::Constant[value=[1, 1, 1]]()
  %9114 : int[] = prim::Constant[value=[0, 0, 0]]()
  %9115 : int[] = prim::Constant[value=[1, 1, 1]]()
  %2255 : bool = prim::Constant[value=0]() # /home/fangzheng/miniconda3/envs/zl_nnunetv1/lib/python3.9/site-packages/torch/nn/modules/conv.py:602:0
  %9116 : int[] = prim::Constant[value=[0, 0, 0]]()
  %2260 : int = prim::Constant[value=1]() # /home/fangzheng/miniconda3/envs/zl_nnunetv1/lib/python3.9/site-packages/torch/nn/modules/conv.py:602:0
  %2261 : bool = prim::Constant[value=1]() # /home/fangzheng/miniconda3/envs/zl_nnunetv1/lib/python3.9/site-packages/torch/nn/modules/conv.py:602:0
  %2262 : bool = prim::Constant[value=0]() # /home/fangzheng/miniconda3/envs/zl_nnunetv1/lib/python3.9/site-packages/torch/nn/modules/conv.py:602:0
  %2263 : bool = prim::Constant[value=1]() # /home/fangzheng/miniconda3/envs/zl_nnunetv1/lib/python3.9/site-packages/torch/nn/modules/conv.py:602:0
  %2264 : bool = prim::Constant[value=1]() # /home/fangzheng/miniconda3/envs/zl_nnunetv1/lib/python3.9/site-packages/torch/nn/modules/conv.py:602:0
  %2265 : Float(1, 64, 16, 16, 16, strides=[262144, 4096, 256, 16, 1], requires_grad=0, device=cuda:0) = aten::_convolution(%input.49, %62, %63, %9113, %9114, %9115, %2255, %9116, %2260, %2261, %2262, %2263, %2264) # /home/fangzheng/miniconda3/envs/zl_nnunetv1/lib/python3.9/site-packages/torch/nn/modules/conv.py:602:0
  %9117 : int[] = prim::Constant[value=[2, 2, 2]]()
  %9118 : int[] = prim::Constant[value=[0, 0, 0]]()
  %9119 : int[] = prim::Constant[value=[1, 1, 1]]()
  %2278 : bool = prim::Constant[value=0]() # /home/fangzheng/miniconda3/envs/zl_nnunetv1/lib/python3.9/site-packages/torch/nn/modules/conv.py:602:0
  %9120 : int[] = prim::Constant[value=[0, 0, 0]]()
  %2283 : int = prim::Constant[value=1]() # /home/fangzheng/miniconda3/envs/zl_nnunetv1/lib/python3.9/site-packages/torch/nn/modules/conv.py:602:0
  %2284 : bool = prim::Constant[value=1]() # /home/fangzheng/miniconda3/envs/zl_nnunetv1/lib/python3.9/site-packages/torch/nn/modules/conv.py:602:0
  %2285 : bool = prim::Constant[value=0]() # /home/fangzheng/miniconda3/envs/zl_nnunetv1/lib/python3.9/site-packages/torch/nn/modules/conv.py:602:0
  %2286 : bool = prim::Constant[value=1]() # /home/fangzheng/miniconda3/envs/zl_nnunetv1/lib/python3.9/site-packages/torch/nn/modules/conv.py:602:0
  %2287 : bool = prim::Constant[value=1]() # /home/fangzheng/miniconda3/envs/zl_nnunetv1/lib/python3.9/site-packages/torch/nn/modules/conv.py:602:0
  %2288 : Float(1, 64, 16, 16, 16, strides=[262144, 4096, 256, 16, 1], requires_grad=0, device=cuda:0) = aten::_convolution(%input.43, %64, %65, %9117, %9118, %9119, %2278, %9120, %2283, %2284, %2285, %2286, %2287) # /home/fangzheng/miniconda3/envs/zl_nnunetv1/lib/python3.9/site-packages/torch/nn/modules/conv.py:602:0
  %2289 : int = prim::Constant[value=1]() # /home/fangzheng/zoule/mednext/nnunet_mednext/network_architecture/mednextv1/blocks.py:141:0
  %input.51 : Float(1, 64, 16, 16, 16, strides=[262144, 4096, 256, 16, 1], requires_grad=1, device=cuda:0) = aten::add(%2265, %2288, %2289) # /home/fangzheng/zoule/mednext/nnunet_mednext/network_architecture/mednextv1/blocks.py:141:0
  %9121 : int[] = prim::Constant[value=[1, 1, 1]]()
  %9122 : int[] = prim::Constant[value=[1, 1, 1]]()
  %9123 : int[] = prim::Constant[value=[1, 1, 1]]()
  %2303 : bool = prim::Constant[value=0]() # /home/fangzheng/miniconda3/envs/zl_nnunetv1/lib/python3.9/site-packages/torch/nn/modules/conv.py:602:0
  %9124 : int[] = prim::Constant[value=[0, 0, 0]]()
  %2308 : int = prim::Constant[value=64]() # /home/fangzheng/miniconda3/envs/zl_nnunetv1/lib/python3.9/site-packages/torch/nn/modules/conv.py:602:0
  %2309 : bool = prim::Constant[value=1]() # /home/fangzheng/miniconda3/envs/zl_nnunetv1/lib/python3.9/site-packages/torch/nn/modules/conv.py:602:0
  %2310 : bool = prim::Constant[value=0]() # /home/fangzheng/miniconda3/envs/zl_nnunetv1/lib/python3.9/site-packages/torch/nn/modules/conv.py:602:0
  %2311 : bool = prim::Constant[value=1]() # /home/fangzheng/miniconda3/envs/zl_nnunetv1/lib/python3.9/site-packages/torch/nn/modules/conv.py:602:0
  %2312 : bool = prim::Constant[value=1]() # /home/fangzheng/miniconda3/envs/zl_nnunetv1/lib/python3.9/site-packages/torch/nn/modules/conv.py:602:0
  %input.53 : Float(1, 64, 16, 16, 16, strides=[262144, 4096, 256, 16, 1], requires_grad=0, device=cuda:0) = aten::_convolution(%input.51, %68, %69, %9121, %9122, %9123, %2303, %9124, %2308, %2309, %2310, %2311, %2312) # /home/fangzheng/miniconda3/envs/zl_nnunetv1/lib/python3.9/site-packages/torch/nn/modules/conv.py:602:0
  %2344 : int = prim::Constant[value=64]() # /home/fangzheng/miniconda3/envs/zl_nnunetv1/lib/python3.9/site-packages/torch/nn/functional.py:2516:0
  %2345 : float = prim::Constant[value=1.0000000000000001e-05]() # /home/fangzheng/miniconda3/envs/zl_nnunetv1/lib/python3.9/site-packages/torch/nn/functional.py:2516:0
  %2346 : bool = prim::Constant[value=1]() # /home/fangzheng/miniconda3/envs/zl_nnunetv1/lib/python3.9/site-packages/torch/nn/functional.py:2516:0
  %input.55 : Float(1, 64, 16, 16, 16, strides=[262144, 4096, 256, 16, 1], requires_grad=1, device=cuda:0) = aten::group_norm(%input.53, %2344, %70, %71, %2345, %2346) # /home/fangzheng/miniconda3/envs/zl_nnunetv1/lib/python3.9/site-packages/torch/nn/functional.py:2516:0
  %9125 : int[] = prim::Constant[value=[1, 1, 1]]()
  %9126 : int[] = prim::Constant[value=[0, 0, 0]]()
  %9127 : int[] = prim::Constant[value=[1, 1, 1]]()
  %2360 : bool = prim::Constant[value=0]() # /home/fangzheng/miniconda3/envs/zl_nnunetv1/lib/python3.9/site-packages/torch/nn/modules/conv.py:602:0
  %9128 : int[] = prim::Constant[value=[0, 0, 0]]()
  %2365 : int = prim::Constant[value=1]() # /home/fangzheng/miniconda3/envs/zl_nnunetv1/lib/python3.9/site-packages/torch/nn/modules/conv.py:602:0
  %2366 : bool = prim::Constant[value=1]() # /home/fangzheng/miniconda3/envs/zl_nnunetv1/lib/python3.9/site-packages/torch/nn/modules/conv.py:602:0
  %2367 : bool = prim::Constant[value=0]() # /home/fangzheng/miniconda3/envs/zl_nnunetv1/lib/python3.9/site-packages/torch/nn/modules/conv.py:602:0
  %2368 : bool = prim::Constant[value=1]() # /home/fangzheng/miniconda3/envs/zl_nnunetv1/lib/python3.9/site-packages/torch/nn/modules/conv.py:602:0
  %2369 : bool = prim::Constant[value=1]() # /home/fangzheng/miniconda3/envs/zl_nnunetv1/lib/python3.9/site-packages/torch/nn/modules/conv.py:602:0
  %2370 : Float(1, 128, 16, 16, 16, strides=[524288, 4096, 256, 16, 1], requires_grad=0, device=cuda:0) = aten::_convolution(%input.55, %72, %73, %9125, %9126, %9127, %2360, %9128, %2365, %2366, %2367, %2368, %2369) # /home/fangzheng/miniconda3/envs/zl_nnunetv1/lib/python3.9/site-packages/torch/nn/modules/conv.py:602:0
  %2371 : str = prim::Constant[value="none"]() # /home/fangzheng/miniconda3/envs/zl_nnunetv1/lib/python3.9/site-packages/torch/nn/modules/activation.py:681:0
  %x1.11 : Float(1, 128, 16, 16, 16, strides=[524288, 4096, 256, 16, 1], requires_grad=1, device=cuda:0) = aten::gelu(%2370, %2371) # /home/fangzheng/miniconda3/envs/zl_nnunetv1/lib/python3.9/site-packages/torch/nn/modules/activation.py:681:0
  %2373 : int = prim::Constant[value=2]() # /home/fangzheng/miniconda3/envs/zl_nnunetv1/lib/python3.9/site-packages/torch/functional.py:1495:0
  %9129 : int[] = prim::Constant[value=[-3, -2, -1]]()
  %2378 : bool = prim::Constant[value=1]() # /home/fangzheng/miniconda3/envs/zl_nnunetv1/lib/python3.9/site-packages/torch/functional.py:1495:0
  %2379 : Float(1, 128, 1, 1, 1, strides=[128, 1, 1, 1, 1], requires_grad=1, device=cuda:0) = aten::norm(%x1.11, %2373, %9129, %2378) # /home/fangzheng/miniconda3/envs/zl_nnunetv1/lib/python3.9/site-packages/torch/functional.py:1495:0
  %9130 : int[] = prim::Constant[value=[1]]()
  %2382 : bool = prim::Constant[value=1]() # /home/fangzheng/zoule/mednext/nnunet_mednext/network_architecture/mednextv1/blocks.py:96:0
  %2383 : NoneType = prim::Constant()
  %2384 : Float(1, 1, 1, 1, 1, strides=[1, 1, 1, 1, 1], requires_grad=1, device=cuda:0) = aten::mean(%2379, %9130, %2382, %2383) # /home/fangzheng/zoule/mednext/nnunet_mednext/network_architecture/mednextv1/blocks.py:96:0
  %2386 : int = prim::Constant[value=1]() # /home/fangzheng/zoule/mednext/nnunet_mednext/network_architecture/mednextv1/blocks.py:96:0
  %9719 : float = prim::Constant[value=9.9999999999999995e-07]()
  %9720 : Float(1, 1, 1, 1, 1, strides=[1, 1, 1, 1, 1], requires_grad=1, device=cuda:0) = aten::add(%2384, %9719, %2386) # /home/fangzheng/zoule/mednext/nnunet_mednext/network_architecture/mednextv1/blocks.py:96:0
  %2388 : Float(1, 128, 1, 1, 1, strides=[128, 1, 1, 1, 1], requires_grad=1, device=cuda:0) = aten::div(%2379, %9720) # /home/fangzheng/zoule/mednext/nnunet_mednext/network_architecture/mednextv1/blocks.py:96:0
  %2389 : Float(1, 128, 16, 16, 16, strides=[524288, 4096, 256, 16, 1], requires_grad=1, device=cuda:0) = aten::mul(%x1.11, %2388) # /home/fangzheng/zoule/mednext/nnunet_mednext/network_architecture/mednextv1/blocks.py:97:0
  %2390 : Float(1, 128, 16, 16, 16, strides=[524288, 4096, 256, 16, 1], requires_grad=1, device=cuda:0) = aten::mul(%67, %2389) # /home/fangzheng/zoule/mednext/nnunet_mednext/network_architecture/mednextv1/blocks.py:97:0
  %2391 : int = prim::Constant[value=1]() # /home/fangzheng/zoule/mednext/nnunet_mednext/network_architecture/mednextv1/blocks.py:97:0
  %2392 : Float(1, 128, 16, 16, 16, strides=[524288, 4096, 256, 16, 1], requires_grad=1, device=cuda:0) = aten::add(%2390, %66, %2391) # /home/fangzheng/zoule/mednext/nnunet_mednext/network_architecture/mednextv1/blocks.py:97:0
  %2393 : int = prim::Constant[value=1]() # /home/fangzheng/zoule/mednext/nnunet_mednext/network_architecture/mednextv1/blocks.py:97:0
  %input.57 : Float(1, 128, 16, 16, 16, strides=[524288, 4096, 256, 16, 1], requires_grad=1, device=cuda:0) = aten::add(%2392, %x1.11, %2393) # /home/fangzheng/zoule/mednext/nnunet_mednext/network_architecture/mednextv1/blocks.py:97:0
  %9131 : int[] = prim::Constant[value=[1, 1, 1]]()
  %9132 : int[] = prim::Constant[value=[0, 0, 0]]()
  %9133 : int[] = prim::Constant[value=[1, 1, 1]]()
  %2407 : bool = prim::Constant[value=0]() # /home/fangzheng/miniconda3/envs/zl_nnunetv1/lib/python3.9/site-packages/torch/nn/modules/conv.py:602:0
  %9134 : int[] = prim::Constant[value=[0, 0, 0]]()
  %2412 : int = prim::Constant[value=1]() # /home/fangzheng/miniconda3/envs/zl_nnunetv1/lib/python3.9/site-packages/torch/nn/modules/conv.py:602:0
  %2413 : bool = prim::Constant[value=1]() # /home/fangzheng/miniconda3/envs/zl_nnunetv1/lib/python3.9/site-packages/torch/nn/modules/conv.py:602:0
  %2414 : bool = prim::Constant[value=0]() # /home/fangzheng/miniconda3/envs/zl_nnunetv1/lib/python3.9/site-packages/torch/nn/modules/conv.py:602:0
  %2415 : bool = prim::Constant[value=1]() # /home/fangzheng/miniconda3/envs/zl_nnunetv1/lib/python3.9/site-packages/torch/nn/modules/conv.py:602:0
  %2416 : bool = prim::Constant[value=1]() # /home/fangzheng/miniconda3/envs/zl_nnunetv1/lib/python3.9/site-packages/torch/nn/modules/conv.py:602:0
  %2417 : Float(1, 64, 16, 16, 16, strides=[262144, 4096, 256, 16, 1], requires_grad=0, device=cuda:0) = aten::_convolution(%input.57, %74, %75, %9131, %9132, %9133, %2407, %9134, %2412, %2413, %2414, %2415, %2416) # /home/fangzheng/miniconda3/envs/zl_nnunetv1/lib/python3.9/site-packages/torch/nn/modules/conv.py:602:0
  %2418 : int = prim::Constant[value=1]() # /home/fangzheng/zoule/mednext/nnunet_mednext/network_architecture/mednextv1/blocks.py:100:0
  %input.59 : Float(1, 64, 16, 16, 16, strides=[262144, 4096, 256, 16, 1], requires_grad=1, device=cuda:0) = aten::add(%input.51, %2417, %2418) # /home/fangzheng/zoule/mednext/nnunet_mednext/network_architecture/mednextv1/blocks.py:100:0
  %9135 : int[] = prim::Constant[value=[1, 1, 1]]()
  %9136 : int[] = prim::Constant[value=[1, 1, 1]]()
  %9137 : int[] = prim::Constant[value=[1, 1, 1]]()
  %2432 : bool = prim::Constant[value=0]() # /home/fangzheng/miniconda3/envs/zl_nnunetv1/lib/python3.9/site-packages/torch/nn/modules/conv.py:602:0
  %9138 : int[] = prim::Constant[value=[0, 0, 0]]()
  %2437 : int = prim::Constant[value=64]() # /home/fangzheng/miniconda3/envs/zl_nnunetv1/lib/python3.9/site-packages/torch/nn/modules/conv.py:602:0
  %2438 : bool = prim::Constant[value=1]() # /home/fangzheng/miniconda3/envs/zl_nnunetv1/lib/python3.9/site-packages/torch/nn/modules/conv.py:602:0
  %2439 : bool = prim::Constant[value=0]() # /home/fangzheng/miniconda3/envs/zl_nnunetv1/lib/python3.9/site-packages/torch/nn/modules/conv.py:602:0
  %2440 : bool = prim::Constant[value=1]() # /home/fangzheng/miniconda3/envs/zl_nnunetv1/lib/python3.9/site-packages/torch/nn/modules/conv.py:602:0
  %2441 : bool = prim::Constant[value=1]() # /home/fangzheng/miniconda3/envs/zl_nnunetv1/lib/python3.9/site-packages/torch/nn/modules/conv.py:602:0
  %input.61 : Float(1, 64, 16, 16, 16, strides=[262144, 4096, 256, 16, 1], requires_grad=0, device=cuda:0) = aten::_convolution(%input.59, %78, %79, %9135, %9136, %9137, %2432, %9138, %2437, %2438, %2439, %2440, %2441) # /home/fangzheng/miniconda3/envs/zl_nnunetv1/lib/python3.9/site-packages/torch/nn/modules/conv.py:602:0
  %2473 : int = prim::Constant[value=64]() # /home/fangzheng/miniconda3/envs/zl_nnunetv1/lib/python3.9/site-packages/torch/nn/functional.py:2516:0
  %2474 : float = prim::Constant[value=1.0000000000000001e-05]() # /home/fangzheng/miniconda3/envs/zl_nnunetv1/lib/python3.9/site-packages/torch/nn/functional.py:2516:0
  %2475 : bool = prim::Constant[value=1]() # /home/fangzheng/miniconda3/envs/zl_nnunetv1/lib/python3.9/site-packages/torch/nn/functional.py:2516:0
  %input.63 : Float(1, 64, 16, 16, 16, strides=[262144, 4096, 256, 16, 1], requires_grad=1, device=cuda:0) = aten::group_norm(%input.61, %2473, %80, %81, %2474, %2475) # /home/fangzheng/miniconda3/envs/zl_nnunetv1/lib/python3.9/site-packages/torch/nn/functional.py:2516:0
  %9139 : int[] = prim::Constant[value=[1, 1, 1]]()
  %9140 : int[] = prim::Constant[value=[0, 0, 0]]()
  %9141 : int[] = prim::Constant[value=[1, 1, 1]]()
  %2489 : bool = prim::Constant[value=0]() # /home/fangzheng/miniconda3/envs/zl_nnunetv1/lib/python3.9/site-packages/torch/nn/modules/conv.py:602:0
  %9142 : int[] = prim::Constant[value=[0, 0, 0]]()
  %2494 : int = prim::Constant[value=1]() # /home/fangzheng/miniconda3/envs/zl_nnunetv1/lib/python3.9/site-packages/torch/nn/modules/conv.py:602:0
  %2495 : bool = prim::Constant[value=1]() # /home/fangzheng/miniconda3/envs/zl_nnunetv1/lib/python3.9/site-packages/torch/nn/modules/conv.py:602:0
  %2496 : bool = prim::Constant[value=0]() # /home/fangzheng/miniconda3/envs/zl_nnunetv1/lib/python3.9/site-packages/torch/nn/modules/conv.py:602:0
  %2497 : bool = prim::Constant[value=1]() # /home/fangzheng/miniconda3/envs/zl_nnunetv1/lib/python3.9/site-packages/torch/nn/modules/conv.py:602:0
  %2498 : bool = prim::Constant[value=1]() # /home/fangzheng/miniconda3/envs/zl_nnunetv1/lib/python3.9/site-packages/torch/nn/modules/conv.py:602:0
  %2499 : Float(1, 128, 16, 16, 16, strides=[524288, 4096, 256, 16, 1], requires_grad=0, device=cuda:0) = aten::_convolution(%input.63, %82, %83, %9139, %9140, %9141, %2489, %9142, %2494, %2495, %2496, %2497, %2498) # /home/fangzheng/miniconda3/envs/zl_nnunetv1/lib/python3.9/site-packages/torch/nn/modules/conv.py:602:0
  %2500 : str = prim::Constant[value="none"]() # /home/fangzheng/miniconda3/envs/zl_nnunetv1/lib/python3.9/site-packages/torch/nn/modules/activation.py:681:0
  %x1.13 : Float(1, 128, 16, 16, 16, strides=[524288, 4096, 256, 16, 1], requires_grad=1, device=cuda:0) = aten::gelu(%2499, %2500) # /home/fangzheng/miniconda3/envs/zl_nnunetv1/lib/python3.9/site-packages/torch/nn/modules/activation.py:681:0
  %2502 : int = prim::Constant[value=2]() # /home/fangzheng/miniconda3/envs/zl_nnunetv1/lib/python3.9/site-packages/torch/functional.py:1495:0
  %9143 : int[] = prim::Constant[value=[-3, -2, -1]]()
  %2507 : bool = prim::Constant[value=1]() # /home/fangzheng/miniconda3/envs/zl_nnunetv1/lib/python3.9/site-packages/torch/functional.py:1495:0
  %2508 : Float(1, 128, 1, 1, 1, strides=[128, 1, 1, 1, 1], requires_grad=1, device=cuda:0) = aten::norm(%x1.13, %2502, %9143, %2507) # /home/fangzheng/miniconda3/envs/zl_nnunetv1/lib/python3.9/site-packages/torch/functional.py:1495:0
  %9144 : int[] = prim::Constant[value=[1]]()
  %2511 : bool = prim::Constant[value=1]() # /home/fangzheng/zoule/mednext/nnunet_mednext/network_architecture/mednextv1/blocks.py:96:0
  %2512 : NoneType = prim::Constant()
  %2513 : Float(1, 1, 1, 1, 1, strides=[1, 1, 1, 1, 1], requires_grad=1, device=cuda:0) = aten::mean(%2508, %9144, %2511, %2512) # /home/fangzheng/zoule/mednext/nnunet_mednext/network_architecture/mednextv1/blocks.py:96:0
  %2515 : int = prim::Constant[value=1]() # /home/fangzheng/zoule/mednext/nnunet_mednext/network_architecture/mednextv1/blocks.py:96:0
  %9721 : float = prim::Constant[value=9.9999999999999995e-07]()
  %9722 : Float(1, 1, 1, 1, 1, strides=[1, 1, 1, 1, 1], requires_grad=1, device=cuda:0) = aten::add(%2513, %9721, %2515) # /home/fangzheng/zoule/mednext/nnunet_mednext/network_architecture/mednextv1/blocks.py:96:0
  %2517 : Float(1, 128, 1, 1, 1, strides=[128, 1, 1, 1, 1], requires_grad=1, device=cuda:0) = aten::div(%2508, %9722) # /home/fangzheng/zoule/mednext/nnunet_mednext/network_architecture/mednextv1/blocks.py:96:0
  %2518 : Float(1, 128, 16, 16, 16, strides=[524288, 4096, 256, 16, 1], requires_grad=1, device=cuda:0) = aten::mul(%x1.13, %2517) # /home/fangzheng/zoule/mednext/nnunet_mednext/network_architecture/mednextv1/blocks.py:97:0
  %2519 : Float(1, 128, 16, 16, 16, strides=[524288, 4096, 256, 16, 1], requires_grad=1, device=cuda:0) = aten::mul(%77, %2518) # /home/fangzheng/zoule/mednext/nnunet_mednext/network_architecture/mednextv1/blocks.py:97:0
  %2520 : int = prim::Constant[value=1]() # /home/fangzheng/zoule/mednext/nnunet_mednext/network_architecture/mednextv1/blocks.py:97:0
  %2521 : Float(1, 128, 16, 16, 16, strides=[524288, 4096, 256, 16, 1], requires_grad=1, device=cuda:0) = aten::add(%2519, %76, %2520) # /home/fangzheng/zoule/mednext/nnunet_mednext/network_architecture/mednextv1/blocks.py:97:0
  %2522 : int = prim::Constant[value=1]() # /home/fangzheng/zoule/mednext/nnunet_mednext/network_architecture/mednextv1/blocks.py:97:0
  %input.65 : Float(1, 128, 16, 16, 16, strides=[524288, 4096, 256, 16, 1], requires_grad=1, device=cuda:0) = aten::add(%2521, %x1.13, %2522) # /home/fangzheng/zoule/mednext/nnunet_mednext/network_architecture/mednextv1/blocks.py:97:0
  %9145 : int[] = prim::Constant[value=[1, 1, 1]]()
  %9146 : int[] = prim::Constant[value=[0, 0, 0]]()
  %9147 : int[] = prim::Constant[value=[1, 1, 1]]()
  %2536 : bool = prim::Constant[value=0]() # /home/fangzheng/miniconda3/envs/zl_nnunetv1/lib/python3.9/site-packages/torch/nn/modules/conv.py:602:0
  %9148 : int[] = prim::Constant[value=[0, 0, 0]]()
  %2541 : int = prim::Constant[value=1]() # /home/fangzheng/miniconda3/envs/zl_nnunetv1/lib/python3.9/site-packages/torch/nn/modules/conv.py:602:0
  %2542 : bool = prim::Constant[value=1]() # /home/fangzheng/miniconda3/envs/zl_nnunetv1/lib/python3.9/site-packages/torch/nn/modules/conv.py:602:0
  %2543 : bool = prim::Constant[value=0]() # /home/fangzheng/miniconda3/envs/zl_nnunetv1/lib/python3.9/site-packages/torch/nn/modules/conv.py:602:0
  %2544 : bool = prim::Constant[value=1]() # /home/fangzheng/miniconda3/envs/zl_nnunetv1/lib/python3.9/site-packages/torch/nn/modules/conv.py:602:0
  %2545 : bool = prim::Constant[value=1]() # /home/fangzheng/miniconda3/envs/zl_nnunetv1/lib/python3.9/site-packages/torch/nn/modules/conv.py:602:0
  %2546 : Float(1, 64, 16, 16, 16, strides=[262144, 4096, 256, 16, 1], requires_grad=0, device=cuda:0) = aten::_convolution(%input.65, %84, %85, %9145, %9146, %9147, %2536, %9148, %2541, %2542, %2543, %2544, %2545) # /home/fangzheng/miniconda3/envs/zl_nnunetv1/lib/python3.9/site-packages/torch/nn/modules/conv.py:602:0
  %2547 : int = prim::Constant[value=1]() # /home/fangzheng/zoule/mednext/nnunet_mednext/network_architecture/mednextv1/blocks.py:100:0
  %input.67 : Float(1, 64, 16, 16, 16, strides=[262144, 4096, 256, 16, 1], requires_grad=1, device=cuda:0) = aten::add(%input.59, %2546, %2547) # /home/fangzheng/zoule/mednext/nnunet_mednext/network_architecture/mednextv1/blocks.py:100:0
  %9149 : int[] = prim::Constant[value=[2, 2, 2]]()
  %9150 : int[] = prim::Constant[value=[1, 1, 1]]()
  %9151 : int[] = prim::Constant[value=[1, 1, 1]]()
  %2561 : bool = prim::Constant[value=0]() # /home/fangzheng/miniconda3/envs/zl_nnunetv1/lib/python3.9/site-packages/torch/nn/modules/conv.py:602:0
  %9152 : int[] = prim::Constant[value=[0, 0, 0]]()
  %2566 : int = prim::Constant[value=64]() # /home/fangzheng/miniconda3/envs/zl_nnunetv1/lib/python3.9/site-packages/torch/nn/modules/conv.py:602:0
  %2567 : bool = prim::Constant[value=1]() # /home/fangzheng/miniconda3/envs/zl_nnunetv1/lib/python3.9/site-packages/torch/nn/modules/conv.py:602:0
  %2568 : bool = prim::Constant[value=0]() # /home/fangzheng/miniconda3/envs/zl_nnunetv1/lib/python3.9/site-packages/torch/nn/modules/conv.py:602:0
  %2569 : bool = prim::Constant[value=1]() # /home/fangzheng/miniconda3/envs/zl_nnunetv1/lib/python3.9/site-packages/torch/nn/modules/conv.py:602:0
  %2570 : bool = prim::Constant[value=1]() # /home/fangzheng/miniconda3/envs/zl_nnunetv1/lib/python3.9/site-packages/torch/nn/modules/conv.py:602:0
  %input.69 : Float(1, 64, 8, 8, 8, strides=[32768, 512, 64, 8, 1], requires_grad=0, device=cuda:0) = aten::_convolution(%input.67, %88, %89, %9149, %9150, %9151, %2561, %9152, %2566, %2567, %2568, %2569, %2570) # /home/fangzheng/miniconda3/envs/zl_nnunetv1/lib/python3.9/site-packages/torch/nn/modules/conv.py:602:0
  %2602 : int = prim::Constant[value=64]() # /home/fangzheng/miniconda3/envs/zl_nnunetv1/lib/python3.9/site-packages/torch/nn/functional.py:2516:0
  %2603 : float = prim::Constant[value=1.0000000000000001e-05]() # /home/fangzheng/miniconda3/envs/zl_nnunetv1/lib/python3.9/site-packages/torch/nn/functional.py:2516:0
  %2604 : bool = prim::Constant[value=1]() # /home/fangzheng/miniconda3/envs/zl_nnunetv1/lib/python3.9/site-packages/torch/nn/functional.py:2516:0
  %input.71 : Float(1, 64, 8, 8, 8, strides=[32768, 512, 64, 8, 1], requires_grad=1, device=cuda:0) = aten::group_norm(%input.69, %2602, %90, %91, %2603, %2604) # /home/fangzheng/miniconda3/envs/zl_nnunetv1/lib/python3.9/site-packages/torch/nn/functional.py:2516:0
  %9153 : int[] = prim::Constant[value=[1, 1, 1]]()
  %9154 : int[] = prim::Constant[value=[0, 0, 0]]()
  %9155 : int[] = prim::Constant[value=[1, 1, 1]]()
  %2618 : bool = prim::Constant[value=0]() # /home/fangzheng/miniconda3/envs/zl_nnunetv1/lib/python3.9/site-packages/torch/nn/modules/conv.py:602:0
  %9156 : int[] = prim::Constant[value=[0, 0, 0]]()
  %2623 : int = prim::Constant[value=1]() # /home/fangzheng/miniconda3/envs/zl_nnunetv1/lib/python3.9/site-packages/torch/nn/modules/conv.py:602:0
  %2624 : bool = prim::Constant[value=1]() # /home/fangzheng/miniconda3/envs/zl_nnunetv1/lib/python3.9/site-packages/torch/nn/modules/conv.py:602:0
  %2625 : bool = prim::Constant[value=0]() # /home/fangzheng/miniconda3/envs/zl_nnunetv1/lib/python3.9/site-packages/torch/nn/modules/conv.py:602:0
  %2626 : bool = prim::Constant[value=1]() # /home/fangzheng/miniconda3/envs/zl_nnunetv1/lib/python3.9/site-packages/torch/nn/modules/conv.py:602:0
  %2627 : bool = prim::Constant[value=1]() # /home/fangzheng/miniconda3/envs/zl_nnunetv1/lib/python3.9/site-packages/torch/nn/modules/conv.py:602:0
  %2628 : Float(1, 128, 8, 8, 8, strides=[65536, 512, 64, 8, 1], requires_grad=0, device=cuda:0) = aten::_convolution(%input.71, %92, %93, %9153, %9154, %9155, %2618, %9156, %2623, %2624, %2625, %2626, %2627) # /home/fangzheng/miniconda3/envs/zl_nnunetv1/lib/python3.9/site-packages/torch/nn/modules/conv.py:602:0
  %2629 : str = prim::Constant[value="none"]() # /home/fangzheng/miniconda3/envs/zl_nnunetv1/lib/python3.9/site-packages/torch/nn/modules/activation.py:681:0
  %x1.15 : Float(1, 128, 8, 8, 8, strides=[65536, 512, 64, 8, 1], requires_grad=1, device=cuda:0) = aten::gelu(%2628, %2629) # /home/fangzheng/miniconda3/envs/zl_nnunetv1/lib/python3.9/site-packages/torch/nn/modules/activation.py:681:0
  %2631 : int = prim::Constant[value=2]() # /home/fangzheng/miniconda3/envs/zl_nnunetv1/lib/python3.9/site-packages/torch/functional.py:1495:0
  %9157 : int[] = prim::Constant[value=[-3, -2, -1]]()
  %2636 : bool = prim::Constant[value=1]() # /home/fangzheng/miniconda3/envs/zl_nnunetv1/lib/python3.9/site-packages/torch/functional.py:1495:0
  %2637 : Float(1, 128, 1, 1, 1, strides=[128, 1, 1, 1, 1], requires_grad=1, device=cuda:0) = aten::norm(%x1.15, %2631, %9157, %2636) # /home/fangzheng/miniconda3/envs/zl_nnunetv1/lib/python3.9/site-packages/torch/functional.py:1495:0
  %9158 : int[] = prim::Constant[value=[1]]()
  %2640 : bool = prim::Constant[value=1]() # /home/fangzheng/zoule/mednext/nnunet_mednext/network_architecture/mednextv1/blocks.py:96:0
  %2641 : NoneType = prim::Constant()
  %2642 : Float(1, 1, 1, 1, 1, strides=[1, 1, 1, 1, 1], requires_grad=1, device=cuda:0) = aten::mean(%2637, %9158, %2640, %2641) # /home/fangzheng/zoule/mednext/nnunet_mednext/network_architecture/mednextv1/blocks.py:96:0
  %2644 : int = prim::Constant[value=1]() # /home/fangzheng/zoule/mednext/nnunet_mednext/network_architecture/mednextv1/blocks.py:96:0
  %9723 : float = prim::Constant[value=9.9999999999999995e-07]()
  %9724 : Float(1, 1, 1, 1, 1, strides=[1, 1, 1, 1, 1], requires_grad=1, device=cuda:0) = aten::add(%2642, %9723, %2644) # /home/fangzheng/zoule/mednext/nnunet_mednext/network_architecture/mednextv1/blocks.py:96:0
  %2646 : Float(1, 128, 1, 1, 1, strides=[128, 1, 1, 1, 1], requires_grad=1, device=cuda:0) = aten::div(%2637, %9724) # /home/fangzheng/zoule/mednext/nnunet_mednext/network_architecture/mednextv1/blocks.py:96:0
  %2647 : Float(1, 128, 8, 8, 8, strides=[65536, 512, 64, 8, 1], requires_grad=1, device=cuda:0) = aten::mul(%x1.15, %2646) # /home/fangzheng/zoule/mednext/nnunet_mednext/network_architecture/mednextv1/blocks.py:97:0
  %2648 : Float(1, 128, 8, 8, 8, strides=[65536, 512, 64, 8, 1], requires_grad=1, device=cuda:0) = aten::mul(%87, %2647) # /home/fangzheng/zoule/mednext/nnunet_mednext/network_architecture/mednextv1/blocks.py:97:0
  %2649 : int = prim::Constant[value=1]() # /home/fangzheng/zoule/mednext/nnunet_mednext/network_architecture/mednextv1/blocks.py:97:0
  %2650 : Float(1, 128, 8, 8, 8, strides=[65536, 512, 64, 8, 1], requires_grad=1, device=cuda:0) = aten::add(%2648, %86, %2649) # /home/fangzheng/zoule/mednext/nnunet_mednext/network_architecture/mednextv1/blocks.py:97:0
  %2651 : int = prim::Constant[value=1]() # /home/fangzheng/zoule/mednext/nnunet_mednext/network_architecture/mednextv1/blocks.py:97:0
  %input.73 : Float(1, 128, 8, 8, 8, strides=[65536, 512, 64, 8, 1], requires_grad=1, device=cuda:0) = aten::add(%2650, %x1.15, %2651) # /home/fangzheng/zoule/mednext/nnunet_mednext/network_architecture/mednextv1/blocks.py:97:0
  %9159 : int[] = prim::Constant[value=[1, 1, 1]]()
  %9160 : int[] = prim::Constant[value=[0, 0, 0]]()
  %9161 : int[] = prim::Constant[value=[1, 1, 1]]()
  %2665 : bool = prim::Constant[value=0]() # /home/fangzheng/miniconda3/envs/zl_nnunetv1/lib/python3.9/site-packages/torch/nn/modules/conv.py:602:0
  %9162 : int[] = prim::Constant[value=[0, 0, 0]]()
  %2670 : int = prim::Constant[value=1]() # /home/fangzheng/miniconda3/envs/zl_nnunetv1/lib/python3.9/site-packages/torch/nn/modules/conv.py:602:0
  %2671 : bool = prim::Constant[value=1]() # /home/fangzheng/miniconda3/envs/zl_nnunetv1/lib/python3.9/site-packages/torch/nn/modules/conv.py:602:0
  %2672 : bool = prim::Constant[value=0]() # /home/fangzheng/miniconda3/envs/zl_nnunetv1/lib/python3.9/site-packages/torch/nn/modules/conv.py:602:0
  %2673 : bool = prim::Constant[value=1]() # /home/fangzheng/miniconda3/envs/zl_nnunetv1/lib/python3.9/site-packages/torch/nn/modules/conv.py:602:0
  %2674 : bool = prim::Constant[value=1]() # /home/fangzheng/miniconda3/envs/zl_nnunetv1/lib/python3.9/site-packages/torch/nn/modules/conv.py:602:0
  %2675 : Float(1, 128, 8, 8, 8, strides=[65536, 512, 64, 8, 1], requires_grad=0, device=cuda:0) = aten::_convolution(%input.73, %94, %95, %9159, %9160, %9161, %2665, %9162, %2670, %2671, %2672, %2673, %2674) # /home/fangzheng/miniconda3/envs/zl_nnunetv1/lib/python3.9/site-packages/torch/nn/modules/conv.py:602:0
  %9163 : int[] = prim::Constant[value=[2, 2, 2]]()
  %9164 : int[] = prim::Constant[value=[0, 0, 0]]()
  %9165 : int[] = prim::Constant[value=[1, 1, 1]]()
  %2688 : bool = prim::Constant[value=0]() # /home/fangzheng/miniconda3/envs/zl_nnunetv1/lib/python3.9/site-packages/torch/nn/modules/conv.py:602:0
  %9166 : int[] = prim::Constant[value=[0, 0, 0]]()
  %2693 : int = prim::Constant[value=1]() # /home/fangzheng/miniconda3/envs/zl_nnunetv1/lib/python3.9/site-packages/torch/nn/modules/conv.py:602:0
  %2694 : bool = prim::Constant[value=1]() # /home/fangzheng/miniconda3/envs/zl_nnunetv1/lib/python3.9/site-packages/torch/nn/modules/conv.py:602:0
  %2695 : bool = prim::Constant[value=0]() # /home/fangzheng/miniconda3/envs/zl_nnunetv1/lib/python3.9/site-packages/torch/nn/modules/conv.py:602:0
  %2696 : bool = prim::Constant[value=1]() # /home/fangzheng/miniconda3/envs/zl_nnunetv1/lib/python3.9/site-packages/torch/nn/modules/conv.py:602:0
  %2697 : bool = prim::Constant[value=1]() # /home/fangzheng/miniconda3/envs/zl_nnunetv1/lib/python3.9/site-packages/torch/nn/modules/conv.py:602:0
  %2698 : Float(1, 128, 8, 8, 8, strides=[65536, 512, 64, 8, 1], requires_grad=0, device=cuda:0) = aten::_convolution(%input.67, %96, %97, %9163, %9164, %9165, %2688, %9166, %2693, %2694, %2695, %2696, %2697) # /home/fangzheng/miniconda3/envs/zl_nnunetv1/lib/python3.9/site-packages/torch/nn/modules/conv.py:602:0
  %2699 : int = prim::Constant[value=1]() # /home/fangzheng/zoule/mednext/nnunet_mednext/network_architecture/mednextv1/blocks.py:141:0
  %input.75 : Float(1, 128, 8, 8, 8, strides=[65536, 512, 64, 8, 1], requires_grad=1, device=cuda:0) = aten::add(%2675, %2698, %2699) # /home/fangzheng/zoule/mednext/nnunet_mednext/network_architecture/mednextv1/blocks.py:141:0
  %9167 : int[] = prim::Constant[value=[1, 1, 1]]()
  %9168 : int[] = prim::Constant[value=[1, 1, 1]]()
  %9169 : int[] = prim::Constant[value=[1, 1, 1]]()
  %2713 : bool = prim::Constant[value=0]() # /home/fangzheng/miniconda3/envs/zl_nnunetv1/lib/python3.9/site-packages/torch/nn/modules/conv.py:602:0
  %9170 : int[] = prim::Constant[value=[0, 0, 0]]()
  %2718 : int = prim::Constant[value=128]() # /home/fangzheng/miniconda3/envs/zl_nnunetv1/lib/python3.9/site-packages/torch/nn/modules/conv.py:602:0
  %2719 : bool = prim::Constant[value=1]() # /home/fangzheng/miniconda3/envs/zl_nnunetv1/lib/python3.9/site-packages/torch/nn/modules/conv.py:602:0
  %2720 : bool = prim::Constant[value=0]() # /home/fangzheng/miniconda3/envs/zl_nnunetv1/lib/python3.9/site-packages/torch/nn/modules/conv.py:602:0
  %2721 : bool = prim::Constant[value=1]() # /home/fangzheng/miniconda3/envs/zl_nnunetv1/lib/python3.9/site-packages/torch/nn/modules/conv.py:602:0
  %2722 : bool = prim::Constant[value=1]() # /home/fangzheng/miniconda3/envs/zl_nnunetv1/lib/python3.9/site-packages/torch/nn/modules/conv.py:602:0
  %input.77 : Float(1, 128, 8, 8, 8, strides=[65536, 512, 64, 8, 1], requires_grad=0, device=cuda:0) = aten::_convolution(%input.75, %100, %101, %9167, %9168, %9169, %2713, %9170, %2718, %2719, %2720, %2721, %2722) # /home/fangzheng/miniconda3/envs/zl_nnunetv1/lib/python3.9/site-packages/torch/nn/modules/conv.py:602:0
  %2754 : int = prim::Constant[value=128]() # /home/fangzheng/miniconda3/envs/zl_nnunetv1/lib/python3.9/site-packages/torch/nn/functional.py:2516:0
  %2755 : float = prim::Constant[value=1.0000000000000001e-05]() # /home/fangzheng/miniconda3/envs/zl_nnunetv1/lib/python3.9/site-packages/torch/nn/functional.py:2516:0
  %2756 : bool = prim::Constant[value=1]() # /home/fangzheng/miniconda3/envs/zl_nnunetv1/lib/python3.9/site-packages/torch/nn/functional.py:2516:0
  %input.79 : Float(1, 128, 8, 8, 8, strides=[65536, 512, 64, 8, 1], requires_grad=1, device=cuda:0) = aten::group_norm(%input.77, %2754, %102, %103, %2755, %2756) # /home/fangzheng/miniconda3/envs/zl_nnunetv1/lib/python3.9/site-packages/torch/nn/functional.py:2516:0
  %9171 : int[] = prim::Constant[value=[1, 1, 1]]()
  %9172 : int[] = prim::Constant[value=[0, 0, 0]]()
  %9173 : int[] = prim::Constant[value=[1, 1, 1]]()
  %2770 : bool = prim::Constant[value=0]() # /home/fangzheng/miniconda3/envs/zl_nnunetv1/lib/python3.9/site-packages/torch/nn/modules/conv.py:602:0
  %9174 : int[] = prim::Constant[value=[0, 0, 0]]()
  %2775 : int = prim::Constant[value=1]() # /home/fangzheng/miniconda3/envs/zl_nnunetv1/lib/python3.9/site-packages/torch/nn/modules/conv.py:602:0
  %2776 : bool = prim::Constant[value=1]() # /home/fangzheng/miniconda3/envs/zl_nnunetv1/lib/python3.9/site-packages/torch/nn/modules/conv.py:602:0
  %2777 : bool = prim::Constant[value=0]() # /home/fangzheng/miniconda3/envs/zl_nnunetv1/lib/python3.9/site-packages/torch/nn/modules/conv.py:602:0
  %2778 : bool = prim::Constant[value=1]() # /home/fangzheng/miniconda3/envs/zl_nnunetv1/lib/python3.9/site-packages/torch/nn/modules/conv.py:602:0
  %2779 : bool = prim::Constant[value=1]() # /home/fangzheng/miniconda3/envs/zl_nnunetv1/lib/python3.9/site-packages/torch/nn/modules/conv.py:602:0
  %2780 : Float(1, 256, 8, 8, 8, strides=[131072, 512, 64, 8, 1], requires_grad=0, device=cuda:0) = aten::_convolution(%input.79, %104, %105, %9171, %9172, %9173, %2770, %9174, %2775, %2776, %2777, %2778, %2779) # /home/fangzheng/miniconda3/envs/zl_nnunetv1/lib/python3.9/site-packages/torch/nn/modules/conv.py:602:0
  %2781 : str = prim::Constant[value="none"]() # /home/fangzheng/miniconda3/envs/zl_nnunetv1/lib/python3.9/site-packages/torch/nn/modules/activation.py:681:0
  %x1.17 : Float(1, 256, 8, 8, 8, strides=[131072, 512, 64, 8, 1], requires_grad=1, device=cuda:0) = aten::gelu(%2780, %2781) # /home/fangzheng/miniconda3/envs/zl_nnunetv1/lib/python3.9/site-packages/torch/nn/modules/activation.py:681:0
  %2783 : int = prim::Constant[value=2]() # /home/fangzheng/miniconda3/envs/zl_nnunetv1/lib/python3.9/site-packages/torch/functional.py:1495:0
  %9175 : int[] = prim::Constant[value=[-3, -2, -1]]()
  %2788 : bool = prim::Constant[value=1]() # /home/fangzheng/miniconda3/envs/zl_nnunetv1/lib/python3.9/site-packages/torch/functional.py:1495:0
  %2789 : Float(1, 256, 1, 1, 1, strides=[256, 1, 1, 1, 1], requires_grad=1, device=cuda:0) = aten::norm(%x1.17, %2783, %9175, %2788) # /home/fangzheng/miniconda3/envs/zl_nnunetv1/lib/python3.9/site-packages/torch/functional.py:1495:0
  %9176 : int[] = prim::Constant[value=[1]]()
  %2792 : bool = prim::Constant[value=1]() # /home/fangzheng/zoule/mednext/nnunet_mednext/network_architecture/mednextv1/blocks.py:96:0
  %2793 : NoneType = prim::Constant()
  %2794 : Float(1, 1, 1, 1, 1, strides=[1, 1, 1, 1, 1], requires_grad=1, device=cuda:0) = aten::mean(%2789, %9176, %2792, %2793) # /home/fangzheng/zoule/mednext/nnunet_mednext/network_architecture/mednextv1/blocks.py:96:0
  %2796 : int = prim::Constant[value=1]() # /home/fangzheng/zoule/mednext/nnunet_mednext/network_architecture/mednextv1/blocks.py:96:0
  %9725 : float = prim::Constant[value=9.9999999999999995e-07]()
  %9726 : Float(1, 1, 1, 1, 1, strides=[1, 1, 1, 1, 1], requires_grad=1, device=cuda:0) = aten::add(%2794, %9725, %2796) # /home/fangzheng/zoule/mednext/nnunet_mednext/network_architecture/mednextv1/blocks.py:96:0
  %2798 : Float(1, 256, 1, 1, 1, strides=[256, 1, 1, 1, 1], requires_grad=1, device=cuda:0) = aten::div(%2789, %9726) # /home/fangzheng/zoule/mednext/nnunet_mednext/network_architecture/mednextv1/blocks.py:96:0
  %2799 : Float(1, 256, 8, 8, 8, strides=[131072, 512, 64, 8, 1], requires_grad=1, device=cuda:0) = aten::mul(%x1.17, %2798) # /home/fangzheng/zoule/mednext/nnunet_mednext/network_architecture/mednextv1/blocks.py:97:0
  %2800 : Float(1, 256, 8, 8, 8, strides=[131072, 512, 64, 8, 1], requires_grad=1, device=cuda:0) = aten::mul(%99, %2799) # /home/fangzheng/zoule/mednext/nnunet_mednext/network_architecture/mednextv1/blocks.py:97:0
  %2801 : int = prim::Constant[value=1]() # /home/fangzheng/zoule/mednext/nnunet_mednext/network_architecture/mednextv1/blocks.py:97:0
  %2802 : Float(1, 256, 8, 8, 8, strides=[131072, 512, 64, 8, 1], requires_grad=1, device=cuda:0) = aten::add(%2800, %98, %2801) # /home/fangzheng/zoule/mednext/nnunet_mednext/network_architecture/mednextv1/blocks.py:97:0
  %2803 : int = prim::Constant[value=1]() # /home/fangzheng/zoule/mednext/nnunet_mednext/network_architecture/mednextv1/blocks.py:97:0
  %input.81 : Float(1, 256, 8, 8, 8, strides=[131072, 512, 64, 8, 1], requires_grad=1, device=cuda:0) = aten::add(%2802, %x1.17, %2803) # /home/fangzheng/zoule/mednext/nnunet_mednext/network_architecture/mednextv1/blocks.py:97:0
  %9177 : int[] = prim::Constant[value=[1, 1, 1]]()
  %9178 : int[] = prim::Constant[value=[0, 0, 0]]()
  %9179 : int[] = prim::Constant[value=[1, 1, 1]]()
  %2817 : bool = prim::Constant[value=0]() # /home/fangzheng/miniconda3/envs/zl_nnunetv1/lib/python3.9/site-packages/torch/nn/modules/conv.py:602:0
  %9180 : int[] = prim::Constant[value=[0, 0, 0]]()
  %2822 : int = prim::Constant[value=1]() # /home/fangzheng/miniconda3/envs/zl_nnunetv1/lib/python3.9/site-packages/torch/nn/modules/conv.py:602:0
  %2823 : bool = prim::Constant[value=1]() # /home/fangzheng/miniconda3/envs/zl_nnunetv1/lib/python3.9/site-packages/torch/nn/modules/conv.py:602:0
  %2824 : bool = prim::Constant[value=0]() # /home/fangzheng/miniconda3/envs/zl_nnunetv1/lib/python3.9/site-packages/torch/nn/modules/conv.py:602:0
  %2825 : bool = prim::Constant[value=1]() # /home/fangzheng/miniconda3/envs/zl_nnunetv1/lib/python3.9/site-packages/torch/nn/modules/conv.py:602:0
  %2826 : bool = prim::Constant[value=1]() # /home/fangzheng/miniconda3/envs/zl_nnunetv1/lib/python3.9/site-packages/torch/nn/modules/conv.py:602:0
  %2827 : Float(1, 128, 8, 8, 8, strides=[65536, 512, 64, 8, 1], requires_grad=0, device=cuda:0) = aten::_convolution(%input.81, %106, %107, %9177, %9178, %9179, %2817, %9180, %2822, %2823, %2824, %2825, %2826) # /home/fangzheng/miniconda3/envs/zl_nnunetv1/lib/python3.9/site-packages/torch/nn/modules/conv.py:602:0
  %2828 : int = prim::Constant[value=1]() # /home/fangzheng/zoule/mednext/nnunet_mednext/network_architecture/mednextv1/blocks.py:100:0
  %input.83 : Float(1, 128, 8, 8, 8, strides=[65536, 512, 64, 8, 1], requires_grad=1, device=cuda:0) = aten::add(%input.75, %2827, %2828) # /home/fangzheng/zoule/mednext/nnunet_mednext/network_architecture/mednextv1/blocks.py:100:0
  %9181 : int[] = prim::Constant[value=[1, 1, 1]]()
  %9182 : int[] = prim::Constant[value=[1, 1, 1]]()
  %9183 : int[] = prim::Constant[value=[1, 1, 1]]()
  %2842 : bool = prim::Constant[value=0]() # /home/fangzheng/miniconda3/envs/zl_nnunetv1/lib/python3.9/site-packages/torch/nn/modules/conv.py:602:0
  %9184 : int[] = prim::Constant[value=[0, 0, 0]]()
  %2847 : int = prim::Constant[value=128]() # /home/fangzheng/miniconda3/envs/zl_nnunetv1/lib/python3.9/site-packages/torch/nn/modules/conv.py:602:0
  %2848 : bool = prim::Constant[value=1]() # /home/fangzheng/miniconda3/envs/zl_nnunetv1/lib/python3.9/site-packages/torch/nn/modules/conv.py:602:0
  %2849 : bool = prim::Constant[value=0]() # /home/fangzheng/miniconda3/envs/zl_nnunetv1/lib/python3.9/site-packages/torch/nn/modules/conv.py:602:0
  %2850 : bool = prim::Constant[value=1]() # /home/fangzheng/miniconda3/envs/zl_nnunetv1/lib/python3.9/site-packages/torch/nn/modules/conv.py:602:0
  %2851 : bool = prim::Constant[value=1]() # /home/fangzheng/miniconda3/envs/zl_nnunetv1/lib/python3.9/site-packages/torch/nn/modules/conv.py:602:0
  %input.85 : Float(1, 128, 8, 8, 8, strides=[65536, 512, 64, 8, 1], requires_grad=0, device=cuda:0) = aten::_convolution(%input.83, %110, %111, %9181, %9182, %9183, %2842, %9184, %2847, %2848, %2849, %2850, %2851) # /home/fangzheng/miniconda3/envs/zl_nnunetv1/lib/python3.9/site-packages/torch/nn/modules/conv.py:602:0
  %2883 : int = prim::Constant[value=128]() # /home/fangzheng/miniconda3/envs/zl_nnunetv1/lib/python3.9/site-packages/torch/nn/functional.py:2516:0
  %2884 : float = prim::Constant[value=1.0000000000000001e-05]() # /home/fangzheng/miniconda3/envs/zl_nnunetv1/lib/python3.9/site-packages/torch/nn/functional.py:2516:0
  %2885 : bool = prim::Constant[value=1]() # /home/fangzheng/miniconda3/envs/zl_nnunetv1/lib/python3.9/site-packages/torch/nn/functional.py:2516:0
  %input.87 : Float(1, 128, 8, 8, 8, strides=[65536, 512, 64, 8, 1], requires_grad=1, device=cuda:0) = aten::group_norm(%input.85, %2883, %112, %113, %2884, %2885) # /home/fangzheng/miniconda3/envs/zl_nnunetv1/lib/python3.9/site-packages/torch/nn/functional.py:2516:0
  %9185 : int[] = prim::Constant[value=[1, 1, 1]]()
  %9186 : int[] = prim::Constant[value=[0, 0, 0]]()
  %9187 : int[] = prim::Constant[value=[1, 1, 1]]()
  %2899 : bool = prim::Constant[value=0]() # /home/fangzheng/miniconda3/envs/zl_nnunetv1/lib/python3.9/site-packages/torch/nn/modules/conv.py:602:0
  %9188 : int[] = prim::Constant[value=[0, 0, 0]]()
  %2904 : int = prim::Constant[value=1]() # /home/fangzheng/miniconda3/envs/zl_nnunetv1/lib/python3.9/site-packages/torch/nn/modules/conv.py:602:0
  %2905 : bool = prim::Constant[value=1]() # /home/fangzheng/miniconda3/envs/zl_nnunetv1/lib/python3.9/site-packages/torch/nn/modules/conv.py:602:0
  %2906 : bool = prim::Constant[value=0]() # /home/fangzheng/miniconda3/envs/zl_nnunetv1/lib/python3.9/site-packages/torch/nn/modules/conv.py:602:0
  %2907 : bool = prim::Constant[value=1]() # /home/fangzheng/miniconda3/envs/zl_nnunetv1/lib/python3.9/site-packages/torch/nn/modules/conv.py:602:0
  %2908 : bool = prim::Constant[value=1]() # /home/fangzheng/miniconda3/envs/zl_nnunetv1/lib/python3.9/site-packages/torch/nn/modules/conv.py:602:0
  %2909 : Float(1, 256, 8, 8, 8, strides=[131072, 512, 64, 8, 1], requires_grad=0, device=cuda:0) = aten::_convolution(%input.87, %114, %115, %9185, %9186, %9187, %2899, %9188, %2904, %2905, %2906, %2907, %2908) # /home/fangzheng/miniconda3/envs/zl_nnunetv1/lib/python3.9/site-packages/torch/nn/modules/conv.py:602:0
  %2910 : str = prim::Constant[value="none"]() # /home/fangzheng/miniconda3/envs/zl_nnunetv1/lib/python3.9/site-packages/torch/nn/modules/activation.py:681:0
  %x1.19 : Float(1, 256, 8, 8, 8, strides=[131072, 512, 64, 8, 1], requires_grad=1, device=cuda:0) = aten::gelu(%2909, %2910) # /home/fangzheng/miniconda3/envs/zl_nnunetv1/lib/python3.9/site-packages/torch/nn/modules/activation.py:681:0
  %2912 : int = prim::Constant[value=2]() # /home/fangzheng/miniconda3/envs/zl_nnunetv1/lib/python3.9/site-packages/torch/functional.py:1495:0
  %9189 : int[] = prim::Constant[value=[-3, -2, -1]]()
  %2917 : bool = prim::Constant[value=1]() # /home/fangzheng/miniconda3/envs/zl_nnunetv1/lib/python3.9/site-packages/torch/functional.py:1495:0
  %2918 : Float(1, 256, 1, 1, 1, strides=[256, 1, 1, 1, 1], requires_grad=1, device=cuda:0) = aten::norm(%x1.19, %2912, %9189, %2917) # /home/fangzheng/miniconda3/envs/zl_nnunetv1/lib/python3.9/site-packages/torch/functional.py:1495:0
  %9190 : int[] = prim::Constant[value=[1]]()
  %2921 : bool = prim::Constant[value=1]() # /home/fangzheng/zoule/mednext/nnunet_mednext/network_architecture/mednextv1/blocks.py:96:0
  %2922 : NoneType = prim::Constant()
  %2923 : Float(1, 1, 1, 1, 1, strides=[1, 1, 1, 1, 1], requires_grad=1, device=cuda:0) = aten::mean(%2918, %9190, %2921, %2922) # /home/fangzheng/zoule/mednext/nnunet_mednext/network_architecture/mednextv1/blocks.py:96:0
  %2925 : int = prim::Constant[value=1]() # /home/fangzheng/zoule/mednext/nnunet_mednext/network_architecture/mednextv1/blocks.py:96:0
  %9727 : float = prim::Constant[value=9.9999999999999995e-07]()
  %9728 : Float(1, 1, 1, 1, 1, strides=[1, 1, 1, 1, 1], requires_grad=1, device=cuda:0) = aten::add(%2923, %9727, %2925) # /home/fangzheng/zoule/mednext/nnunet_mednext/network_architecture/mednextv1/blocks.py:96:0
  %2927 : Float(1, 256, 1, 1, 1, strides=[256, 1, 1, 1, 1], requires_grad=1, device=cuda:0) = aten::div(%2918, %9728) # /home/fangzheng/zoule/mednext/nnunet_mednext/network_architecture/mednextv1/blocks.py:96:0
  %2928 : Float(1, 256, 8, 8, 8, strides=[131072, 512, 64, 8, 1], requires_grad=1, device=cuda:0) = aten::mul(%x1.19, %2927) # /home/fangzheng/zoule/mednext/nnunet_mednext/network_architecture/mednextv1/blocks.py:97:0
  %2929 : Float(1, 256, 8, 8, 8, strides=[131072, 512, 64, 8, 1], requires_grad=1, device=cuda:0) = aten::mul(%109, %2928) # /home/fangzheng/zoule/mednext/nnunet_mednext/network_architecture/mednextv1/blocks.py:97:0
  %2930 : int = prim::Constant[value=1]() # /home/fangzheng/zoule/mednext/nnunet_mednext/network_architecture/mednextv1/blocks.py:97:0
  %2931 : Float(1, 256, 8, 8, 8, strides=[131072, 512, 64, 8, 1], requires_grad=1, device=cuda:0) = aten::add(%2929, %108, %2930) # /home/fangzheng/zoule/mednext/nnunet_mednext/network_architecture/mednextv1/blocks.py:97:0
  %2932 : int = prim::Constant[value=1]() # /home/fangzheng/zoule/mednext/nnunet_mednext/network_architecture/mednextv1/blocks.py:97:0
  %input.89 : Float(1, 256, 8, 8, 8, strides=[131072, 512, 64, 8, 1], requires_grad=1, device=cuda:0) = aten::add(%2931, %x1.19, %2932) # /home/fangzheng/zoule/mednext/nnunet_mednext/network_architecture/mednextv1/blocks.py:97:0
  %9191 : int[] = prim::Constant[value=[1, 1, 1]]()
  %9192 : int[] = prim::Constant[value=[0, 0, 0]]()
  %9193 : int[] = prim::Constant[value=[1, 1, 1]]()
  %2946 : bool = prim::Constant[value=0]() # /home/fangzheng/miniconda3/envs/zl_nnunetv1/lib/python3.9/site-packages/torch/nn/modules/conv.py:602:0
  %9194 : int[] = prim::Constant[value=[0, 0, 0]]()
  %2951 : int = prim::Constant[value=1]() # /home/fangzheng/miniconda3/envs/zl_nnunetv1/lib/python3.9/site-packages/torch/nn/modules/conv.py:602:0
  %2952 : bool = prim::Constant[value=1]() # /home/fangzheng/miniconda3/envs/zl_nnunetv1/lib/python3.9/site-packages/torch/nn/modules/conv.py:602:0
  %2953 : bool = prim::Constant[value=0]() # /home/fangzheng/miniconda3/envs/zl_nnunetv1/lib/python3.9/site-packages/torch/nn/modules/conv.py:602:0
  %2954 : bool = prim::Constant[value=1]() # /home/fangzheng/miniconda3/envs/zl_nnunetv1/lib/python3.9/site-packages/torch/nn/modules/conv.py:602:0
  %2955 : bool = prim::Constant[value=1]() # /home/fangzheng/miniconda3/envs/zl_nnunetv1/lib/python3.9/site-packages/torch/nn/modules/conv.py:602:0
  %2956 : Float(1, 128, 8, 8, 8, strides=[65536, 512, 64, 8, 1], requires_grad=0, device=cuda:0) = aten::_convolution(%input.89, %116, %117, %9191, %9192, %9193, %2946, %9194, %2951, %2952, %2953, %2954, %2955) # /home/fangzheng/miniconda3/envs/zl_nnunetv1/lib/python3.9/site-packages/torch/nn/modules/conv.py:602:0
  %2957 : int = prim::Constant[value=1]() # /home/fangzheng/zoule/mednext/nnunet_mednext/network_architecture/mednextv1/blocks.py:100:0
  %input.91 : Float(1, 128, 8, 8, 8, strides=[65536, 512, 64, 8, 1], requires_grad=1, device=cuda:0) = aten::add(%input.83, %2956, %2957) # /home/fangzheng/zoule/mednext/nnunet_mednext/network_architecture/mednextv1/blocks.py:100:0
  %9195 : int[] = prim::Constant[value=[1, 1, 1]]()
  %9196 : int[] = prim::Constant[value=[0, 0, 0]]()
  %9197 : int[] = prim::Constant[value=[1, 1, 1]]()
  %3381 : bool = prim::Constant[value=0]() # /home/fangzheng/miniconda3/envs/zl_nnunetv1/lib/python3.9/site-packages/torch/nn/modules/conv.py:602:0
  %9198 : int[] = prim::Constant[value=[0, 0, 0]]()
  %3386 : int = prim::Constant[value=1]() # /home/fangzheng/miniconda3/envs/zl_nnunetv1/lib/python3.9/site-packages/torch/nn/modules/conv.py:602:0
  %3387 : bool = prim::Constant[value=1]() # /home/fangzheng/miniconda3/envs/zl_nnunetv1/lib/python3.9/site-packages/torch/nn/modules/conv.py:602:0
  %3388 : bool = prim::Constant[value=0]() # /home/fangzheng/miniconda3/envs/zl_nnunetv1/lib/python3.9/site-packages/torch/nn/modules/conv.py:602:0
  %3389 : bool = prim::Constant[value=1]() # /home/fangzheng/miniconda3/envs/zl_nnunetv1/lib/python3.9/site-packages/torch/nn/modules/conv.py:602:0
  %3390 : bool = prim::Constant[value=1]() # /home/fangzheng/miniconda3/envs/zl_nnunetv1/lib/python3.9/site-packages/torch/nn/modules/conv.py:602:0
  %input.115 : Float(1, 64, 16, 16, 16, strides=[262144, 4096, 256, 16, 1], requires_grad=0, device=cuda:0) = aten::_convolution(%input.67, %280, %281, %9195, %9196, %9197, %3381, %9198, %3386, %3387, %3388, %3389, %3390) # /home/fangzheng/miniconda3/envs/zl_nnunetv1/lib/python3.9/site-packages/torch/nn/modules/conv.py:602:0
  %3392 : NoneType = prim::Constant()
  %9199 : int[] = prim::Constant[value=[1, 1, 1]]()
  %9200 : int[] = prim::Constant[value=[0, 0, 0]]()
  %9201 : int[] = prim::Constant[value=[1, 1, 1]]()
  %3405 : bool = prim::Constant[value=0]() # /home/fangzheng/miniconda3/envs/zl_nnunetv1/lib/python3.9/site-packages/torch/nn/modules/conv.py:602:0
  %9202 : int[] = prim::Constant[value=[0, 0, 0]]()
  %3410 : int = prim::Constant[value=1]() # /home/fangzheng/miniconda3/envs/zl_nnunetv1/lib/python3.9/site-packages/torch/nn/modules/conv.py:602:0
  %3411 : bool = prim::Constant[value=1]() # /home/fangzheng/miniconda3/envs/zl_nnunetv1/lib/python3.9/site-packages/torch/nn/modules/conv.py:602:0
  %3412 : bool = prim::Constant[value=0]() # /home/fangzheng/miniconda3/envs/zl_nnunetv1/lib/python3.9/site-packages/torch/nn/modules/conv.py:602:0
  %3413 : bool = prim::Constant[value=1]() # /home/fangzheng/miniconda3/envs/zl_nnunetv1/lib/python3.9/site-packages/torch/nn/modules/conv.py:602:0
  %3414 : bool = prim::Constant[value=1]() # /home/fangzheng/miniconda3/envs/zl_nnunetv1/lib/python3.9/site-packages/torch/nn/modules/conv.py:602:0
  %input.117 : Float(1, 64, 16, 16, 16, strides=[262144, 4096, 256, 16, 1], requires_grad=0, device=cuda:0) = aten::_convolution(%input.115, %282, %3392, %9199, %9200, %9201, %3405, %9202, %3410, %3411, %3412, %3413, %3414) # /home/fangzheng/miniconda3/envs/zl_nnunetv1/lib/python3.9/site-packages/torch/nn/modules/conv.py:602:0
  %3439 : bool = prim::Constant[value=1]() # /home/fangzheng/miniconda3/envs/zl_nnunetv1/lib/python3.9/site-packages/torch/nn/functional.py:2438:0
  %3440 : float = prim::Constant[value=0.10000000000000001]() # /home/fangzheng/miniconda3/envs/zl_nnunetv1/lib/python3.9/site-packages/torch/nn/functional.py:2438:0
  %3441 : float = prim::Constant[value=1.0000000000000001e-05]() # /home/fangzheng/miniconda3/envs/zl_nnunetv1/lib/python3.9/site-packages/torch/nn/functional.py:2438:0
  %3442 : bool = prim::Constant[value=1]() # /home/fangzheng/miniconda3/envs/zl_nnunetv1/lib/python3.9/site-packages/torch/nn/functional.py:2438:0
  %3443 : Float(1, 64, 16, 16, 16, strides=[262144, 4096, 256, 16, 1], requires_grad=1, device=cuda:0) = aten::batch_norm(%input.117, %283, %284, %285, %286, %3439, %3440, %3441, %3442) # /home/fangzheng/miniconda3/envs/zl_nnunetv1/lib/python3.9/site-packages/torch/nn/functional.py:2438:0
  %3444 : int = prim::Constant[value=0]() # /home/fangzheng/zoule/mednext/nnunet_mednext/network_architecture/le_networks/GLSP3D_RWKV.py:222:0
  %3445 : int = aten::size(%3443, %3444) # /home/fangzheng/zoule/mednext/nnunet_mednext/network_architecture/le_networks/GLSP3D_RWKV.py:222:0
  %3447 : int = prim::Constant[value=1]() # /home/fangzheng/zoule/mednext/nnunet_mednext/network_architecture/le_networks/GLSP3D_RWKV.py:222:0
  %3448 : int = aten::size(%3443, %3447) # /home/fangzheng/zoule/mednext/nnunet_mednext/network_architecture/le_networks/GLSP3D_RWKV.py:222:0
  %3450 : int = prim::Constant[value=2]() # /home/fangzheng/zoule/mednext/nnunet_mednext/network_architecture/le_networks/GLSP3D_RWKV.py:222:0
  %3451 : int = aten::size(%3443, %3450) # /home/fangzheng/zoule/mednext/nnunet_mednext/network_architecture/le_networks/GLSP3D_RWKV.py:222:0
  %3453 : int = prim::Constant[value=3]() # /home/fangzheng/zoule/mednext/nnunet_mednext/network_architecture/le_networks/GLSP3D_RWKV.py:222:0
  %3454 : int = aten::size(%3443, %3453) # /home/fangzheng/zoule/mednext/nnunet_mednext/network_architecture/le_networks/GLSP3D_RWKV.py:222:0
  %3456 : int = prim::Constant[value=4]() # /home/fangzheng/zoule/mednext/nnunet_mednext/network_architecture/le_networks/GLSP3D_RWKV.py:222:0
  %3457 : int = aten::size(%3443, %3456) # /home/fangzheng/zoule/mednext/nnunet_mednext/network_architecture/le_networks/GLSP3D_RWKV.py:222:0
  %3459 : int = prim::Constant[value=2]() # /home/fangzheng/zoule/mednext/nnunet_mednext/network_architecture/le_networks/GLSP3D_RWKV.py:223:0
  %3460 : int = prim::Constant[value=-1]() # /home/fangzheng/zoule/mednext/nnunet_mednext/network_architecture/le_networks/GLSP3D_RWKV.py:223:0
  %3461 : Float(1, 64, 4096, strides=[262144, 4096, 1], requires_grad=1, device=cuda:0) = aten::flatten(%3443, %3459, %3460) # /home/fangzheng/zoule/mednext/nnunet_mednext/network_architecture/le_networks/GLSP3D_RWKV.py:223:0
  %3462 : int = prim::Constant[value=1]() # /home/fangzheng/zoule/mednext/nnunet_mednext/network_architecture/le_networks/GLSP3D_RWKV.py:223:0
  %3463 : int = prim::Constant[value=2]() # /home/fangzheng/zoule/mednext/nnunet_mednext/network_architecture/le_networks/GLSP3D_RWKV.py:223:0
  %x.1 : Float(1, 4096, 64, strides=[262144, 1, 4096], requires_grad=1, device=cuda:0) = aten::transpose(%3461, %3462, %3463) # /home/fangzheng/zoule/mednext/nnunet_mednext/network_architecture/le_networks/GLSP3D_RWKV.py:223:0
  %3465 : int = prim::Constant[value=0]() # /home/fangzheng/zoule/mednext/nnunet_mednext/network_architecture/le_networks/GLSP3D_RWKV.py:62:0
  %3466 : int = aten::size(%x.1, %3465) # /home/fangzheng/zoule/mednext/nnunet_mednext/network_architecture/le_networks/GLSP3D_RWKV.py:62:0
  %B.1 : Long(device=cpu) = prim::NumToTensor(%3466)
  %3468 : int = prim::Constant[value=1]() # /home/fangzheng/zoule/mednext/nnunet_mednext/network_architecture/le_networks/GLSP3D_RWKV.py:62:0
  %3469 : int = aten::size(%x.1, %3468) # /home/fangzheng/zoule/mednext/nnunet_mednext/network_architecture/le_networks/GLSP3D_RWKV.py:62:0
…
  %8671 : bool = prim::Constant[value=1]() # /home/fangzheng/miniconda3/envs/zl_nnunetv1/lib/python3.9/site-packages/torch/nn/modules/conv.py:602:0
  %8672 : bool = prim::Constant[value=0]() # /home/fangzheng/miniconda3/envs/zl_nnunetv1/lib/python3.9/site-packages/torch/nn/modules/conv.py:602:0
  %8673 : bool = prim::Constant[value=1]() # /home/fangzheng/miniconda3/envs/zl_nnunetv1/lib/python3.9/site-packages/torch/nn/modules/conv.py:602:0
  %8674 : bool = prim::Constant[value=1]() # /home/fangzheng/miniconda3/envs/zl_nnunetv1/lib/python3.9/site-packages/torch/nn/modules/conv.py:602:0
  %input.395 : Float(1, 16, 64, 64, 64, strides=[4194304, 262144, 4096, 64, 1], requires_grad=0, device=cuda:0) = aten::_convolution(%input.393, %462, %463, %9661, %9662, %9663, %8665, %9664, %8670, %8671, %8672, %8673, %8674) # /home/fangzheng/miniconda3/envs/zl_nnunetv1/lib/python3.9/site-packages/torch/nn/modules/conv.py:602:0
  %8706 : int = prim::Constant[value=16]() # /home/fangzheng/miniconda3/envs/zl_nnunetv1/lib/python3.9/site-packages/torch/nn/functional.py:2516:0
  %8707 : float = prim::Constant[value=1.0000000000000001e-05]() # /home/fangzheng/miniconda3/envs/zl_nnunetv1/lib/python3.9/site-packages/torch/nn/functional.py:2516:0
  %8708 : bool = prim::Constant[value=1]() # /home/fangzheng/miniconda3/envs/zl_nnunetv1/lib/python3.9/site-packages/torch/nn/functional.py:2516:0
  %input.397 : Float(1, 16, 64, 64, 64, strides=[4194304, 262144, 4096, 64, 1], requires_grad=1, device=cuda:0) = aten::group_norm(%input.395, %8706, %464, %465, %8707, %8708) # /home/fangzheng/miniconda3/envs/zl_nnunetv1/lib/python3.9/site-packages/torch/nn/functional.py:2516:0
  %9665 : int[] = prim::Constant[value=[1, 1, 1]]()
  %9666 : int[] = prim::Constant[value=[0, 0, 0]]()
  %9667 : int[] = prim::Constant[value=[1, 1, 1]]()
  %8722 : bool = prim::Constant[value=0]() # /home/fangzheng/miniconda3/envs/zl_nnunetv1/lib/python3.9/site-packages/torch/nn/modules/conv.py:602:0
  %9668 : int[] = prim::Constant[value=[0, 0, 0]]()
  %8727 : int = prim::Constant[value=1]() # /home/fangzheng/miniconda3/envs/zl_nnunetv1/lib/python3.9/site-packages/torch/nn/modules/conv.py:602:0
  %8728 : bool = prim::Constant[value=1]() # /home/fangzheng/miniconda3/envs/zl_nnunetv1/lib/python3.9/site-packages/torch/nn/modules/conv.py:602:0
  %8729 : bool = prim::Constant[value=0]() # /home/fangzheng/miniconda3/envs/zl_nnunetv1/lib/python3.9/site-packages/torch/nn/modules/conv.py:602:0
  %8730 : bool = prim::Constant[value=1]() # /home/fangzheng/miniconda3/envs/zl_nnunetv1/lib/python3.9/site-packages/torch/nn/modules/conv.py:602:0
  %8731 : bool = prim::Constant[value=1]() # /home/fangzheng/miniconda3/envs/zl_nnunetv1/lib/python3.9/site-packages/torch/nn/modules/conv.py:602:0
  %8732 : Float(1, 32, 64, 64, 64, strides=[8388608, 262144, 4096, 64, 1], requires_grad=0, device=cuda:0) = aten::_convolution(%input.397, %466, %467, %9665, %9666, %9667, %8722, %9668, %8727, %8728, %8729, %8730, %8731) # /home/fangzheng/miniconda3/envs/zl_nnunetv1/lib/python3.9/site-packages/torch/nn/modules/conv.py:602:0
  %8733 : str = prim::Constant[value="none"]() # /home/fangzheng/miniconda3/envs/zl_nnunetv1/lib/python3.9/site-packages/torch/nn/modules/activation.py:681:0
  %x1.65 : Float(1, 32, 64, 64, 64, strides=[8388608, 262144, 4096, 64, 1], requires_grad=1, device=cuda:0) = aten::gelu(%8732, %8733) # /home/fangzheng/miniconda3/envs/zl_nnunetv1/lib/python3.9/site-packages/torch/nn/modules/activation.py:681:0
  %8735 : int = prim::Constant[value=2]() # /home/fangzheng/miniconda3/envs/zl_nnunetv1/lib/python3.9/site-packages/torch/functional.py:1495:0
  %9669 : int[] = prim::Constant[value=[-3, -2, -1]]()
  %8740 : bool = prim::Constant[value=1]() # /home/fangzheng/miniconda3/envs/zl_nnunetv1/lib/python3.9/site-packages/torch/functional.py:1495:0
  %8741 : Float(1, 32, 1, 1, 1, strides=[32, 1, 1, 1, 1], requires_grad=1, device=cuda:0) = aten::norm(%x1.65, %8735, %9669, %8740) # /home/fangzheng/miniconda3/envs/zl_nnunetv1/lib/python3.9/site-packages/torch/functional.py:1495:0
  %9670 : int[] = prim::Constant[value=[1]]()
  %8744 : bool = prim::Constant[value=1]() # /home/fangzheng/zoule/mednext/nnunet_mednext/network_architecture/mednextv1/blocks.py:96:0
  %8745 : NoneType = prim::Constant()
  %8746 : Float(1, 1, 1, 1, 1, strides=[1, 1, 1, 1, 1], requires_grad=1, device=cuda:0) = aten::mean(%8741, %9670, %8744, %8745) # /home/fangzheng/zoule/mednext/nnunet_mednext/network_architecture/mednextv1/blocks.py:96:0
  %8748 : int = prim::Constant[value=1]() # /home/fangzheng/zoule/mednext/nnunet_mednext/network_architecture/mednextv1/blocks.py:96:0
  %9791 : float = prim::Constant[value=9.9999999999999995e-07]()
  %9792 : Float(1, 1, 1, 1, 1, strides=[1, 1, 1, 1, 1], requires_grad=1, device=cuda:0) = aten::add(%8746, %9791, %8748) # /home/fangzheng/zoule/mednext/nnunet_mednext/network_architecture/mednextv1/blocks.py:96:0
  %8750 : Float(1, 32, 1, 1, 1, strides=[32, 1, 1, 1, 1], requires_grad=1, device=cuda:0) = aten::div(%8741, %9792) # /home/fangzheng/zoule/mednext/nnunet_mednext/network_architecture/mednextv1/blocks.py:96:0
  %8751 : Float(1, 32, 64, 64, 64, strides=[8388608, 262144, 4096, 64, 1], requires_grad=1, device=cuda:0) = aten::mul(%x1.65, %8750) # /home/fangzheng/zoule/mednext/nnunet_mednext/network_architecture/mednextv1/blocks.py:97:0
  %8752 : Float(1, 32, 64, 64, 64, strides=[8388608, 262144, 4096, 64, 1], requires_grad=1, device=cuda:0) = aten::mul(%461, %8751) # /home/fangzheng/zoule/mednext/nnunet_mednext/network_architecture/mednextv1/blocks.py:97:0
  %8753 : int = prim::Constant[value=1]() # /home/fangzheng/zoule/mednext/nnunet_mednext/network_architecture/mednextv1/blocks.py:97:0
  %8754 : Float(1, 32, 64, 64, 64, strides=[8388608, 262144, 4096, 64, 1], requires_grad=1, device=cuda:0) = aten::add(%8752, %460, %8753) # /home/fangzheng/zoule/mednext/nnunet_mednext/network_architecture/mednextv1/blocks.py:97:0
  %8755 : int = prim::Constant[value=1]() # /home/fangzheng/zoule/mednext/nnunet_mednext/network_architecture/mednextv1/blocks.py:97:0
  %input.399 : Float(1, 32, 64, 64, 64, strides=[8388608, 262144, 4096, 64, 1], requires_grad=1, device=cuda:0) = aten::add(%8754, %x1.65, %8755) # /home/fangzheng/zoule/mednext/nnunet_mednext/network_architecture/mednextv1/blocks.py:97:0
  %9671 : int[] = prim::Constant[value=[1, 1, 1]]()
  %9672 : int[] = prim::Constant[value=[0, 0, 0]]()
  %9673 : int[] = prim::Constant[value=[1, 1, 1]]()
  %8769 : bool = prim::Constant[value=0]() # /home/fangzheng/miniconda3/envs/zl_nnunetv1/lib/python3.9/site-packages/torch/nn/modules/conv.py:602:0
  %9674 : int[] = prim::Constant[value=[0, 0, 0]]()
  %8774 : int = prim::Constant[value=1]() # /home/fangzheng/miniconda3/envs/zl_nnunetv1/lib/python3.9/site-packages/torch/nn/modules/conv.py:602:0
  %8775 : bool = prim::Constant[value=1]() # /home/fangzheng/miniconda3/envs/zl_nnunetv1/lib/python3.9/site-packages/torch/nn/modules/conv.py:602:0
  %8776 : bool = prim::Constant[value=0]() # /home/fangzheng/miniconda3/envs/zl_nnunetv1/lib/python3.9/site-packages/torch/nn/modules/conv.py:602:0
  %8777 : bool = prim::Constant[value=1]() # /home/fangzheng/miniconda3/envs/zl_nnunetv1/lib/python3.9/site-packages/torch/nn/modules/conv.py:602:0
  %8778 : bool = prim::Constant[value=1]() # /home/fangzheng/miniconda3/envs/zl_nnunetv1/lib/python3.9/site-packages/torch/nn/modules/conv.py:602:0
  %8779 : Float(1, 16, 64, 64, 64, strides=[4194304, 262144, 4096, 64, 1], requires_grad=0, device=cuda:0) = aten::_convolution(%input.399, %468, %469, %9671, %9672, %9673, %8769, %9674, %8774, %8775, %8776, %8777, %8778) # /home/fangzheng/miniconda3/envs/zl_nnunetv1/lib/python3.9/site-packages/torch/nn/modules/conv.py:602:0
  %8780 : int = prim::Constant[value=1]() # /home/fangzheng/zoule/mednext/nnunet_mednext/network_architecture/mednextv1/blocks.py:100:0
  %input.401 : Float(1, 16, 64, 64, 64, strides=[4194304, 262144, 4096, 64, 1], requires_grad=1, device=cuda:0) = aten::add(%input.393, %8779, %8780) # /home/fangzheng/zoule/mednext/nnunet_mednext/network_architecture/mednextv1/blocks.py:100:0
  %9675 : int[] = prim::Constant[value=[1, 1, 1]]()
  %9676 : int[] = prim::Constant[value=[1, 1, 1]]()
  %9677 : int[] = prim::Constant[value=[1, 1, 1]]()
  %8794 : bool = prim::Constant[value=0]() # /home/fangzheng/miniconda3/envs/zl_nnunetv1/lib/python3.9/site-packages/torch/nn/modules/conv.py:602:0
  %9678 : int[] = prim::Constant[value=[0, 0, 0]]()
  %8799 : int = prim::Constant[value=16]() # /home/fangzheng/miniconda3/envs/zl_nnunetv1/lib/python3.9/site-packages/torch/nn/modules/conv.py:602:0
  %8800 : bool = prim::Constant[value=1]() # /home/fangzheng/miniconda3/envs/zl_nnunetv1/lib/python3.9/site-packages/torch/nn/modules/conv.py:602:0
  %8801 : bool = prim::Constant[value=0]() # /home/fangzheng/miniconda3/envs/zl_nnunetv1/lib/python3.9/site-packages/torch/nn/modules/conv.py:602:0
  %8802 : bool = prim::Constant[value=1]() # /home/fangzheng/miniconda3/envs/zl_nnunetv1/lib/python3.9/site-packages/torch/nn/modules/conv.py:602:0
  %8803 : bool = prim::Constant[value=1]() # /home/fangzheng/miniconda3/envs/zl_nnunetv1/lib/python3.9/site-packages/torch/nn/modules/conv.py:602:0
  %input.403 : Float(1, 16, 64, 64, 64, strides=[4194304, 262144, 4096, 64, 1], requires_grad=0, device=cuda:0) = aten::_convolution(%input.401, %472, %473, %9675, %9676, %9677, %8794, %9678, %8799, %8800, %8801, %8802, %8803) # /home/fangzheng/miniconda3/envs/zl_nnunetv1/lib/python3.9/site-packages/torch/nn/modules/conv.py:602:0
  %8835 : int = prim::Constant[value=16]() # /home/fangzheng/miniconda3/envs/zl_nnunetv1/lib/python3.9/site-packages/torch/nn/functional.py:2516:0
  %8836 : float = prim::Constant[value=1.0000000000000001e-05]() # /home/fangzheng/miniconda3/envs/zl_nnunetv1/lib/python3.9/site-packages/torch/nn/functional.py:2516:0
  %8837 : bool = prim::Constant[value=1]() # /home/fangzheng/miniconda3/envs/zl_nnunetv1/lib/python3.9/site-packages/torch/nn/functional.py:2516:0
  %input.405 : Float(1, 16, 64, 64, 64, strides=[4194304, 262144, 4096, 64, 1], requires_grad=1, device=cuda:0) = aten::group_norm(%input.403, %8835, %474, %475, %8836, %8837) # /home/fangzheng/miniconda3/envs/zl_nnunetv1/lib/python3.9/site-packages/torch/nn/functional.py:2516:0
  %9679 : int[] = prim::Constant[value=[1, 1, 1]]()
  %9680 : int[] = prim::Constant[value=[0, 0, 0]]()
  %9681 : int[] = prim::Constant[value=[1, 1, 1]]()
  %8851 : bool = prim::Constant[value=0]() # /home/fangzheng/miniconda3/envs/zl_nnunetv1/lib/python3.9/site-packages/torch/nn/modules/conv.py:602:0
  %9682 : int[] = prim::Constant[value=[0, 0, 0]]()
  %8856 : int = prim::Constant[value=1]() # /home/fangzheng/miniconda3/envs/zl_nnunetv1/lib/python3.9/site-packages/torch/nn/modules/conv.py:602:0
  %8857 : bool = prim::Constant[value=1]() # /home/fangzheng/miniconda3/envs/zl_nnunetv1/lib/python3.9/site-packages/torch/nn/modules/conv.py:602:0
  %8858 : bool = prim::Constant[value=0]() # /home/fangzheng/miniconda3/envs/zl_nnunetv1/lib/python3.9/site-packages/torch/nn/modules/conv.py:602:0
  %8859 : bool = prim::Constant[value=1]() # /home/fangzheng/miniconda3/envs/zl_nnunetv1/lib/python3.9/site-packages/torch/nn/modules/conv.py:602:0
  %8860 : bool = prim::Constant[value=1]() # /home/fangzheng/miniconda3/envs/zl_nnunetv1/lib/python3.9/site-packages/torch/nn/modules/conv.py:602:0
  %8861 : Float(1, 32, 64, 64, 64, strides=[8388608, 262144, 4096, 64, 1], requires_grad=0, device=cuda:0) = aten::_convolution(%input.405, %476, %477, %9679, %9680, %9681, %8851, %9682, %8856, %8857, %8858, %8859, %8860) # /home/fangzheng/miniconda3/envs/zl_nnunetv1/lib/python3.9/site-packages/torch/nn/modules/conv.py:602:0
  %8862 : str = prim::Constant[value="none"]() # /home/fangzheng/miniconda3/envs/zl_nnunetv1/lib/python3.9/site-packages/torch/nn/modules/activation.py:681:0
  %x1 : Float(1, 32, 64, 64, 64, strides=[8388608, 262144, 4096, 64, 1], requires_grad=1, device=cuda:0) = aten::gelu(%8861, %8862) # /home/fangzheng/miniconda3/envs/zl_nnunetv1/lib/python3.9/site-packages/torch/nn/modules/activation.py:681:0
  %8864 : int = prim::Constant[value=2]() # /home/fangzheng/miniconda3/envs/zl_nnunetv1/lib/python3.9/site-packages/torch/functional.py:1495:0
  %9683 : int[] = prim::Constant[value=[-3, -2, -1]]()
  %8869 : bool = prim::Constant[value=1]() # /home/fangzheng/miniconda3/envs/zl_nnunetv1/lib/python3.9/site-packages/torch/functional.py:1495:0
  %8870 : Float(1, 32, 1, 1, 1, strides=[32, 1, 1, 1, 1], requires_grad=1, device=cuda:0) = aten::norm(%x1, %8864, %9683, %8869) # /home/fangzheng/miniconda3/envs/zl_nnunetv1/lib/python3.9/site-packages/torch/functional.py:1495:0
  %9684 : int[] = prim::Constant[value=[1]]()
  %8873 : bool = prim::Constant[value=1]() # /home/fangzheng/zoule/mednext/nnunet_mednext/network_architecture/mednextv1/blocks.py:96:0
  %8874 : NoneType = prim::Constant()
  %8875 : Float(1, 1, 1, 1, 1, strides=[1, 1, 1, 1, 1], requires_grad=1, device=cuda:0) = aten::mean(%8870, %9684, %8873, %8874) # /home/fangzheng/zoule/mednext/nnunet_mednext/network_architecture/mednextv1/blocks.py:96:0
  %8877 : int = prim::Constant[value=1]() # /home/fangzheng/zoule/mednext/nnunet_mednext/network_architecture/mednextv1/blocks.py:96:0
  %9793 : float = prim::Constant[value=9.9999999999999995e-07]()
  %9794 : Float(1, 1, 1, 1, 1, strides=[1, 1, 1, 1, 1], requires_grad=1, device=cuda:0) = aten::add(%8875, %9793, %8877) # /home/fangzheng/zoule/mednext/nnunet_mednext/network_architecture/mednextv1/blocks.py:96:0
  %8879 : Float(1, 32, 1, 1, 1, strides=[32, 1, 1, 1, 1], requires_grad=1, device=cuda:0) = aten::div(%8870, %9794) # /home/fangzheng/zoule/mednext/nnunet_mednext/network_architecture/mednextv1/blocks.py:96:0
  %8880 : Float(1, 32, 64, 64, 64, strides=[8388608, 262144, 4096, 64, 1], requires_grad=1, device=cuda:0) = aten::mul(%x1, %8879) # /home/fangzheng/zoule/mednext/nnunet_mednext/network_architecture/mednextv1/blocks.py:97:0
  %8881 : Float(1, 32, 64, 64, 64, strides=[8388608, 262144, 4096, 64, 1], requires_grad=1, device=cuda:0) = aten::mul(%471, %8880) # /home/fangzheng/zoule/mednext/nnunet_mednext/network_architecture/mednextv1/blocks.py:97:0
  %8882 : int = prim::Constant[value=1]() # /home/fangzheng/zoule/mednext/nnunet_mednext/network_architecture/mednextv1/blocks.py:97:0
  %8883 : Float(1, 32, 64, 64, 64, strides=[8388608, 262144, 4096, 64, 1], requires_grad=1, device=cuda:0) = aten::add(%8881, %470, %8882) # /home/fangzheng/zoule/mednext/nnunet_mednext/network_architecture/mednextv1/blocks.py:97:0
  %8884 : int = prim::Constant[value=1]() # /home/fangzheng/zoule/mednext/nnunet_mednext/network_architecture/mednextv1/blocks.py:97:0
  %input : Float(1, 32, 64, 64, 64, strides=[8388608, 262144, 4096, 64, 1], requires_grad=1, device=cuda:0) = aten::add(%8883, %x1, %8884) # /home/fangzheng/zoule/mednext/nnunet_mednext/network_architecture/mednextv1/blocks.py:97:0
  %9685 : int[] = prim::Constant[value=[1, 1, 1]]()
  %9686 : int[] = prim::Constant[value=[0, 0, 0]]()
  %9687 : int[] = prim::Constant[value=[1, 1, 1]]()
  %8898 : bool = prim::Constant[value=0]() # /home/fangzheng/miniconda3/envs/zl_nnunetv1/lib/python3.9/site-packages/torch/nn/modules/conv.py:602:0
  %9688 : int[] = prim::Constant[value=[0, 0, 0]]()
  %8903 : int = prim::Constant[value=1]() # /home/fangzheng/miniconda3/envs/zl_nnunetv1/lib/python3.9/site-packages/torch/nn/modules/conv.py:602:0
  %8904 : bool = prim::Constant[value=1]() # /home/fangzheng/miniconda3/envs/zl_nnunetv1/lib/python3.9/site-packages/torch/nn/modules/conv.py:602:0
  %8905 : bool = prim::Constant[value=0]() # /home/fangzheng/miniconda3/envs/zl_nnunetv1/lib/python3.9/site-packages/torch/nn/modules/conv.py:602:0
  %8906 : bool = prim::Constant[value=1]() # /home/fangzheng/miniconda3/envs/zl_nnunetv1/lib/python3.9/site-packages/torch/nn/modules/conv.py:602:0
  %8907 : bool = prim::Constant[value=1]() # /home/fangzheng/miniconda3/envs/zl_nnunetv1/lib/python3.9/site-packages/torch/nn/modules/conv.py:602:0
  %8908 : Float(1, 16, 64, 64, 64, strides=[4194304, 262144, 4096, 64, 1], requires_grad=0, device=cuda:0) = aten::_convolution(%input, %478, %479, %9685, %9686, %9687, %8898, %9688, %8903, %8904, %8905, %8906, %8907) # /home/fangzheng/miniconda3/envs/zl_nnunetv1/lib/python3.9/site-packages/torch/nn/modules/conv.py:602:0
  %8909 : int = prim::Constant[value=1]() # /home/fangzheng/zoule/mednext/nnunet_mednext/network_architecture/mednextv1/blocks.py:100:0
  %8910 : Float(1, 16, 64, 64, 64, strides=[4194304, 262144, 4096, 64, 1], requires_grad=1, device=cuda:0) = aten::add(%input.401, %8908, %8909) # /home/fangzheng/zoule/mednext/nnunet_mednext/network_architecture/mednextv1/blocks.py:100:0
  %9689 : int[] = prim::Constant[value=[1, 1, 1]]()
  %9690 : int[] = prim::Constant[value=[0, 0, 0]]()
  %9691 : int[] = prim::Constant[value=[1, 1, 1]]()
  %8923 : bool = prim::Constant[value=1]() # /home/fangzheng/miniconda3/envs/zl_nnunetv1/lib/python3.9/site-packages/torch/nn/modules/conv.py:1102:0
  %9692 : int[] = prim::Constant[value=[0, 0, 0]]()
  %8928 : int = prim::Constant[value=1]() # /home/fangzheng/miniconda3/envs/zl_nnunetv1/lib/python3.9/site-packages/torch/nn/modules/conv.py:1102:0
  %8929 : bool = prim::Constant[value=1]() # /home/fangzheng/miniconda3/envs/zl_nnunetv1/lib/python3.9/site-packages/torch/nn/modules/conv.py:1102:0
  %8930 : bool = prim::Constant[value=0]() # /home/fangzheng/miniconda3/envs/zl_nnunetv1/lib/python3.9/site-packages/torch/nn/modules/conv.py:1102:0
  %8931 : bool = prim::Constant[value=1]() # /home/fangzheng/miniconda3/envs/zl_nnunetv1/lib/python3.9/site-packages/torch/nn/modules/conv.py:1102:0
  %8932 : bool = prim::Constant[value=1]() # /home/fangzheng/miniconda3/envs/zl_nnunetv1/lib/python3.9/site-packages/torch/nn/modules/conv.py:1102:0
  %8933 : Float(1, 2, 64, 64, 64, strides=[524288, 262144, 4096, 64, 1], requires_grad=0, device=cuda:0) = aten::_convolution(%8910, %480, %481, %9689, %9690, %9691, %8923, %9692, %8928, %8929, %8930, %8931, %8932) # /home/fangzheng/miniconda3/envs/zl_nnunetv1/lib/python3.9/site-packages/torch/nn/modules/conv.py:1102:0
  %9693 : int[] = prim::Constant[value=[1, 1, 1]]()
  %9694 : int[] = prim::Constant[value=[0, 0, 0]]()
  %9695 : int[] = prim::Constant[value=[1, 1, 1]]()
  %8946 : bool = prim::Constant[value=1]() # /home/fangzheng/miniconda3/envs/zl_nnunetv1/lib/python3.9/site-packages/torch/nn/modules/conv.py:1102:0
  %9696 : int[] = prim::Constant[value=[0, 0, 0]]()
  %8951 : int = prim::Constant[value=1]() # /home/fangzheng/miniconda3/envs/zl_nnunetv1/lib/python3.9/site-packages/torch/nn/modules/conv.py:1102:0
  %8952 : bool = prim::Constant[value=1]() # /home/fangzheng/miniconda3/envs/zl_nnunetv1/lib/python3.9/site-packages/torch/nn/modules/conv.py:1102:0
  %8953 : bool = prim::Constant[value=0]() # /home/fangzheng/miniconda3/envs/zl_nnunetv1/lib/python3.9/site-packages/torch/nn/modules/conv.py:1102:0
  %8954 : bool = prim::Constant[value=1]() # /home/fangzheng/miniconda3/envs/zl_nnunetv1/lib/python3.9/site-packages/torch/nn/modules/conv.py:1102:0
  %8955 : bool = prim::Constant[value=1]() # /home/fangzheng/miniconda3/envs/zl_nnunetv1/lib/python3.9/site-packages/torch/nn/modules/conv.py:1102:0
  %8956 : Float(1, 2, 32, 32, 32, strides=[65536, 32768, 1024, 32, 1], requires_grad=0, device=cuda:0) = aten::_convolution(%input.375, %482, %483, %9693, %9694, %9695, %8946, %9696, %8951, %8952, %8953, %8954, %8955) # /home/fangzheng/miniconda3/envs/zl_nnunetv1/lib/python3.9/site-packages/torch/nn/modules/conv.py:1102:0
  %9697 : int[] = prim::Constant[value=[1, 1, 1]]()
  %9698 : int[] = prim::Constant[value=[0, 0, 0]]()
  %9699 : int[] = prim::Constant[value=[1, 1, 1]]()
  %8969 : bool = prim::Constant[value=1]() # /home/fangzheng/miniconda3/envs/zl_nnunetv1/lib/python3.9/site-packages/torch/nn/modules/conv.py:1102:0
  %9700 : int[] = prim::Constant[value=[0, 0, 0]]()
  %8974 : int = prim::Constant[value=1]() # /home/fangzheng/miniconda3/envs/zl_nnunetv1/lib/python3.9/site-packages/torch/nn/modules/conv.py:1102:0
  %8975 : bool = prim::Constant[value=1]() # /home/fangzheng/miniconda3/envs/zl_nnunetv1/lib/python3.9/site-packages/torch/nn/modules/conv.py:1102:0
  %8976 : bool = prim::Constant[value=0]() # /home/fangzheng/miniconda3/envs/zl_nnunetv1/lib/python3.9/site-packages/torch/nn/modules/conv.py:1102:0
  %8977 : bool = prim::Constant[value=1]() # /home/fangzheng/miniconda3/envs/zl_nnunetv1/lib/python3.9/site-packages/torch/nn/modules/conv.py:1102:0
  %8978 : bool = prim::Constant[value=1]() # /home/fangzheng/miniconda3/envs/zl_nnunetv1/lib/python3.9/site-packages/torch/nn/modules/conv.py:1102:0
  %8979 : Float(1, 2, 16, 16, 16, strides=[8192, 4096, 256, 16, 1], requires_grad=0, device=cuda:0) = aten::_convolution(%input.341, %484, %485, %9697, %9698, %9699, %8969, %9700, %8974, %8975, %8976, %8977, %8978) # /home/fangzheng/miniconda3/envs/zl_nnunetv1/lib/python3.9/site-packages/torch/nn/modules/conv.py:1102:0
  %9701 : int[] = prim::Constant[value=[1, 1, 1]]()
  %9702 : int[] = prim::Constant[value=[0, 0, 0]]()
  %9703 : int[] = prim::Constant[value=[1, 1, 1]]()
  %8992 : bool = prim::Constant[value=1]() # /home/fangzheng/miniconda3/envs/zl_nnunetv1/lib/python3.9/site-packages/torch/nn/modules/conv.py:1102:0
  %9704 : int[] = prim::Constant[value=[0, 0, 0]]()
  %8997 : int = prim::Constant[value=1]() # /home/fangzheng/miniconda3/envs/zl_nnunetv1/lib/python3.9/site-packages/torch/nn/modules/conv.py:1102:0
  %8998 : bool = prim::Constant[value=1]() # /home/fangzheng/miniconda3/envs/zl_nnunetv1/lib/python3.9/site-packages/torch/nn/modules/conv.py:1102:0
  %8999 : bool = prim::Constant[value=0]() # /home/fangzheng/miniconda3/envs/zl_nnunetv1/lib/python3.9/site-packages/torch/nn/modules/conv.py:1102:0
  %9000 : bool = prim::Constant[value=1]() # /home/fangzheng/miniconda3/envs/zl_nnunetv1/lib/python3.9/site-packages/torch/nn/modules/conv.py:1102:0
  %9001 : bool = prim::Constant[value=1]() # /home/fangzheng/miniconda3/envs/zl_nnunetv1/lib/python3.9/site-packages/torch/nn/modules/conv.py:1102:0
  %9002 : Float(1, 2, 8, 8, 8, strides=[1024, 512, 64, 8, 1], requires_grad=0, device=cuda:0) = aten::_convolution(%input.307, %486, %487, %9701, %9702, %9703, %8992, %9704, %8997, %8998, %8999, %9000, %9001) # /home/fangzheng/miniconda3/envs/zl_nnunetv1/lib/python3.9/site-packages/torch/nn/modules/conv.py:1102:0
  %9705 : int[] = prim::Constant[value=[1, 1, 1]]()
  %9706 : int[] = prim::Constant[value=[0, 0, 0]]()
  %9707 : int[] = prim::Constant[value=[1, 1, 1]]()
  %9015 : bool = prim::Constant[value=1]() # /home/fangzheng/miniconda3/envs/zl_nnunetv1/lib/python3.9/site-packages/torch/nn/modules/conv.py:1102:0
  %9708 : int[] = prim::Constant[value=[0, 0, 0]]()
  %9020 : int = prim::Constant[value=1]() # /home/fangzheng/miniconda3/envs/zl_nnunetv1/lib/python3.9/site-packages/torch/nn/modules/conv.py:1102:0
  %9021 : bool = prim::Constant[value=1]() # /home/fangzheng/miniconda3/envs/zl_nnunetv1/lib/python3.9/site-packages/torch/nn/modules/conv.py:1102:0
  %9022 : bool = prim::Constant[value=0]() # /home/fangzheng/miniconda3/envs/zl_nnunetv1/lib/python3.9/site-packages/torch/nn/modules/conv.py:1102:0
  %9023 : bool = prim::Constant[value=1]() # /home/fangzheng/miniconda3/envs/zl_nnunetv1/lib/python3.9/site-packages/torch/nn/modules/conv.py:1102:0
  %9024 : bool = prim::Constant[value=1]() # /home/fangzheng/miniconda3/envs/zl_nnunetv1/lib/python3.9/site-packages/torch/nn/modules/conv.py:1102:0
  %9025 : Float(1, 2, 4, 4, 4, strides=[128, 64, 16, 4, 1], requires_grad=0, device=cuda:0) = aten::_convolution(%input.273, %488, %489, %9705, %9706, %9707, %9015, %9708, %9020, %9021, %9022, %9023, %9024) # /home/fangzheng/miniconda3/envs/zl_nnunetv1/lib/python3.9/site-packages/torch/nn/modules/conv.py:1102:0
  return (%8933, %8956, %8979, %9002, %9025)
, None, False
2026-03-08 19:18:47.770767: 
printing the network instead:

2026-03-08 19:18:47.770793: Double_CCA_UPSam_RWKV_MedNeXt(
  (net): Double_CCA_UPSam_RWKV_MedNeXt(
    (encoder): Double_RWKV_MedNeXt_Encoder(
      (mednext_enc): MedNeXt_EncoderOnly(
        (stem): Conv3d(1, 16, kernel_size=(1, 1, 1), stride=(1, 1, 1))
        (enc_block_0): Sequential(
          (0): MedNeXtBlock(
            (conv1): Conv3d(16, 16, kernel_size=(3, 3, 3), stride=(1, 1, 1), padding=(1, 1, 1), groups=16)
            (norm): GroupNorm(16, 16, eps=1e-05, affine=True)
            (conv2): Conv3d(16, 32, kernel_size=(1, 1, 1), stride=(1, 1, 1))
            (act): GELU(approximate=none)
            (conv3): Conv3d(32, 16, kernel_size=(1, 1, 1), stride=(1, 1, 1))
          )
          (1): MedNeXtBlock(
            (conv1): Conv3d(16, 16, kernel_size=(3, 3, 3), stride=(1, 1, 1), padding=(1, 1, 1), groups=16)
            (norm): GroupNorm(16, 16, eps=1e-05, affine=True)
            (conv2): Conv3d(16, 32, kernel_size=(1, 1, 1), stride=(1, 1, 1))
            (act): GELU(approximate=none)
            (conv3): Conv3d(32, 16, kernel_size=(1, 1, 1), stride=(1, 1, 1))
          )
        )
        (down_0): MedNeXtDownBlock(
          (conv1): Conv3d(16, 16, kernel_size=(3, 3, 3), stride=(2, 2, 2), padding=(1, 1, 1), groups=16)
          (norm): GroupNorm(16, 16, eps=1e-05, affine=True)
          (conv2): Conv3d(16, 32, kernel_size=(1, 1, 1), stride=(1, 1, 1))
          (act): GELU(approximate=none)
          (conv3): Conv3d(32, 32, kernel_size=(1, 1, 1), stride=(1, 1, 1))
          (res_conv): Conv3d(16, 32, kernel_size=(1, 1, 1), stride=(2, 2, 2))
        )
        (enc_block_1): Sequential(
          (0): MedNeXtBlock(
            (conv1): Conv3d(32, 32, kernel_size=(3, 3, 3), stride=(1, 1, 1), padding=(1, 1, 1), groups=32)
            (norm): GroupNorm(32, 32, eps=1e-05, affine=True)
            (conv2): Conv3d(32, 64, kernel_size=(1, 1, 1), stride=(1, 1, 1))
            (act): GELU(approximate=none)
            (conv3): Conv3d(64, 32, kernel_size=(1, 1, 1), stride=(1, 1, 1))
          )
          (1): MedNeXtBlock(
            (conv1): Conv3d(32, 32, kernel_size=(3, 3, 3), stride=(1, 1, 1), padding=(1, 1, 1), groups=32)
            (norm): GroupNorm(32, 32, eps=1e-05, affine=True)
            (conv2): Conv3d(32, 64, kernel_size=(1, 1, 1), stride=(1, 1, 1))
            (act): GELU(approximate=none)
            (conv3): Conv3d(64, 32, kernel_size=(1, 1, 1), stride=(1, 1, 1))
          )
        )
        (down_1): MedNeXtDownBlock(
          (conv1): Conv3d(32, 32, kernel_size=(3, 3, 3), stride=(2, 2, 2), padding=(1, 1, 1), groups=32)
          (norm): GroupNorm(32, 32, eps=1e-05, affine=True)
          (conv2): Conv3d(32, 64, kernel_size=(1, 1, 1), stride=(1, 1, 1))
          (act): GELU(approximate=none)
          (conv3): Conv3d(64, 64, kernel_size=(1, 1, 1), stride=(1, 1, 1))
          (res_conv): Conv3d(32, 64, kernel_size=(1, 1, 1), stride=(2, 2, 2))
        )
        (enc_block_2): Sequential(
          (0): MedNeXtBlock(
            (conv1): Conv3d(64, 64, kernel_size=(3, 3, 3), stride=(1, 1, 1), padding=(1, 1, 1), groups=64)
            (norm): GroupNorm(64, 64, eps=1e-05, affine=True)
            (conv2): Conv3d(64, 128, kernel_size=(1, 1, 1), stride=(1, 1, 1))
            (act): GELU(approximate=none)
            (conv3): Conv3d(128, 64, kernel_size=(1, 1, 1), stride=(1, 1, 1))
          )
          (1): MedNeXtBlock(
            (conv1): Conv3d(64, 64, kernel_size=(3, 3, 3), stride=(1, 1, 1), padding=(1, 1, 1), groups=64)
            (norm): GroupNorm(64, 64, eps=1e-05, affine=True)
            (conv2): Conv3d(64, 128, kernel_size=(1, 1, 1), stride=(1, 1, 1))
            (act): GELU(approximate=none)
            (conv3): Conv3d(128, 64, kernel_size=(1, 1, 1), stride=(1, 1, 1))
          )
        )
        (down_2): MedNeXtDownBlock(
          (conv1): Conv3d(64, 64, kernel_size=(3, 3, 3), stride=(2, 2, 2), padding=(1, 1, 1), groups=64)
          (norm): GroupNorm(64, 64, eps=1e-05, affine=True)
          (conv2): Conv3d(64, 128, kernel_size=(1, 1, 1), stride=(1, 1, 1))
          (act): GELU(approximate=none)
          (conv3): Conv3d(128, 128, kernel_size=(1, 1, 1), stride=(1, 1, 1))
          (res_conv): Conv3d(64, 128, kernel_size=(1, 1, 1), stride=(2, 2, 2))
        )
        (enc_block_3): Sequential(
          (0): MedNeXtBlock(
            (conv1): Conv3d(128, 128, kernel_size=(3, 3, 3), stride=(1, 1, 1), padding=(1, 1, 1), groups=128)
            (norm): GroupNorm(128, 128, eps=1e-05, affine=True)
            (conv2): Conv3d(128, 256, kernel_size=(1, 1, 1), stride=(1, 1, 1))
            (act): GELU(approximate=none)
            (conv3): Conv3d(256, 128, kernel_size=(1, 1, 1), stride=(1, 1, 1))
          )
          (1): MedNeXtBlock(
            (conv1): Conv3d(128, 128, kernel_size=(3, 3, 3), stride=(1, 1, 1), padding=(1, 1, 1), groups=128)
            (norm): GroupNorm(128, 128, eps=1e-05, affine=True)
            (conv2): Conv3d(128, 256, kernel_size=(1, 1, 1), stride=(1, 1, 1))
            (act): GELU(approximate=none)
            (conv3): Conv3d(256, 128, kernel_size=(1, 1, 1), stride=(1, 1, 1))
          )
        )
        (down_3): MedNeXtDownBlock(
          (conv1): Conv3d(128, 128, kernel_size=(3, 3, 3), stride=(2, 2, 2), padding=(1, 1, 1), groups=128)
          (norm): GroupNorm(128, 128, eps=1e-05, affine=True)
          (conv2): Conv3d(128, 256, kernel_size=(1, 1, 1), stride=(1, 1, 1))
          (act): GELU(approximate=none)
          (conv3): Conv3d(256, 256, kernel_size=(1, 1, 1), stride=(1, 1, 1))
          (res_conv): Conv3d(128, 256, kernel_size=(1, 1, 1), stride=(2, 2, 2))
        )
        (bottleneck): Sequential(
          (0): MedNeXtBlock(
            (conv1): Conv3d(256, 256, kernel_size=(3, 3, 3), stride=(1, 1, 1), padding=(1, 1, 1), groups=256)
            (norm): GroupNorm(256, 256, eps=1e-05, affine=True)
            (conv2): Conv3d(256, 512, kernel_size=(1, 1, 1), stride=(1, 1, 1))
            (act): GELU(approximate=none)
            (conv3): Conv3d(512, 256, kernel_size=(1, 1, 1), stride=(1, 1, 1))
          )
          (1): MedNeXtBlock(
            (conv1): Conv3d(256, 256, kernel_size=(3, 3, 3), stride=(1, 1, 1), padding=(1, 1, 1), groups=256)
            (norm): GroupNorm(256, 256, eps=1e-05, affine=True)
            (conv2): Conv3d(256, 512, kernel_size=(1, 1, 1), stride=(1, 1, 1))
            (act): GELU(approximate=none)
            (conv3): Conv3d(512, 256, kernel_size=(1, 1, 1), stride=(1, 1, 1))
          )
        )
        (up_3): MedNeXtUpBlock(
          (conv1): ConvTranspose3d(256, 256, kernel_size=(3, 3, 3), stride=(2, 2, 2), padding=(1, 1, 1), groups=256)
          (norm): GroupNorm(256, 256, eps=1e-05, affine=True)
          (conv2): Conv3d(256, 512, kernel_size=(1, 1, 1), stride=(1, 1, 1))
          (act): GELU(approximate=none)
          (conv3): Conv3d(512, 128, kernel_size=(1, 1, 1), stride=(1, 1, 1))
          (res_conv): ConvTranspose3d(256, 128, kernel_size=(1, 1, 1), stride=(2, 2, 2))
        )
        (dec_block_3): Sequential(
          (0): MedNeXtBlock(
            (conv1): Conv3d(128, 128, kernel_size=(3, 3, 3), stride=(1, 1, 1), padding=(1, 1, 1), groups=128)
            (norm): GroupNorm(128, 128, eps=1e-05, affine=True)
            (conv2): Conv3d(128, 256, kernel_size=(1, 1, 1), stride=(1, 1, 1))
            (act): GELU(approximate=none)
            (conv3): Conv3d(256, 128, kernel_size=(1, 1, 1), stride=(1, 1, 1))
          )
          (1): MedNeXtBlock(
            (conv1): Conv3d(128, 128, kernel_size=(3, 3, 3), stride=(1, 1, 1), padding=(1, 1, 1), groups=128)
            (norm): GroupNorm(128, 128, eps=1e-05, affine=True)
            (conv2): Conv3d(128, 256, kernel_size=(1, 1, 1), stride=(1, 1, 1))
            (act): GELU(approximate=none)
            (conv3): Conv3d(256, 128, kernel_size=(1, 1, 1), stride=(1, 1, 1))
          )
        )
        (up_2): MedNeXtUpBlock(
          (conv1): ConvTranspose3d(128, 128, kernel_size=(3, 3, 3), stride=(2, 2, 2), padding=(1, 1, 1), groups=128)
          (norm): GroupNorm(128, 128, eps=1e-05, affine=True)
          (conv2): Conv3d(128, 256, kernel_size=(1, 1, 1), stride=(1, 1, 1))
          (act): GELU(approximate=none)
          (conv3): Conv3d(256, 64, kernel_size=(1, 1, 1), stride=(1, 1, 1))
          (res_conv): ConvTranspose3d(128, 64, kernel_size=(1, 1, 1), stride=(2, 2, 2))
        )
        (dec_block_2): Sequential(
          (0): MedNeXtBlock(
            (conv1): Conv3d(64, 64, kernel_size=(3, 3, 3), stride=(1, 1, 1), padding=(1, 1, 1), groups=64)
            (norm): GroupNorm(64, 64, eps=1e-05, affine=True)
            (conv2): Conv3d(64, 128, kernel_size=(1, 1, 1), stride=(1, 1, 1))
            (act): GELU(approximate=none)
            (conv3): Conv3d(128, 64, kernel_size=(1, 1, 1), stride=(1, 1, 1))
          )
          (1): MedNeXtBlock(
            (conv1): Conv3d(64, 64, kernel_size=(3, 3, 3), stride=(1, 1, 1), padding=(1, 1, 1), groups=64)
            (norm): GroupNorm(64, 64, eps=1e-05, affine=True)
            (conv2): Conv3d(64, 128, kernel_size=(1, 1, 1), stride=(1, 1, 1))
            (act): GELU(approximate=none)
            (conv3): Conv3d(128, 64, kernel_size=(1, 1, 1), stride=(1, 1, 1))
          )
        )
        (up_1): MedNeXtUpBlock(
          (conv1): ConvTranspose3d(64, 64, kernel_size=(3, 3, 3), stride=(2, 2, 2), padding=(1, 1, 1), groups=64)
          (norm): GroupNorm(64, 64, eps=1e-05, affine=True)
          (conv2): Conv3d(64, 128, kernel_size=(1, 1, 1), stride=(1, 1, 1))
          (act): GELU(approximate=none)
          (conv3): Conv3d(128, 32, kernel_size=(1, 1, 1), stride=(1, 1, 1))
          (res_conv): ConvTranspose3d(64, 32, kernel_size=(1, 1, 1), stride=(2, 2, 2))
        )
        (dec_block_1): Sequential(
          (0): MedNeXtBlock(
            (conv1): Conv3d(32, 32, kernel_size=(3, 3, 3), stride=(1, 1, 1), padding=(1, 1, 1), groups=32)
            (norm): GroupNorm(32, 32, eps=1e-05, affine=True)
            (conv2): Conv3d(32, 64, kernel_size=(1, 1, 1), stride=(1, 1, 1))
            (act): GELU(approximate=none)
            (conv3): Conv3d(64, 32, kernel_size=(1, 1, 1), stride=(1, 1, 1))
          )
          (1): MedNeXtBlock(
            (conv1): Conv3d(32, 32, kernel_size=(3, 3, 3), stride=(1, 1, 1), padding=(1, 1, 1), groups=32)
            (norm): GroupNorm(32, 32, eps=1e-05, affine=True)
            (conv2): Conv3d(32, 64, kernel_size=(1, 1, 1), stride=(1, 1, 1))
            (act): GELU(approximate=none)
            (conv3): Conv3d(64, 32, kernel_size=(1, 1, 1), stride=(1, 1, 1))
          )
        )
        (up_0): MedNeXtUpBlock(
          (conv1): ConvTranspose3d(32, 32, kernel_size=(3, 3, 3), stride=(2, 2, 2), padding=(1, 1, 1), groups=32)
          (norm): GroupNorm(32, 32, eps=1e-05, affine=True)
          (conv2): Conv3d(32, 64, kernel_size=(1, 1, 1), stride=(1, 1, 1))
          (act): GELU(approximate=none)
          (conv3): Conv3d(64, 16, kernel_size=(1, 1, 1), stride=(1, 1, 1))
          (res_conv): ConvTranspose3d(32, 16, kernel_size=(1, 1, 1), stride=(2, 2, 2))
        )
        (dec_block_0): Sequential(
          (0): MedNeXtBlock(
            (conv1): Conv3d(16, 16, kernel_size=(3, 3, 3), stride=(1, 1, 1), padding=(1, 1, 1), groups=16)
            (norm): GroupNorm(16, 16, eps=1e-05, affine=True)
            (conv2): Conv3d(16, 32, kernel_size=(1, 1, 1), stride=(1, 1, 1))
            (act): GELU(approximate=none)
            (conv3): Conv3d(32, 16, kernel_size=(1, 1, 1), stride=(1, 1, 1))
          )
          (1): MedNeXtBlock(
            (conv1): Conv3d(16, 16, kernel_size=(3, 3, 3), stride=(1, 1, 1), padding=(1, 1, 1), groups=16)
            (norm): GroupNorm(16, 16, eps=1e-05, affine=True)
            (conv2): Conv3d(16, 32, kernel_size=(1, 1, 1), stride=(1, 1, 1))
            (act): GELU(approximate=none)
            (conv3): Conv3d(32, 16, kernel_size=(1, 1, 1), stride=(1, 1, 1))
          )
        )
        (out_0): OutBlock(
          (conv_out): ConvTranspose3d(16, 1, kernel_size=(1, 1, 1), stride=(1, 1, 1))
        )
      )
      (rwkv_enc): RWKV_UNet_3D_Encoder(
        (in_proj): Conv3d(64, 64, kernel_size=(1, 1, 1), stride=(1, 1, 1))
        (stage2_block): GLSP3D(
          (conv1): Conv3d(64, 64, kernel_size=(1, 1, 1), stride=(1, 1, 1), bias=False)
          (norm1): BatchNorm3d(64, eps=1e-05, momentum=0.1, affine=True, track_running_stats=True)
          (attn): VRWKV_SpatialMix(
            (key): Linear(in_features=64, out_features=64, bias=False)
            (value): Linear(in_features=64, out_features=64, bias=False)
            (receptance): Linear(in_features=64, out_features=64, bias=False)
            (key_norm): LayerNorm((64,), eps=1e-05, elementwise_affine=True)
            (output): Linear(in_features=64, out_features=64, bias=False)
          )
          (ln): LayerNorm((64,), eps=1e-05, elementwise_affine=True)
          (se): Identity()
          (proj): Conv3d(64, 64, kernel_size=(1, 1, 1), stride=(1, 1, 1), bias=False)
          (drop): Dropout(p=0.0, inplace=False)
          (drop_path): Identity()
        )
        (stage2_down): Downsample3D(
          (conv): Conv3d(64, 128, kernel_size=(3, 3, 3), stride=(2, 2, 2), padding=(1, 1, 1))
        )
        (stage3_block): GLSP3D(
          (conv1): Conv3d(128, 128, kernel_size=(1, 1, 1), stride=(1, 1, 1), bias=False)
          (norm1): BatchNorm3d(128, eps=1e-05, momentum=0.1, affine=True, track_running_stats=True)
          (attn): VRWKV_SpatialMix(
            (key): Linear(in_features=128, out_features=128, bias=False)
            (value): Linear(in_features=128, out_features=128, bias=False)
            (receptance): Linear(in_features=128, out_features=128, bias=False)
            (key_norm): LayerNorm((128,), eps=1e-05, elementwise_affine=True)
            (output): Linear(in_features=128, out_features=128, bias=False)
          )
          (ln): LayerNorm((128,), eps=1e-05, elementwise_affine=True)
          (se): Identity()
          (proj): Conv3d(128, 128, kernel_size=(1, 1, 1), stride=(1, 1, 1), bias=False)
          (drop): Dropout(p=0.0, inplace=False)
          (drop_path): Identity()
        )
        (stage3_down): Downsample3D(
          (conv): Conv3d(128, 256, kernel_size=(3, 3, 3), stride=(2, 2, 2), padding=(1, 1, 1))
        )
      )
      (fuse2): FusionBlock3D(
        (proj): Sequential(
          (0): Conv3d(128, 64, kernel_size=(1, 1, 1), stride=(1, 1, 1), bias=False)
          (1): BatchNorm3d(64, eps=1e-05, momentum=0.1, affine=True, track_running_stats=True)
          (2): SiLU(inplace=True)
        )
      )
      (fuse3): FusionBlock3D(
        (proj): Sequential(
          (0): Conv3d(256, 128, kernel_size=(1, 1, 1), stride=(1, 1, 1), bias=False)
          (1): BatchNorm3d(128, eps=1e-05, momentum=0.1, affine=True, track_running_stats=True)
          (2): SiLU(inplace=True)
        )
      )
      (fuse4): FusionBlock3D(
        (proj): Sequential(
          (0): Conv3d(512, 256, kernel_size=(1, 1, 1), stride=(1, 1, 1), bias=False)
          (1): BatchNorm3d(256, eps=1e-05, momentum=0.1, affine=True, track_running_stats=True)
          (2): SiLU(inplace=True)
        )
      )
    )
    (decoder): CCA_LRDU_Decoder3D(
      (up_3): LRDU3D(
        (conv1): Conv3d(256, 256, kernel_size=(1, 1, 7), stride=(1, 1, 1), padding=(0, 0, 3), groups=4, bias=False)
        (conv2): Conv3d(256, 256, kernel_size=(1, 7, 1), stride=(1, 1, 1), padding=(0, 3, 0), groups=4, bias=False)
        (conv3): Conv3d(256, 256, kernel_size=(7, 1, 1), stride=(1, 1, 1), padding=(3, 0, 0), groups=4, bias=False)
        (norm): BatchNorm3d(256, eps=1e-05, momentum=0.1, affine=True, track_running_stats=True)
        (act): GELU(approximate=none)
        (channel_expand): Conv3d(256, 2048, kernel_size=(1, 1, 1), stride=(1, 1, 1), bias=False)
        (pixel_shuffle): PixelShuffle3D()
      )
      (proj_3): Conv3d(256, 128, kernel_size=(1, 1, 1), stride=(1, 1, 1), bias=False)
      (cca_3): ChannelCrossAttention3D(
        (mlp): Sequential(
          (0): Conv3d(128, 32, kernel_size=(1, 1, 1), stride=(1, 1, 1))
          (1): ReLU(inplace=True)
          (2): Conv3d(32, 128, kernel_size=(1, 1, 1), stride=(1, 1, 1))
          (3): Sigmoid()
        )
      )
      (dec_block_3): Sequential(
        (0): MedNeXtBlock(
          (conv1): Conv3d(128, 128, kernel_size=(3, 3, 3), stride=(1, 1, 1), padding=(1, 1, 1), groups=128)
          (norm): GroupNorm(128, 128, eps=1e-05, affine=True)
          (conv2): Conv3d(128, 256, kernel_size=(1, 1, 1), stride=(1, 1, 1))
          (act): GELU(approximate=none)
          (conv3): Conv3d(256, 128, kernel_size=(1, 1, 1), stride=(1, 1, 1))
        )
        (1): MedNeXtBlock(
          (conv1): Conv3d(128, 128, kernel_size=(3, 3, 3), stride=(1, 1, 1), padding=(1, 1, 1), groups=128)
          (norm): GroupNorm(128, 128, eps=1e-05, affine=True)
          (conv2): Conv3d(128, 256, kernel_size=(1, 1, 1), stride=(1, 1, 1))
          (act): GELU(approximate=none)
          (conv3): Conv3d(256, 128, kernel_size=(1, 1, 1), stride=(1, 1, 1))
        )
      )
      (up_2): LRDU3D(
        (conv1): Conv3d(128, 128, kernel_size=(1, 1, 7), stride=(1, 1, 1), padding=(0, 0, 3), groups=4, bias=False)
        (conv2): Conv3d(128, 128, kernel_size=(1, 7, 1), stride=(1, 1, 1), padding=(0, 3, 0), groups=4, bias=False)
        (conv3): Conv3d(128, 128, kernel_size=(7, 1, 1), stride=(1, 1, 1), padding=(3, 0, 0), groups=4, bias=False)
        (norm): BatchNorm3d(128, eps=1e-05, momentum=0.1, affine=True, track_running_stats=True)
        (act): GELU(approximate=none)
        (channel_expand): Conv3d(128, 1024, kernel_size=(1, 1, 1), stride=(1, 1, 1), bias=False)
        (pixel_shuffle): PixelShuffle3D()
      )
      (proj_2): Conv3d(128, 64, kernel_size=(1, 1, 1), stride=(1, 1, 1), bias=False)
      (cca_2): ChannelCrossAttention3D(
        (mlp): Sequential(
          (0): Conv3d(64, 16, kernel_size=(1, 1, 1), stride=(1, 1, 1))
          (1): ReLU(inplace=True)
          (2): Conv3d(16, 64, kernel_size=(1, 1, 1), stride=(1, 1, 1))
          (3): Sigmoid()
        )
      )
      (dec_block_2): Sequential(
        (0): MedNeXtBlock(
          (conv1): Conv3d(64, 64, kernel_size=(3, 3, 3), stride=(1, 1, 1), padding=(1, 1, 1), groups=64)
          (norm): GroupNorm(64, 64, eps=1e-05, affine=True)
          (conv2): Conv3d(64, 128, kernel_size=(1, 1, 1), stride=(1, 1, 1))
          (act): GELU(approximate=none)
          (conv3): Conv3d(128, 64, kernel_size=(1, 1, 1), stride=(1, 1, 1))
        )
        (1): MedNeXtBlock(
          (conv1): Conv3d(64, 64, kernel_size=(3, 3, 3), stride=(1, 1, 1), padding=(1, 1, 1), groups=64)
          (norm): GroupNorm(64, 64, eps=1e-05, affine=True)
          (conv2): Conv3d(64, 128, kernel_size=(1, 1, 1), stride=(1, 1, 1))
          (act): GELU(approximate=none)
          (conv3): Conv3d(128, 64, kernel_size=(1, 1, 1), stride=(1, 1, 1))
        )
      )
      (up_1): LRDU3D(
        (conv1): Conv3d(64, 64, kernel_size=(1, 1, 7), stride=(1, 1, 1), padding=(0, 0, 3), groups=4, bias=False)
        (conv2): Conv3d(64, 64, kernel_size=(1, 7, 1), stride=(1, 1, 1), padding=(0, 3, 0), groups=4, bias=False)
        (conv3): Conv3d(64, 64, kernel_size=(7, 1, 1), stride=(1, 1, 1), padding=(3, 0, 0), groups=4, bias=False)
        (norm): BatchNorm3d(64, eps=1e-05, momentum=0.1, affine=True, track_running_stats=True)
        (act): GELU(approximate=none)
        (channel_expand): Conv3d(64, 512, kernel_size=(1, 1, 1), stride=(1, 1, 1), bias=False)
        (pixel_shuffle): PixelShuffle3D()
      )
      (proj_1): Conv3d(64, 32, kernel_size=(1, 1, 1), stride=(1, 1, 1), bias=False)
      (cca_1): ChannelCrossAttention3D(
        (mlp): Sequential(
          (0): Conv3d(32, 8, kernel_size=(1, 1, 1), stride=(1, 1, 1))
          (1): ReLU(inplace=True)
          (2): Conv3d(8, 32, kernel_size=(1, 1, 1), stride=(1, 1, 1))
          (3): Sigmoid()
        )
      )
      (dec_block_1): Sequential(
        (0): MedNeXtBlock(
          (conv1): Conv3d(32, 32, kernel_size=(3, 3, 3), stride=(1, 1, 1), padding=(1, 1, 1), groups=32)
          (norm): GroupNorm(32, 32, eps=1e-05, affine=True)
          (conv2): Conv3d(32, 64, kernel_size=(1, 1, 1), stride=(1, 1, 1))
          (act): GELU(approximate=none)
          (conv3): Conv3d(64, 32, kernel_size=(1, 1, 1), stride=(1, 1, 1))
        )
        (1): MedNeXtBlock(
          (conv1): Conv3d(32, 32, kernel_size=(3, 3, 3), stride=(1, 1, 1), padding=(1, 1, 1), groups=32)
          (norm): GroupNorm(32, 32, eps=1e-05, affine=True)
          (conv2): Conv3d(32, 64, kernel_size=(1, 1, 1), stride=(1, 1, 1))
          (act): GELU(approximate=none)
          (conv3): Conv3d(64, 32, kernel_size=(1, 1, 1), stride=(1, 1, 1))
        )
      )
      (up_0): LRDU3D(
        (conv1): Conv3d(32, 32, kernel_size=(1, 1, 7), stride=(1, 1, 1), padding=(0, 0, 3), groups=4, bias=False)
        (conv2): Conv3d(32, 32, kernel_size=(1, 7, 1), stride=(1, 1, 1), padding=(0, 3, 0), groups=4, bias=False)
        (conv3): Conv3d(32, 32, kernel_size=(7, 1, 1), stride=(1, 1, 1), padding=(3, 0, 0), groups=4, bias=False)
        (norm): BatchNorm3d(32, eps=1e-05, momentum=0.1, affine=True, track_running_stats=True)
        (act): GELU(approximate=none)
        (channel_expand): Conv3d(32, 256, kernel_size=(1, 1, 1), stride=(1, 1, 1), bias=False)
        (pixel_shuffle): PixelShuffle3D()
      )
      (proj_0): Conv3d(32, 16, kernel_size=(1, 1, 1), stride=(1, 1, 1), bias=False)
      (cca_0): ChannelCrossAttention3D(
        (mlp): Sequential(
          (0): Conv3d(16, 4, kernel_size=(1, 1, 1), stride=(1, 1, 1))
          (1): ReLU(inplace=True)
          (2): Conv3d(4, 16, kernel_size=(1, 1, 1), stride=(1, 1, 1))
          (3): Sigmoid()
        )
      )
      (dec_block_0): Sequential(
        (0): MedNeXtBlock(
          (conv1): Conv3d(16, 16, kernel_size=(3, 3, 3), stride=(1, 1, 1), padding=(1, 1, 1), groups=16)
          (norm): GroupNorm(16, 16, eps=1e-05, affine=True)
          (conv2): Conv3d(16, 32, kernel_size=(1, 1, 1), stride=(1, 1, 1))
          (act): GELU(approximate=none)
          (conv3): Conv3d(32, 16, kernel_size=(1, 1, 1), stride=(1, 1, 1))
        )
        (1): MedNeXtBlock(
          (conv1): Conv3d(16, 16, kernel_size=(3, 3, 3), stride=(1, 1, 1), padding=(1, 1, 1), groups=16)
          (norm): GroupNorm(16, 16, eps=1e-05, affine=True)
          (conv2): Conv3d(16, 32, kernel_size=(1, 1, 1), stride=(1, 1, 1))
          (act): GELU(approximate=none)
          (conv3): Conv3d(32, 16, kernel_size=(1, 1, 1), stride=(1, 1, 1))
        )
      )
    )
    (out_0): OutBlock(
      (conv_out): ConvTranspose3d(16, 2, kernel_size=(1, 1, 1), stride=(1, 1, 1))
    )
    (out_1): OutBlock(
      (conv_out): ConvTranspose3d(32, 2, kernel_size=(1, 1, 1), stride=(1, 1, 1))
    )
    (out_2): OutBlock(
      (conv_out): ConvTranspose3d(64, 2, kernel_size=(1, 1, 1), stride=(1, 1, 1))
    )
    (out_3): OutBlock(
      (conv_out): ConvTranspose3d(128, 2, kernel_size=(1, 1, 1), stride=(1, 1, 1))
    )
    (out_4): OutBlock(
      (conv_out): ConvTranspose3d(256, 2, kernel_size=(1, 1, 1), stride=(1, 1, 1))
    )
  )
)
2026-03-08 19:18:47.773070: 

2026-03-08 19:18:47.859685: 
epoch:  0
2026-03-08 19:19:30.841180: train loss : -0.4056
Traceback (most recent call last):
  File "/home/fangzheng/miniconda3/envs/zl_nnunetv1/bin/mednextv1_train", line 7, in <module>
    sys.exit(main())
  File "/home/fangzheng/zoule/mednext/nnunet_mednext/run/run_training.py", line 188, in main
    trainer.run_training()
  File "/home/fangzheng/zoule/mednext/nnunet_mednext/training/network_training/nnUNetTrainerV2.py", line 527, in run_training
    ret = super().run_training()
  File "/home/fangzheng/zoule/mednext/nnunet_mednext/training/network_training/nnUNetTrainer.py", line 318, in run_training
    super(nnUNetTrainer, self).run_training()
  File "/home/fangzheng/zoule/mednext/nnunet_mednext/training/network_training/network_trainer.py", line 469, in run_training
    l = self.run_iteration(self.val_gen, False, True)
  File "/home/fangzheng/zoule/mednext/nnunet_mednext/training/network_training/nnUNetTrainerV2.py", line 337, in run_iteration
    l = self.loss(output, target)
  File "/home/fangzheng/miniconda3/envs/zl_nnunetv1/lib/python3.9/site-packages/torch/nn/modules/module.py", line 1130, in _call_impl
    return forward_call(*input, **kwargs)
  File "/home/fangzheng/zoule/mednext/nnunet_mednext/training/loss_functions/deep_supervision.py", line 34, in forward
    assert isinstance(x, (tuple, list)), "x must be either tuple or list"
AssertionError: x must be either tuple or list
Exception in thread Thread-4:
Traceback (most recent call last):
  File "/home/fangzheng/miniconda3/envs/zl_nnunetv1/lib/python3.9/threading.py", line 980, in _bootstrap_inner
    self.run()
  File "/home/fangzheng/miniconda3/envs/zl_nnunetv1/lib/python3.9/threading.py", line 917, in run
    self._target(*self._args, **self._kwargs)
  File "/home/fangzheng/miniconda3/envs/zl_nnunetv1/lib/python3.9/site-packages/batchgenerators/dataloading/multi_threaded_augmenter.py", line 92, in results_loop
    raise RuntimeError("One or more background workers are no longer alive. Exiting. Please check the print"
RuntimeError: One or more background workers are no longer alive. Exiting. Please check the print statements above for the actual error message
Exception in thread Thread-5:
Traceback (most recent call last):
  File "/home/fangzheng/miniconda3/envs/zl_nnunetv1/lib/python3.9/threading.py", line 980, in _bootstrap_inner
    self.run()
  File "/home/fangzheng/miniconda3/envs/zl_nnunetv1/lib/python3.9/threading.py", line 917, in run
    self._target(*self._args, **self._kwargs)
  File "/home/fangzheng/miniconda3/envs/zl_nnunetv1/lib/python3.9/site-packages/batchgenerators/dataloading/multi_threaded_augmenter.py", line 92, in results_loop
    raise RuntimeError("One or more background workers are no longer alive. Exiting. Please check the print"
RuntimeError: One or more background workers are no longer alive. Exiting. Please check the print statements above for the actual error message
